…
I1024 20:35:19.775980 14846 net.cpp:261] The NetState phase (0) differed from the phase (1) specified by a rule in layer accuracy_pose_1
I1024 20:35:19.776880 14846 net.cpp:42] Initializing net from parameters: 
name: "CaffeNet"
force_backward: true
state {
  phase: TRAIN
}
layer {
  name: "data_action"
  type: "Data"
  top: "data_action"
  top: "label_action"
  include {
    phase: TRAIN
  }
  transform_param {
    mirror: false
    crop_size: 227
    mean_file: "imagenet_mean.binaryproto"
  }
  data_param {
    source: "/cs/vml2/zhiweid/CVPR16_NEW/data/0930/CAD_action_train_lmdb_0930"
    batch_size: 70
    backend: LMDB
  }
}
layer {
  name: "conv1_action"
  type: "Convolution"
  bottom: "data_action"
  top: "conv1_action"
  param {
    lr_mult: 0
    decay_mult: 0
  }
  param {
    lr_mult: 0
    decay_mult: 0
  }
  convolution_param {
    num_output: 96
    kernel_size: 11
    stride: 4
    weight_filler {
      type: "gaussian"
      std: 0.01
    }
    bias_filler {
      type: "constant"
      value: 0
    }
  }
}
layer {
  name: "relu1_action"
  type: "ReLU"
  bottom: "conv1_action"
  top: "conv1_action"
}
layer {
  name: "pool1_action"
  type: "Pooling"
  bottom: "conv1_action"
  top: "pool1_action"
  pooling_param {
    pool: MAX
    kernel_size: 3
    stride: 2
  }
}
layer {
  name: "norm1_action"
  type: "LRN"
  bottom: "pool1_action"
  top: "norm1_action"
  lrn_param {
    local_size: 5
    alpha: 0.0001
    beta: 0.75
  }
}
layer {
  name: "conv2_action"
  type: "Convolution"
  bottom: "norm1_action"
  top: "conv2_action"
  param {
    lr_mult: 0
    decay_mult: 0
  }
  param {
    lr_mult: 0
    decay_mult: 0
  }
  convolution_param {
    num_output: 256
    pad: 2
    kernel_size: 5
    group: 2
    weight_filler {
      type: "gaussian"
      std: 0.01
    }
    bias_filler {
      type: "constant"
      value: 1
    }
  }
}
layer {
  name: "relu2_action"
  type: "ReLU"
  bottom: "conv2_action"
  top: "conv2_action"
}
layer {
  name: "pool2_action"
  type: "Pooling"
  bottom: "conv2_action"
  top: "pool2_action"
  pooling_param {
    pool: MAX
    kernel_size: 3
    stride: 2
  }
}
layer {
  name: "norm2_action"
  type: "LRN"
  bottom: "pool2_action"
  top: "norm2_action"
  lrn_param {
    local_size: 5
    alpha: 0.0001
    beta: 0.75
  }
}
layer {
  name: "conv3_action"
  type: "Convolution"
  bottom: "norm2_action"
  top: "conv3_action"
  param {
    lr_mult: 0
    decay_mult: 0
  }
  param {
    lr_mult: 0
    decay_mult: 0
  }
  convolution_param {
    num_output: 384
    pad: 1
    kernel_size: 3
    weight_filler {
      type: "gaussian"
      std: 0.01
    }
    bias_filler {
      type: "constant"
      value: 0
    }
  }
}
layer {
  name: "relu3_action"
  type: "ReLU"
  bottom: "conv3_action"
  top: "conv3_action"
}
layer {
  name: "conv4_action"
  type: "Convolution"
  bottom: "conv3_action"
  top: "conv4_action"
  param {
    lr_mult: 0
    decay_mult: 0
  }
  param {
    lr_mult: 0
    decay_mult: 0
  }
  convolution_param {
    num_output: 384
    pad: 1
    kernel_size: 3
    group: 2
    weight_filler {
      type: "gaussian"
      std: 0.01
    }
    bias_filler {
      type: "constant"
      value: 1
    }
  }
}
layer {
  name: "relu4_action"
  type: "ReLU"
  bottom: "conv4_action"
  top: "conv4_action"
}
layer {
  name: "conv5_action"
  type: "Convolution"
  bottom: "conv4_action"
  top: "conv5_action"
  param {
    lr_mult: 0
    decay_mult: 0
  }
  param {
    lr_mult: 0
    decay_mult: 0
  }
  convolution_param {
    num_output: 256
    pad: 1
    kernel_size: 3
    group: 2
    weight_filler {
      type: "gaussian"
      std: 0.01
    }
    bias_filler {
      type: "constant"
      value: 1
    }
  }
}
layer {
  name: "relu5_action"
  type: "ReLU"
  bottom: "conv5_action"
  top: "conv5_action"
}
layer {
  name: "pool5_action"
  type: "Pooling"
  bottom: "conv5_action"
  top: "pool5_action"
  pooling_param {
    pool: MAX
    kernel_size: 3
    stride: 2
  }
}
layer {
  name: "fc6_action"
  type: "InnerProduct"
  bottom: "pool5_action"
  top: "fc6_action"
  param {
    lr_mult: 0
    decay_mult: 0
  }
  param {
    lr_mult: 0
    decay_mult: 0
  }
  inner_product_param {
    num_output: 4096
    weight_filler {
      type: "gaussian"
      std: 0.005
    }
    bias_filler {
      type: "constant"
      value: 1
    }
  }
}
layer {
  name: "relu6_action"
  type: "ReLU"
  bottom: "fc6_action"
  top: "fc6_action"
}
layer {
  name: "drop6_action"
  type: "Dropout"
  bottom: "fc6_action"
  top: "fc6_action"
  dropout_param {
    dropout_ratio: 0.5
  }
}
layer {
  name: "fc7_action"
  type: "InnerProduct"
  bottom: "fc6_action"
  top: "fc7_action"
  param {
    lr_mult: 0
    decay_mult: 0
  }
  param {
    lr_mult: 0
    decay_mult: 0
  }
  inner_product_param {
    num_output: 4096
    weight_filler {
      type: "gaussian"
      std: 0.005
    }
    bias_filler {
      type: "constant"
      value: 1
    }
  }
}
layer {
  name: "relu7_action"
  type: "ReLU"
  bottom: "fc7_action"
  top: "fc7_action"
}
layer {
  name: "drop7_action"
  type: "Dropout"
  bottom: "fc7_action"
  top: "fc7_action"
  dropout_param {
    dropout_ratio: 0.5
  }
}
layer {
  name: "fc8_CAD_action"
  type: "InnerProduct"
  bottom: "fc7_action"
  top: "fc8_CAD_action"
  param {
    lr_mult: 0
    decay_mult: 0
  }
  param {
    lr_mult: 0
    decay_mult: 0
  }
  inner_product_param {
    num_output: 7
    weight_filler {
      type: "gaussian"
      std: 0.01
    }
    bias_filler {
      type: "constant"
      value: 1
    }
  }
}
layer {
  name: "data_pose"
  type: "Data"
  top: "data_pose"
  top: "label_pose"
  include {
    phase: TRAIN
  }
  transform_param {
    mirror: true
    crop_size: 227
    mean_file: "imagenet_mean.binaryproto"
  }
  data_param {
    source: "/cs/vml2/zhiweid/CVPR16_NEW/data/0930/CAD_pose_train_lmdb_0930"
    batch_size: 70
    backend: LMDB
  }
}
layer {
  name: "conv1_pose"
  type: "Convolution"
  bottom: "data_pose"
  top: "conv1_pose"
  param {
    lr_mult: 0
    decay_mult: 0
  }
  param {
    lr_mult: 0
    decay_mult: 0
  }
  convolution_param {
    num_output: 96
    kernel_size: 11
    stride: 4
    weight_filler {
      type: "gaussian"
      std: 0.01
    }
    bias_filler {
      type: "constant"
      value: 0
    }
  }
}
layer {
  name: "relu1_pose"
  type: "ReLU"
  bottom: "conv1_pose"
  top: "conv1_pose"
}
layer {
  name: "pool1_pose"
  type: "Pooling"
  bottom: "conv1_pose"
  top: "pool1_pose"
  pooling_param {
    pool: MAX
    kernel_size: 3
    stride: 2
  }
}
layer {
  name: "norm1_pose"
  type: "LRN"
  bottom: "pool1_pose"
  top: "norm1_pose"
  lrn_param {
    local_size: 5
    alpha: 0.0001
    beta: 0.75
  }
}
layer {
  name: "conv2_pose"
  type: "Convolution"
  bottom: "norm1_pose"
  top: "conv2_pose"
  param {
    lr_mult: 0
    decay_mult: 0
  }
  param {
    lr_mult: 0
    decay_mult: 0
  }
  convolution_param {
    num_output: 256
    pad: 2
    kernel_size: 5
    group: 2
    weight_filler {
      type: "gaussian"
      std: 0.01
    }
    bias_filler {
      type: "constant"
      value: 1
    }
  }
}
layer {
  name: "relu2_pose"
  type: "ReLU"
  bottom: "conv2_pose"
  top: "conv2_pose"
}
layer {
  name: "pool2_pose"
  type: "Pooling"
  bottom: "conv2_pose"
  top: "pool2_pose"
  pooling_param {
    pool: MAX
    kernel_size: 3
    stride: 2
  }
}
layer {
  name: "norm2_pose"
  type: "LRN"
  bottom: "pool2_pose"
  top: "norm2_pose"
  lrn_param {
    local_size: 5
    alpha: 0.0001
    beta: 0.75
  }
}
layer {
  name: "conv3_pose"
  type: "Convolution"
  bottom: "norm2_pose"
  top: "conv3_pose"
  param {
    lr_mult: 0
    decay_mult: 0
  }
  param {
    lr_mult: 0
    decay_mult: 0
  }
  convolution_param {
    num_output: 384
    pad: 1
    kernel_size: 3
    weight_filler {
      type: "gaussian"
      std: 0.01
    }
    bias_filler {
      type: "constant"
      value: 0
    }
  }
}
layer {
  name: "relu3_pose"
  type: "ReLU"
  bottom: "conv3_pose"
  top: "conv3_pose"
}
layer {
  name: "conv4_pose"
  type: "Convolution"
  bottom: "conv3_pose"
  top: "conv4_pose"
  param {
    lr_mult: 0
    decay_mult: 0
  }
  param {
    lr_mult: 0
    decay_mult: 0
  }
  convolution_param {
    num_output: 384
    pad: 1
    kernel_size: 3
    group: 2
    weight_filler {
      type: "gaussian"
      std: 0.01
    }
    bias_filler {
      type: "constant"
      value: 1
    }
  }
}
layer {
  name: "relu4_pose"
  type: "ReLU"
  bottom: "conv4_pose"
  top: "conv4_pose"
}
layer {
  name: "conv5_pose"
  type: "Convolution"
  bottom: "conv4_pose"
  top: "conv5_pose"
  param {
    lr_mult: 0
    decay_mult: 0
  }
  param {
    lr_mult: 0
    decay_mult: 0
  }
  convolution_param {
    num_output: 256
    pad: 1
    kernel_size: 3
    group: 2
    weight_filler {
      type: "gaussian"
      std: 0.01
    }
    bias_filler {
      type: "constant"
      value: 1
    }
  }
}
layer {
  name: "relu5_pose"
  type: "ReLU"
  bottom: "conv5_pose"
  top: "conv5_pose"
}
layer {
  name: "pool5_pose"
  type: "Pooling"
  bottom: "conv5_pose"
  top: "pool5_pose"
  pooling_param {
    pool: MAX
    kernel_size: 3
    stride: 2
  }
}
layer {
  name: "fc6_pose"
  type: "InnerProduct"
  bottom: "pool5_pose"
  top: "fc6_pose"
  param {
    lr_mult: 0
    decay_mult: 0
  }
  param {
    lr_mult: 0
    decay_mult: 0
  }
  inner_product_param {
    num_output: 4096
    weight_filler {
      type: "gaussian"
      std: 0.005
    }
    bias_filler {
      type: "constant"
      value: 1
    }
  }
}
layer {
  name: "relu6_pose"
  type: "ReLU"
  bottom: "fc6_pose"
  top: "fc6_pose"
}
layer {
  name: "drop6_pose"
  type: "Dropout"
  bottom: "fc6_pose"
  top: "fc6_pose"
  dropout_param {
    dropout_ratio: 0.5
  }
}
layer {
  name: "fc7_pose"
  type: "InnerProduct"
  bottom: "fc6_pose"
  top: "fc7_pose"
  param {
    lr_mult: 0
    decay_mult: 0
  }
  param {
    lr_mult: 0
    decay_mult: 0
  }
  inner_product_param {
    num_output: 4096
    weight_filler {
      type: "gaussian"
      std: 0.005
    }
    bias_filler {
      type: "constant"
      value: 1
    }
  }
}
layer {
  name: "relu7_pose"
  type: "ReLU"
  bottom: "fc7_pose"
  top: "fc7_pose"
}
layer {
  name: "drop7_pose"
  type: "Dropout"
  bottom: "fc7_pose"
  top: "fc7_pose"
  dropout_param {
    dropout_ratio: 0.4
  }
}
layer {
  name: "fc8_CAD_pose"
  type: "InnerProduct"
  bottom: "fc7_pose"
  top: "fc8_CAD_pose"
  param {
    lr_mult: 0
    decay_mult: 0
  }
  param {
    lr_mult: 0
    decay_mult: 0
  }
  inner_product_param {
    num_output: 18
    bias_term: true
    weight_filler {
      type: "gaussian"
      std: 0.01
    }
  }
}
layer {
  name: "data_frame"
  type: "Data"
  top: "data_frame"
  top: "label_frame"
  include {
    phase: TRAIN
  }
  transform_param {
    mirror: true
    crop_size: 227
    mean_file: "imagenet_mean.binaryproto"
  }
  data_param {
    source: "/cs/vml2/zhiweid/CVPR16_NEW/data/0930/CAD_frame_train_lmdb_0930"
    batch_size: 5
    backend: LMDB
  }
}
layer {
  name: "context"
  type: "HDF5Data"
  top: "data_context"
  include {
    phase: TRAIN
  }
  hdf5_data_param {
    source: "/cs/vml2/zhiweid/CVPR16_NEW/data/0930/hdf5db/train_context.txt"
    batch_size: 5
  }
}
layer {
  name: "conv1_frame"
  type: "Convolution"
  bottom: "data_frame"
  top: "conv1_frame"
  param {
    lr_mult: 0
    decay_mult: 0
  }
  param {
    lr_mult: 0
    decay_mult: 0
  }
  convolution_param {
    num_output: 96
    kernel_size: 11
    stride: 4
    weight_filler {
      type: "gaussian"
      std: 0.01
    }
    bias_filler {
      type: "constant"
      value: 0
    }
  }
}
layer {
  name: "relu1_frame"
  type: "ReLU"
  bottom: "conv1_frame"
  top: "conv1_frame"
}
layer {
  name: "pool1_frame"
  type: "Pooling"
  bottom: "conv1_frame"
  top: "pool1_frame"
  pooling_param {
    pool: MAX
    kernel_size: 3
    stride: 2
  }
}
layer {
  name: "norm1_frame"
  type: "LRN"
  bottom: "pool1_frame"
  top: "norm1_frame"
  lrn_param {
    local_size: 5
    alpha: 0.0001
    beta: 0.75
  }
}
layer {
  name: "conv2_frame"
  type: "Convolution"
  bottom: "norm1_frame"
  top: "conv2_frame"
  param {
    lr_mult: 0
    decay_mult: 0
  }
  param {
    lr_mult: 0
    decay_mult: 0
  }
  convolution_param {
    num_output: 256
    pad: 2
    kernel_size: 5
    group: 2
    weight_filler {
      type: "gaussian"
      std: 0.01
    }
    bias_filler {
      type: "constant"
      value: 1
    }
  }
}
layer {
  name: "relu2_frame"
  type: "ReLU"
  bottom: "conv2_frame"
  top: "conv2_frame"
}
layer {
  name: "pool2_frame"
  type: "Pooling"
  bottom: "conv2_frame"
  top: "pool2_frame"
  pooling_param {
    pool: MAX
    kernel_size: 3
    stride: 2
  }
}
layer {
  name: "norm2_frame"
  type: "LRN"
  bottom: "pool2_frame"
  top: "norm2_frame"
  lrn_param {
    local_size: 5
    alpha: 0.0001
    beta: 0.75
  }
}
layer {
  name: "conv3_frame"
  type: "Convolution"
  bottom: "norm2_frame"
  top: "conv3_frame"
  param {
    lr_mult: 0
    decay_mult: 0
  }
  param {
    lr_mult: 0
    decay_mult: 0
  }
  convolution_param {
    num_output: 384
    pad: 1
    kernel_size: 3
    weight_filler {
      type: "gaussian"
      std: 0.01
    }
    bias_filler {
      type: "constant"
      value: 0
    }
  }
}
layer {
  name: "relu3_frame"
  type: "ReLU"
  bottom: "conv3_frame"
  top: "conv3_frame"
}
layer {
  name: "conv4_frame"
  type: "Convolution"
  bottom: "conv3_frame"
  top: "conv4_frame"
  param {
    lr_mult: 0
    decay_mult: 0
  }
  param {
    lr_mult: 0
    decay_mult: 0
  }
  convolution_param {
    num_output: 384
    pad: 1
    kernel_size: 3
    group: 2
    weight_filler {
      type: "gaussian"
      std: 0.01
    }
    bias_filler {
      type: "constant"
      value: 1
    }
  }
}
layer {
  name: "relu4_frame"
  type: "ReLU"
  bottom: "conv4_frame"
  top: "conv4_frame"
}
layer {
  name: "conv5_frame"
  type: "Convolution"
  bottom: "conv4_frame"
  top: "conv5_frame"
  param {
    lr_mult: 0
    decay_mult: 0
  }
  param {
    lr_mult: 0
    decay_mult: 0
  }
  convolution_param {
    num_output: 256
    pad: 1
    kernel_size: 3
    group: 2
    weight_filler {
      type: "gaussian"
      std: 0.01
    }
    bias_filler {
      type: "constant"
      value: 1
    }
  }
}
layer {
  name: "relu5_frame"
  type: "ReLU"
  bottom: "conv5_frame"
  top: "conv5_frame"
}
layer {
  name: "pool5_frame"
  type: "Pooling"
  bottom: "conv5_frame"
  top: "pool5_frame"
  pooling_param {
    pool: MAX
    kernel_size: 3
    stride: 2
  }
}
layer {
  name: "fc6_frame"
  type: "InnerProduct"
  bottom: "pool5_frame"
  top: "fc6_frame"
  param {
    lr_mult: 0
    decay_mult: 0
  }
  param {
    lr_mult: 0
    decay_mult: 0
  }
  inner_product_param {
    num_output: 4096
    weight_filler {
      type: "gaussian"
      std: 0.005
    }
    bias_filler {
      type: "constant"
      value: 1
    }
  }
}
layer {
  name: "relu6_frame"
  type: "ReLU"
  bottom: "fc6_frame"
  top: "fc6_frame"
}
layer {
  name: "drop6_frame"
  type: "Dropout"
  bottom: "fc6_frame"
  top: "fc6_frame"
  dropout_param {
    dropout_ratio: 0.5
  }
}
layer {
  name: "fc7_frame"
  type: "InnerProduct"
  bottom: "fc6_frame"
  top: "fc7_frame"
  param {
    lr_mult: 0
    decay_mult: 0
  }
  param {
    lr_mult: 0
    decay_mult: 0
  }
  inner_product_param {
    num_output: 4096
    weight_filler {
      type: "gaussian"
      std: 0.005
    }
    bias_filler {
      type: "constant"
      value: 1
    }
  }
}
layer {
  name: "relu7_frame"
  type: "ReLU"
  bottom: "fc7_frame"
  top: "fc7_frame"
}
layer {
  name: "drop7_frame"
  type: "Dropout"
  bottom: "fc7_frame"
  top: "fc7_frame"
  dropout_param {
    dropout_ratio: 0.5
  }
}
layer {
  name: "fc8_CAD_frame"
  type: "InnerProduct"
  bottom: "fc7_frame"
  top: "fc8_CAD_frame"
  param {
    lr_mult: 0
    decay_mult: 0
  }
  param {
    lr_mult: 0
    decay_mult: 0
  }
  inner_product_param {
    num_output: 5
    bias_term: true
    weight_filler {
      type: "gaussian"
      std: 0.01
    }
  }
}
layer {
  name: "fc8_context"
  type: "InnerProduct"
  bottom: "data_context"
  top: "fc8_context"
  param {
    lr_mult: 0
    decay_mult: 0
  }
  param {
    lr_mult: 0
    decay_mult: 0
  }
  inner_product_param {
    num_output: 5
    bias_term: true
    weight_filler {
      type: "gaussian"
      std: 0.01
    }
  }
}
layer {
  name: "sum_frame"
  type: "Eltwise"
  bottom: "fc8_context"
  bottom: "fc8_CAD_frame"
  top: "sum_frame"
  eltwise_param {
    operation: SUM
  }
}
layer {
  name: "prob_frame"
  type: "Softmax"
  bottom: "fc8_CAD_frame"
  top: "fc8_CAD_frame_prob"
}
layer {
  name: "prob_action"
  type: "Softmax"
  bottom: "fc8_CAD_action"
  top: "fc8_CAD_prob"
}
layer {
  name: "Data_arrange_layer_filter"
  type: "Python"
  bottom: "fc8_CAD_prob"
  bottom: "label_action"
  top: "fc9_filtered"
  python_param {
    module: "Data_arrange"
    layer: "Data_Arrange_Layer"
  }
}
layer {
  name: "concatenation_s_a_p"
  type: "Concat"
  bottom: "fc8_CAD_frame_prob"
  bottom: "fc9_filtered"
  top: "concat_all0"
  concat_param {
    concat_dim: 1
  }
}
layer {
  name: "Belief_Propagation_Recurrent_Neural_Network_ArrangeMessageIn1"
  type: "Python"
  bottom: "concat_all0"
  bottom: "label_action"
  top: "A_A_MessageIn1"
  top: "A_S_MessageIn1"
  top: "S_A_MessageIn1"
  python_param {
    module: "simplified_message_in"
    layer: "simplified_message_in"
  }
}
layer {
  name: "Belief_Propagation_Recurrent_Neural_Network_A_A_Message1"
  type: "InnerProduct"
  bottom: "A_A_MessageIn1"
  top: "A_A_MessageOut1"
  param {
    name: "W_hh_1"
    lr_mult: 10
    decay_mult: 10
  }
  param {
    lr_mult: 20
    decay_mult: 0
  }
  inner_product_param {
    num_output: 7
    bias_term: true
    weight_filler {
      type: "uniform"
      min: -0.08
      max: 0.08
    }
    bias_filler {
      type: "constant"
      value: 0
    }
    axis: 1
  }
}
layer {
  name: "Belief_Propagation_Recurrent_Neural_Network_A_S_Message1"
  type: "InnerProduct"
  bottom: "A_S_MessageIn1"
  top: "A_S_MessageOut1"
  param {
    name: "W_hh_2"
    lr_mult: 10
    decay_mult: 10
  }
  param {
    lr_mult: 20
    decay_mult: 0
  }
  inner_product_param {
    num_output: 5
    bias_term: true
    weight_filler {
      type: "uniform"
      min: -0.08
      max: 0.08
    }
    bias_filler {
      type: "constant"
      value: 0
    }
    axis: 1
  }
}
layer {
  name: "Belief_Propagation_Recurrent_Neural_Network_S_A_Message1"
  type: "InnerProduct"
  bottom: "S_A_MessageIn1"
  top: "S_A_MessageOut1"
  param {
    name: "W_hh_3"
    lr_mult: 10
    decay_mult: 10
  }
  param {
    lr_mult: 20
    decay_mult: 0
  }
  inner_product_param {
    num_output: 7
    bias_term: true
    weight_filler {
      type: "uniform"
      min: -0.08
      max: 0.08
    }
    bias_filler {
      type: "constant"
      value: 0
    }
    axis: 1
  }
}
layer {
  name: "Belief_Propagation_Recurrent_Neural_Network_ArrangeMessageOut1"
  type: "Python"
  bottom: "A_A_MessageOut1"
  bottom: "A_S_MessageOut1"
  bottom: "S_A_MessageOut1"
  bottom: "label_action"
  bottom: "concat_all0"
  top: "scene_1"
  top: "action_1"
  python_param {
    module: "simplified_message_out"
    layer: "simplified_message_out"
  }
}
layer {
  name: "Belief_Propagation_Recurrent_Neural_Network_Scene1"
  type: "InnerProduct"
  bottom: "scene_1"
  top: "scene_out1"
  param {
    name: "W_ho_1"
    lr_mult: 10
    decay_mult: 10
  }
  param {
    lr_mult: 20
    decay_mult: 0
  }
  inner_product_param {
    num_output: 5
    bias_term: true
    weight_filler {
      type: "uniform"
      min: -0.08
      max: 0.08
    }
    bias_filler {
      type: "constant"
      value: 0
    }
    axis: 1
  }
}
layer {
  name: "Belief_Propagation_Recurrent_Neural_Network_Action1"
  type: "InnerProduct"
  bottom: "action_1"
  top: "action_out1"
  param {
    name: "W_ho_2"
    lr_mult: 10
    decay_mult: 10
  }
  param {
    lr_mult: 20
    decay_mult: 0
  }
  inner_product_param {
    num_output: 7
    bias_term: true
    weight_filler {
      type: "uniform"
      min: -0.08
      max: 0.08
    }
    bias_filler {
      type: "constant"
      value: 0
    }
    axis: 1
  }
}
layer {
  name: "Belief_Propagation_Recurrent_Neural_Network_message_reshape1"
  type: "Python"
  bottom: "action_out1"
  top: "action_out_reshaped1"
  python_param {
    module: "Message_Reshape1"
    layer: "Message_Reshape1"
  }
}
layer {
  name: "Belief_Propagation_Recurrent_Neural_Network_Normalize_Scene_1"
  type: "Softmax"
  bottom: "scene_out1"
  top: "scene_normalized_1"
}
layer {
  name: "Belief_Propagation_Recurrent_Neural_Network_Normalize_Action_1"
  type: "Softmax"
  bottom: "action_out1"
  top: "action_normalized_1"
}
layer {
  name: "Belief_Propagation_Recurrent_Neural_Network_Data_arrange_layer_filter1"
  type: "Python"
  bottom: "action_normalized_1"
  bottom: "label_action"
  top: "fc9_filtered1"
  python_param {
    module: "Data_arrange"
    layer: "Data_Arrange_Layer"
  }
}
layer {
  name: "Belief_Propagation_Recurrent_Neural_Network_concatenation_s_a1"
  type: "Concat"
  bottom: "scene_normalized_1"
  bottom: "fc9_filtered1"
  top: "concat_all1"
  concat_param {
    concat_dim: 1
  }
}
layer {
  name: "Belief_Propagation_Recurrent_Neural_Network_message_reshape_pose1"
  type: "Python"
  bottom: "fc8_CAD_pose"
  top: "pose_out_reshaped1"
  python_param {
    module: "Message_Reshape1"
    layer: "Message_Reshape1"
  }
}
layer {
  name: "Data_arrange_layer_filter_mean_1"
  type: "Python"
  bottom: "action_out_reshaped1"
  bottom: "label_action"
  top: "action_pred_clean_1"
  top: "label_action_clean_1"
  python_param {
    module: "Data_Arrange_Loss_Action"
    layer: "Data_Arrange_Layer"
  }
}
layer {
  name: "Data_arrange_layer_accu_1"
  type: "Python"
  bottom: "action_pred_clean_1"
  bottom: "label_action"
  top: "action_pred_final_1"
  top: "label_action_accu_1"
  python_param {
    module: "Data_Arrange_Accuracy_Action"
    layer: "Data_Arrange_Layer"
  }
}
layer {
  name: "Data_arrange_layer_filter_pose_1"
  type: "Python"
  bottom: "pose_out_reshaped1"
  bottom: "label_action"
  bottom: "label_pose"
  top: "pose_pred_clean_1"
  top: "label_action_clean_1_trash"
  top: "label_pose_clean_1"
  python_param {
    module: "Data_Arrange_Loss_Action"
    layer: "Data_Arrange_Layer"
  }
}
layer {
  name: "Data_arrange_layer_accu_pose_1"
  type: "Python"
  bottom: "pose_pred_clean_1"
  bottom: "label_action"
  bottom: "label_pose"
  top: "pose_pred_final_1"
  top: "label_action_accu_1_trash"
  top: "label_pose_accu_1"
  python_param {
    module: "Data_Arrange_Accuracy_Action"
    layer: "Data_Arrange_Layer"
  }
}
layer {
  name: "scene_accuracy_arrange_1"
  type: "Python"
  bottom: "scene_out1"
  top: "scene_pred_final_1"
  python_param {
    module: "Data_Arrange_Accuracy_Scene"
    layer: "Data_Arrange_Layer"
  }
}
layer {
  name: "scene_loss_arrange_1"
  type: "Python"
  bottom: "scene_out1"
  bottom: "label_frame"
  top: "scene_pred_all_1"
  top: "scene_label_all_1"
  python_param {
    module: "Data_Arrange_Loss_Scene"
    layer: "Data_Arrange_Layer"
  }
}
layer {
  name: "silence_layer"
  type: "Python"
  bottom: "label_frame"
  bottom: "concat_all1"
  bottom: "scene_pred_final_1"
  bottom: "action_pred_final_1"
  bottom: "label_action_accu_1"
  bottom: "label_pose_accu_1"
  bottom: "label_action_accu_1_trash"
  bottom: "label_action_clean_1_trash"
  bottom: "pose_pred_final_1"
  bottom: "sum_frame"
  python_param {
    module: "Silence"
    layer: "Silence_Layer"
  }
}
layer {
  name: "loss_scene_1"
  type: "SoftmaxWithLoss"
  bottom: "scene_pred_all_1"
  bottom: "scene_label_all_1"
  top: "loss_scene_1"
}
layer {
  name: "loss_action_1"
  type: "SoftmaxWithLoss"
  bottom: "action_pred_clean_1"
  bottom: "label_action_clean_1"
  top: "loss_action_1"
}
layer {
  name: "loss_pose_1"
  type: "SoftmaxWithLoss"
  bottom: "pose_pred_clean_1"
  bottom: "label_pose_clean_1"
  top: "loss_pose_1"
}
I1024 20:35:19.777350 14846 layer_factory.hpp:74] Creating layer data_action
I1024 20:35:19.777374 14846 net.cpp:84] Creating Layer data_action
I1024 20:35:19.777384 14846 net.cpp:342] data_action -> data_action
I1024 20:35:19.777415 14846 net.cpp:342] data_action -> label_action
I1024 20:35:19.777426 14846 net.cpp:113] Setting up data_action
I1024 20:35:19.781170 14846 db.cpp:34] Opened lmdb /cs/vml2/zhiweid/CVPR16_NEW/data/0930/CAD_action_train_lmdb_0930
I1024 20:35:19.781769 14846 data_layer.cpp:67] output data size: 70,3,227,227
I1024 20:35:19.781785 14846 data_transformer.cpp:22] Loading mean file from: imagenet_mean.binaryproto
I1024 20:35:19.791421 14846 net.cpp:120] Top shape: 70 3 227 227 (10821090)
I1024 20:35:19.791450 14846 net.cpp:120] Top shape: 70 (70)
I1024 20:35:19.791461 14846 layer_factory.hpp:74] Creating layer label_action_data_action_1_split
I1024 20:35:19.791478 14846 net.cpp:84] Creating Layer label_action_data_action_1_split
I1024 20:35:19.791492 14846 net.cpp:384] label_action_data_action_1_split <- label_action
I1024 20:35:19.791512 14846 net.cpp:342] label_action_data_action_1_split -> label_action_data_action_1_split_0
I1024 20:35:19.791527 14846 net.cpp:342] label_action_data_action_1_split -> label_action_data_action_1_split_1
I1024 20:35:19.791538 14846 net.cpp:342] label_action_data_action_1_split -> label_action_data_action_1_split_2
I1024 20:35:19.791548 14846 net.cpp:342] label_action_data_action_1_split -> label_action_data_action_1_split_3
I1024 20:35:19.791558 14846 net.cpp:342] label_action_data_action_1_split -> label_action_data_action_1_split_4
I1024 20:35:19.791568 14846 net.cpp:342] label_action_data_action_1_split -> label_action_data_action_1_split_5
I1024 20:35:19.791579 14846 net.cpp:342] label_action_data_action_1_split -> label_action_data_action_1_split_6
I1024 20:35:19.791589 14846 net.cpp:342] label_action_data_action_1_split -> label_action_data_action_1_split_7
I1024 20:35:19.791599 14846 net.cpp:113] Setting up label_action_data_action_1_split
I1024 20:35:19.791612 14846 net.cpp:120] Top shape: 70 (70)
I1024 20:35:19.791620 14846 net.cpp:120] Top shape: 70 (70)
I1024 20:35:19.791628 14846 net.cpp:120] Top shape: 70 (70)
I1024 20:35:19.791636 14846 net.cpp:120] Top shape: 70 (70)
I1024 20:35:19.791643 14846 net.cpp:120] Top shape: 70 (70)
I1024 20:35:19.791651 14846 net.cpp:120] Top shape: 70 (70)
I1024 20:35:19.791659 14846 net.cpp:120] Top shape: 70 (70)
I1024 20:35:19.791666 14846 net.cpp:120] Top shape: 70 (70)
I1024 20:35:19.791673 14846 layer_factory.hpp:74] Creating layer conv1_action
I1024 20:35:19.791688 14846 net.cpp:84] Creating Layer conv1_action
I1024 20:35:19.791697 14846 net.cpp:384] conv1_action <- data_action
I1024 20:35:19.791705 14846 net.cpp:342] conv1_action -> conv1_action
I1024 20:35:19.791718 14846 net.cpp:113] Setting up conv1_action
I1024 20:35:19.792345 14846 net.cpp:120] Top shape: 70 96 55 55 (20328000)
I1024 20:35:19.792376 14846 layer_factory.hpp:74] Creating layer relu1_action
I1024 20:35:19.792388 14846 net.cpp:84] Creating Layer relu1_action
I1024 20:35:19.792395 14846 net.cpp:384] relu1_action <- conv1_action
I1024 20:35:19.792405 14846 net.cpp:331] relu1_action -> conv1_action (in-place)
I1024 20:35:19.792418 14846 net.cpp:113] Setting up relu1_action
I1024 20:35:19.792436 14846 net.cpp:120] Top shape: 70 96 55 55 (20328000)
I1024 20:35:19.792467 14846 layer_factory.hpp:74] Creating layer pool1_action
I1024 20:35:19.792482 14846 net.cpp:84] Creating Layer pool1_action
I1024 20:35:19.792500 14846 net.cpp:384] pool1_action <- conv1_action
I1024 20:35:19.792512 14846 net.cpp:342] pool1_action -> pool1_action
I1024 20:35:19.792526 14846 net.cpp:113] Setting up pool1_action
I1024 20:35:19.792553 14846 net.cpp:120] Top shape: 70 96 27 27 (4898880)
I1024 20:35:19.792563 14846 layer_factory.hpp:74] Creating layer norm1_action
I1024 20:35:19.792577 14846 net.cpp:84] Creating Layer norm1_action
I1024 20:35:19.792588 14846 net.cpp:384] norm1_action <- pool1_action
I1024 20:35:19.792598 14846 net.cpp:342] norm1_action -> norm1_action
I1024 20:35:19.792609 14846 net.cpp:113] Setting up norm1_action
I1024 20:35:19.792623 14846 net.cpp:120] Top shape: 70 96 27 27 (4898880)
I1024 20:35:19.792629 14846 layer_factory.hpp:74] Creating layer conv2_action
I1024 20:35:19.792640 14846 net.cpp:84] Creating Layer conv2_action
I1024 20:35:19.792646 14846 net.cpp:384] conv2_action <- norm1_action
I1024 20:35:19.792657 14846 net.cpp:342] conv2_action -> conv2_action
I1024 20:35:19.792668 14846 net.cpp:113] Setting up conv2_action
I1024 20:35:19.797125 14846 net.cpp:120] Top shape: 70 256 27 27 (13063680)
I1024 20:35:19.797144 14846 layer_factory.hpp:74] Creating layer relu2_action
I1024 20:35:19.797155 14846 net.cpp:84] Creating Layer relu2_action
I1024 20:35:19.797161 14846 net.cpp:384] relu2_action <- conv2_action
I1024 20:35:19.797168 14846 net.cpp:331] relu2_action -> conv2_action (in-place)
I1024 20:35:19.797178 14846 net.cpp:113] Setting up relu2_action
I1024 20:35:19.797185 14846 net.cpp:120] Top shape: 70 256 27 27 (13063680)
I1024 20:35:19.797191 14846 layer_factory.hpp:74] Creating layer pool2_action
I1024 20:35:19.797201 14846 net.cpp:84] Creating Layer pool2_action
I1024 20:35:19.797207 14846 net.cpp:384] pool2_action <- conv2_action
I1024 20:35:19.797214 14846 net.cpp:342] pool2_action -> pool2_action
I1024 20:35:19.797222 14846 net.cpp:113] Setting up pool2_action
I1024 20:35:19.797231 14846 net.cpp:120] Top shape: 70 256 13 13 (3028480)
I1024 20:35:19.797238 14846 layer_factory.hpp:74] Creating layer norm2_action
I1024 20:35:19.797250 14846 net.cpp:84] Creating Layer norm2_action
I1024 20:35:19.797256 14846 net.cpp:384] norm2_action <- pool2_action
I1024 20:35:19.797266 14846 net.cpp:342] norm2_action -> norm2_action
I1024 20:35:19.797273 14846 net.cpp:113] Setting up norm2_action
I1024 20:35:19.797283 14846 net.cpp:120] Top shape: 70 256 13 13 (3028480)
I1024 20:35:19.797289 14846 layer_factory.hpp:74] Creating layer conv3_action
I1024 20:35:19.797299 14846 net.cpp:84] Creating Layer conv3_action
I1024 20:35:19.797305 14846 net.cpp:384] conv3_action <- norm2_action
I1024 20:35:19.797313 14846 net.cpp:342] conv3_action -> conv3_action
I1024 20:35:19.797324 14846 net.cpp:113] Setting up conv3_action
I1024 20:35:19.809556 14846 net.cpp:120] Top shape: 70 384 13 13 (4542720)
I1024 20:35:19.809595 14846 layer_factory.hpp:74] Creating layer relu3_action
I1024 20:35:19.809612 14846 net.cpp:84] Creating Layer relu3_action
I1024 20:35:19.809619 14846 net.cpp:384] relu3_action <- conv3_action
I1024 20:35:19.809630 14846 net.cpp:331] relu3_action -> conv3_action (in-place)
I1024 20:35:19.809641 14846 net.cpp:113] Setting up relu3_action
I1024 20:35:19.809649 14846 net.cpp:120] Top shape: 70 384 13 13 (4542720)
I1024 20:35:19.809654 14846 layer_factory.hpp:74] Creating layer conv4_action
I1024 20:35:19.809669 14846 net.cpp:84] Creating Layer conv4_action
I1024 20:35:19.809674 14846 net.cpp:384] conv4_action <- conv3_action
I1024 20:35:19.809682 14846 net.cpp:342] conv4_action -> conv4_action
I1024 20:35:19.809691 14846 net.cpp:113] Setting up conv4_action
I1024 20:35:19.818948 14846 net.cpp:120] Top shape: 70 384 13 13 (4542720)
I1024 20:35:19.818981 14846 layer_factory.hpp:74] Creating layer relu4_action
I1024 20:35:19.818994 14846 net.cpp:84] Creating Layer relu4_action
I1024 20:35:19.819005 14846 net.cpp:384] relu4_action <- conv4_action
I1024 20:35:19.819036 14846 net.cpp:331] relu4_action -> conv4_action (in-place)
I1024 20:35:19.819046 14846 net.cpp:113] Setting up relu4_action
I1024 20:35:19.819054 14846 net.cpp:120] Top shape: 70 384 13 13 (4542720)
I1024 20:35:19.819059 14846 layer_factory.hpp:74] Creating layer conv5_action
I1024 20:35:19.819072 14846 net.cpp:84] Creating Layer conv5_action
I1024 20:35:19.819078 14846 net.cpp:384] conv5_action <- conv4_action
I1024 20:35:19.819087 14846 net.cpp:342] conv5_action -> conv5_action
I1024 20:35:19.819095 14846 net.cpp:113] Setting up conv5_action
I1024 20:35:19.825364 14846 net.cpp:120] Top shape: 70 256 13 13 (3028480)
I1024 20:35:19.825405 14846 layer_factory.hpp:74] Creating layer relu5_action
I1024 20:35:19.825419 14846 net.cpp:84] Creating Layer relu5_action
I1024 20:35:19.825426 14846 net.cpp:384] relu5_action <- conv5_action
I1024 20:35:19.825435 14846 net.cpp:331] relu5_action -> conv5_action (in-place)
I1024 20:35:19.825445 14846 net.cpp:113] Setting up relu5_action
I1024 20:35:19.825453 14846 net.cpp:120] Top shape: 70 256 13 13 (3028480)
I1024 20:35:19.825459 14846 layer_factory.hpp:74] Creating layer pool5_action
I1024 20:35:19.825470 14846 net.cpp:84] Creating Layer pool5_action
I1024 20:35:19.825475 14846 net.cpp:384] pool5_action <- conv5_action
I1024 20:35:19.825484 14846 net.cpp:342] pool5_action -> pool5_action
I1024 20:35:19.825497 14846 net.cpp:113] Setting up pool5_action
I1024 20:35:19.825507 14846 net.cpp:120] Top shape: 70 256 6 6 (645120)
I1024 20:35:19.825513 14846 layer_factory.hpp:74] Creating layer fc6_action
I1024 20:35:19.825528 14846 net.cpp:84] Creating Layer fc6_action
I1024 20:35:19.825534 14846 net.cpp:384] fc6_action <- pool5_action
I1024 20:35:19.825542 14846 net.cpp:342] fc6_action -> fc6_action
I1024 20:35:19.825554 14846 net.cpp:113] Setting up fc6_action
I1024 20:35:20.304141 14846 net.cpp:120] Top shape: 70 4096 (286720)
I1024 20:35:20.304180 14846 layer_factory.hpp:74] Creating layer relu6_action
I1024 20:35:20.304198 14846 net.cpp:84] Creating Layer relu6_action
I1024 20:35:20.304204 14846 net.cpp:384] relu6_action <- fc6_action
I1024 20:35:20.304215 14846 net.cpp:331] relu6_action -> fc6_action (in-place)
I1024 20:35:20.304225 14846 net.cpp:113] Setting up relu6_action
I1024 20:35:20.304234 14846 net.cpp:120] Top shape: 70 4096 (286720)
I1024 20:35:20.304239 14846 layer_factory.hpp:74] Creating layer drop6_action
I1024 20:35:20.304250 14846 net.cpp:84] Creating Layer drop6_action
I1024 20:35:20.304256 14846 net.cpp:384] drop6_action <- fc6_action
I1024 20:35:20.304263 14846 net.cpp:331] drop6_action -> fc6_action (in-place)
I1024 20:35:20.304272 14846 net.cpp:113] Setting up drop6_action
I1024 20:35:20.304286 14846 net.cpp:120] Top shape: 70 4096 (286720)
I1024 20:35:20.304292 14846 layer_factory.hpp:74] Creating layer fc7_action
I1024 20:35:20.304302 14846 net.cpp:84] Creating Layer fc7_action
I1024 20:35:20.304307 14846 net.cpp:384] fc7_action <- fc6_action
I1024 20:35:20.304316 14846 net.cpp:342] fc7_action -> fc7_action
I1024 20:35:20.304324 14846 net.cpp:113] Setting up fc7_action
I1024 20:35:20.518301 14846 net.cpp:120] Top shape: 70 4096 (286720)
I1024 20:35:20.518344 14846 layer_factory.hpp:74] Creating layer relu7_action
I1024 20:35:20.518359 14846 net.cpp:84] Creating Layer relu7_action
I1024 20:35:20.518367 14846 net.cpp:384] relu7_action <- fc7_action
I1024 20:35:20.518376 14846 net.cpp:331] relu7_action -> fc7_action (in-place)
I1024 20:35:20.518386 14846 net.cpp:113] Setting up relu7_action
I1024 20:35:20.518394 14846 net.cpp:120] Top shape: 70 4096 (286720)
I1024 20:35:20.518400 14846 layer_factory.hpp:74] Creating layer drop7_action
I1024 20:35:20.518410 14846 net.cpp:84] Creating Layer drop7_action
I1024 20:35:20.518416 14846 net.cpp:384] drop7_action <- fc7_action
I1024 20:35:20.518424 14846 net.cpp:331] drop7_action -> fc7_action (in-place)
I1024 20:35:20.518431 14846 net.cpp:113] Setting up drop7_action
I1024 20:35:20.518440 14846 net.cpp:120] Top shape: 70 4096 (286720)
I1024 20:35:20.518450 14846 layer_factory.hpp:74] Creating layer fc8_CAD_action
I1024 20:35:20.518483 14846 net.cpp:84] Creating Layer fc8_CAD_action
I1024 20:35:20.518493 14846 net.cpp:384] fc8_CAD_action <- fc7_action
I1024 20:35:20.518503 14846 net.cpp:342] fc8_CAD_action -> fc8_CAD_action
I1024 20:35:20.518513 14846 net.cpp:113] Setting up fc8_CAD_action
I1024 20:35:20.518908 14846 net.cpp:120] Top shape: 70 7 (490)
I1024 20:35:20.518918 14846 layer_factory.hpp:74] Creating layer data_pose
I1024 20:35:20.518930 14846 net.cpp:84] Creating Layer data_pose
I1024 20:35:20.518939 14846 net.cpp:342] data_pose -> data_pose
I1024 20:35:20.518950 14846 net.cpp:342] data_pose -> label_pose
I1024 20:35:20.518959 14846 net.cpp:113] Setting up data_pose
I1024 20:35:20.547350 14846 db.cpp:34] Opened lmdb /cs/vml2/zhiweid/CVPR16_NEW/data/0930/CAD_pose_train_lmdb_0930
I1024 20:35:20.547953 14846 data_layer.cpp:67] output data size: 70,3,227,227
I1024 20:35:20.547981 14846 data_transformer.cpp:22] Loading mean file from: imagenet_mean.binaryproto
I1024 20:35:20.561766 14846 net.cpp:120] Top shape: 70 3 227 227 (10821090)
I1024 20:35:20.561800 14846 net.cpp:120] Top shape: 70 (70)
I1024 20:35:20.561815 14846 layer_factory.hpp:74] Creating layer label_pose_data_pose_1_split
I1024 20:35:20.561833 14846 net.cpp:84] Creating Layer label_pose_data_pose_1_split
I1024 20:35:20.561846 14846 net.cpp:384] label_pose_data_pose_1_split <- label_pose
I1024 20:35:20.561863 14846 net.cpp:342] label_pose_data_pose_1_split -> label_pose_data_pose_1_split_0
I1024 20:35:20.561884 14846 net.cpp:342] label_pose_data_pose_1_split -> label_pose_data_pose_1_split_1
I1024 20:35:20.561900 14846 net.cpp:113] Setting up label_pose_data_pose_1_split
I1024 20:35:20.561918 14846 net.cpp:120] Top shape: 70 (70)
I1024 20:35:20.561931 14846 net.cpp:120] Top shape: 70 (70)
I1024 20:35:20.561942 14846 layer_factory.hpp:74] Creating layer conv1_pose
I1024 20:35:20.561961 14846 net.cpp:84] Creating Layer conv1_pose
I1024 20:35:20.561974 14846 net.cpp:384] conv1_pose <- data_pose
I1024 20:35:20.561990 14846 net.cpp:342] conv1_pose -> conv1_pose
I1024 20:35:20.562006 14846 net.cpp:113] Setting up conv1_pose
I1024 20:35:20.562999 14846 net.cpp:120] Top shape: 70 96 55 55 (20328000)
I1024 20:35:20.563030 14846 layer_factory.hpp:74] Creating layer relu1_pose
I1024 20:35:20.563045 14846 net.cpp:84] Creating Layer relu1_pose
I1024 20:35:20.563056 14846 net.cpp:384] relu1_pose <- conv1_pose
I1024 20:35:20.563071 14846 net.cpp:331] relu1_pose -> conv1_pose (in-place)
I1024 20:35:20.563086 14846 net.cpp:113] Setting up relu1_pose
I1024 20:35:20.563102 14846 net.cpp:120] Top shape: 70 96 55 55 (20328000)
I1024 20:35:20.563113 14846 layer_factory.hpp:74] Creating layer pool1_pose
I1024 20:35:20.563128 14846 net.cpp:84] Creating Layer pool1_pose
I1024 20:35:20.563143 14846 net.cpp:384] pool1_pose <- conv1_pose
I1024 20:35:20.563158 14846 net.cpp:342] pool1_pose -> pool1_pose
I1024 20:35:20.563175 14846 net.cpp:113] Setting up pool1_pose
I1024 20:35:20.563195 14846 net.cpp:120] Top shape: 70 96 27 27 (4898880)
I1024 20:35:20.563207 14846 layer_factory.hpp:74] Creating layer norm1_pose
I1024 20:35:20.563222 14846 net.cpp:84] Creating Layer norm1_pose
I1024 20:35:20.563233 14846 net.cpp:384] norm1_pose <- pool1_pose
I1024 20:35:20.563248 14846 net.cpp:342] norm1_pose -> norm1_pose
I1024 20:35:20.563263 14846 net.cpp:113] Setting up norm1_pose
I1024 20:35:20.563282 14846 net.cpp:120] Top shape: 70 96 27 27 (4898880)
I1024 20:35:20.563292 14846 layer_factory.hpp:74] Creating layer conv2_pose
I1024 20:35:20.563308 14846 net.cpp:84] Creating Layer conv2_pose
I1024 20:35:20.563319 14846 net.cpp:384] conv2_pose <- norm1_pose
I1024 20:35:20.563335 14846 net.cpp:342] conv2_pose -> conv2_pose
I1024 20:35:20.563351 14846 net.cpp:113] Setting up conv2_pose
I1024 20:35:20.567510 14846 net.cpp:120] Top shape: 70 256 27 27 (13063680)
I1024 20:35:20.567549 14846 layer_factory.hpp:74] Creating layer relu2_pose
I1024 20:35:20.567566 14846 net.cpp:84] Creating Layer relu2_pose
I1024 20:35:20.567579 14846 net.cpp:384] relu2_pose <- conv2_pose
I1024 20:35:20.567610 14846 net.cpp:331] relu2_pose -> conv2_pose (in-place)
I1024 20:35:20.567620 14846 net.cpp:113] Setting up relu2_pose
I1024 20:35:20.567628 14846 net.cpp:120] Top shape: 70 256 27 27 (13063680)
I1024 20:35:20.567634 14846 layer_factory.hpp:74] Creating layer pool2_pose
I1024 20:35:20.567647 14846 net.cpp:84] Creating Layer pool2_pose
I1024 20:35:20.567653 14846 net.cpp:384] pool2_pose <- conv2_pose
I1024 20:35:20.567662 14846 net.cpp:342] pool2_pose -> pool2_pose
I1024 20:35:20.567672 14846 net.cpp:113] Setting up pool2_pose
I1024 20:35:20.567682 14846 net.cpp:120] Top shape: 70 256 13 13 (3028480)
I1024 20:35:20.567688 14846 layer_factory.hpp:74] Creating layer norm2_pose
I1024 20:35:20.567700 14846 net.cpp:84] Creating Layer norm2_pose
I1024 20:35:20.567706 14846 net.cpp:384] norm2_pose <- pool2_pose
I1024 20:35:20.567713 14846 net.cpp:342] norm2_pose -> norm2_pose
I1024 20:35:20.567725 14846 net.cpp:113] Setting up norm2_pose
I1024 20:35:20.567734 14846 net.cpp:120] Top shape: 70 256 13 13 (3028480)
I1024 20:35:20.567740 14846 layer_factory.hpp:74] Creating layer conv3_pose
I1024 20:35:20.567754 14846 net.cpp:84] Creating Layer conv3_pose
I1024 20:35:20.567759 14846 net.cpp:384] conv3_pose <- norm2_pose
I1024 20:35:20.567770 14846 net.cpp:342] conv3_pose -> conv3_pose
I1024 20:35:20.567780 14846 net.cpp:113] Setting up conv3_pose
I1024 20:35:20.579805 14846 net.cpp:120] Top shape: 70 384 13 13 (4542720)
I1024 20:35:20.579843 14846 layer_factory.hpp:74] Creating layer relu3_pose
I1024 20:35:20.579855 14846 net.cpp:84] Creating Layer relu3_pose
I1024 20:35:20.579865 14846 net.cpp:384] relu3_pose <- conv3_pose
I1024 20:35:20.579874 14846 net.cpp:331] relu3_pose -> conv3_pose (in-place)
I1024 20:35:20.579885 14846 net.cpp:113] Setting up relu3_pose
I1024 20:35:20.579892 14846 net.cpp:120] Top shape: 70 384 13 13 (4542720)
I1024 20:35:20.579897 14846 layer_factory.hpp:74] Creating layer conv4_pose
I1024 20:35:20.579908 14846 net.cpp:84] Creating Layer conv4_pose
I1024 20:35:20.579915 14846 net.cpp:384] conv4_pose <- conv3_pose
I1024 20:35:20.579923 14846 net.cpp:342] conv4_pose -> conv4_pose
I1024 20:35:20.579933 14846 net.cpp:113] Setting up conv4_pose
I1024 20:35:20.589227 14846 net.cpp:120] Top shape: 70 384 13 13 (4542720)
I1024 20:35:20.589262 14846 layer_factory.hpp:74] Creating layer relu4_pose
I1024 20:35:20.589282 14846 net.cpp:84] Creating Layer relu4_pose
I1024 20:35:20.589289 14846 net.cpp:384] relu4_pose <- conv4_pose
I1024 20:35:20.589298 14846 net.cpp:331] relu4_pose -> conv4_pose (in-place)
I1024 20:35:20.589308 14846 net.cpp:113] Setting up relu4_pose
I1024 20:35:20.589316 14846 net.cpp:120] Top shape: 70 384 13 13 (4542720)
I1024 20:35:20.589321 14846 layer_factory.hpp:74] Creating layer conv5_pose
I1024 20:35:20.589334 14846 net.cpp:84] Creating Layer conv5_pose
I1024 20:35:20.589339 14846 net.cpp:384] conv5_pose <- conv4_pose
I1024 20:35:20.589347 14846 net.cpp:342] conv5_pose -> conv5_pose
I1024 20:35:20.589356 14846 net.cpp:113] Setting up conv5_pose
I1024 20:35:20.595608 14846 net.cpp:120] Top shape: 70 256 13 13 (3028480)
I1024 20:35:20.595644 14846 layer_factory.hpp:74] Creating layer relu5_pose
I1024 20:35:20.595657 14846 net.cpp:84] Creating Layer relu5_pose
I1024 20:35:20.595664 14846 net.cpp:384] relu5_pose <- conv5_pose
I1024 20:35:20.595674 14846 net.cpp:331] relu5_pose -> conv5_pose (in-place)
I1024 20:35:20.595684 14846 net.cpp:113] Setting up relu5_pose
I1024 20:35:20.595690 14846 net.cpp:120] Top shape: 70 256 13 13 (3028480)
I1024 20:35:20.595696 14846 layer_factory.hpp:74] Creating layer pool5_pose
I1024 20:35:20.595705 14846 net.cpp:84] Creating Layer pool5_pose
I1024 20:35:20.595710 14846 net.cpp:384] pool5_pose <- conv5_pose
I1024 20:35:20.595721 14846 net.cpp:342] pool5_pose -> pool5_pose
I1024 20:35:20.595731 14846 net.cpp:113] Setting up pool5_pose
I1024 20:35:20.595741 14846 net.cpp:120] Top shape: 70 256 6 6 (645120)
I1024 20:35:20.595746 14846 layer_factory.hpp:74] Creating layer fc6_pose
I1024 20:35:20.595762 14846 net.cpp:84] Creating Layer fc6_pose
I1024 20:35:20.595767 14846 net.cpp:384] fc6_pose <- pool5_pose
I1024 20:35:20.595795 14846 net.cpp:342] fc6_pose -> fc6_pose
I1024 20:35:20.595805 14846 net.cpp:113] Setting up fc6_pose
I1024 20:35:21.072994 14846 net.cpp:120] Top shape: 70 4096 (286720)
I1024 20:35:21.073040 14846 layer_factory.hpp:74] Creating layer relu6_pose
I1024 20:35:21.073056 14846 net.cpp:84] Creating Layer relu6_pose
I1024 20:35:21.073065 14846 net.cpp:384] relu6_pose <- fc6_pose
I1024 20:35:21.073074 14846 net.cpp:331] relu6_pose -> fc6_pose (in-place)
I1024 20:35:21.073084 14846 net.cpp:113] Setting up relu6_pose
I1024 20:35:21.073092 14846 net.cpp:120] Top shape: 70 4096 (286720)
I1024 20:35:21.073098 14846 layer_factory.hpp:74] Creating layer drop6_pose
I1024 20:35:21.073107 14846 net.cpp:84] Creating Layer drop6_pose
I1024 20:35:21.073112 14846 net.cpp:384] drop6_pose <- fc6_pose
I1024 20:35:21.073119 14846 net.cpp:331] drop6_pose -> fc6_pose (in-place)
I1024 20:35:21.073127 14846 net.cpp:113] Setting up drop6_pose
I1024 20:35:21.073137 14846 net.cpp:120] Top shape: 70 4096 (286720)
I1024 20:35:21.073142 14846 layer_factory.hpp:74] Creating layer fc7_pose
I1024 20:35:21.073151 14846 net.cpp:84] Creating Layer fc7_pose
I1024 20:35:21.073156 14846 net.cpp:384] fc7_pose <- fc6_pose
I1024 20:35:21.073166 14846 net.cpp:342] fc7_pose -> fc7_pose
I1024 20:35:21.073176 14846 net.cpp:113] Setting up fc7_pose
I1024 20:35:21.285235 14846 net.cpp:120] Top shape: 70 4096 (286720)
I1024 20:35:21.285275 14846 layer_factory.hpp:74] Creating layer relu7_pose
I1024 20:35:21.285293 14846 net.cpp:84] Creating Layer relu7_pose
I1024 20:35:21.285301 14846 net.cpp:384] relu7_pose <- fc7_pose
I1024 20:35:21.285310 14846 net.cpp:331] relu7_pose -> fc7_pose (in-place)
I1024 20:35:21.285320 14846 net.cpp:113] Setting up relu7_pose
I1024 20:35:21.285328 14846 net.cpp:120] Top shape: 70 4096 (286720)
I1024 20:35:21.285334 14846 layer_factory.hpp:74] Creating layer drop7_pose
I1024 20:35:21.285342 14846 net.cpp:84] Creating Layer drop7_pose
I1024 20:35:21.285348 14846 net.cpp:384] drop7_pose <- fc7_pose
I1024 20:35:21.285354 14846 net.cpp:331] drop7_pose -> fc7_pose (in-place)
I1024 20:35:21.285362 14846 net.cpp:113] Setting up drop7_pose
I1024 20:35:21.285372 14846 net.cpp:120] Top shape: 70 4096 (286720)
I1024 20:35:21.285377 14846 layer_factory.hpp:74] Creating layer fc8_CAD_pose
I1024 20:35:21.285388 14846 net.cpp:84] Creating Layer fc8_CAD_pose
I1024 20:35:21.285394 14846 net.cpp:384] fc8_CAD_pose <- fc7_pose
I1024 20:35:21.285401 14846 net.cpp:342] fc8_CAD_pose -> fc8_CAD_pose
I1024 20:35:21.285411 14846 net.cpp:113] Setting up fc8_CAD_pose
I1024 20:35:21.286401 14846 net.cpp:120] Top shape: 70 18 (1260)
I1024 20:35:21.286413 14846 layer_factory.hpp:74] Creating layer data_frame
I1024 20:35:21.286427 14846 net.cpp:84] Creating Layer data_frame
I1024 20:35:21.286435 14846 net.cpp:342] data_frame -> data_frame
I1024 20:35:21.286448 14846 net.cpp:342] data_frame -> label_frame
I1024 20:35:21.286455 14846 net.cpp:113] Setting up data_frame
I1024 20:35:21.390285 14846 db.cpp:34] Opened lmdb /cs/vml2/zhiweid/CVPR16_NEW/data/0930/CAD_frame_train_lmdb_0930
I1024 20:35:21.390923 14846 data_layer.cpp:67] output data size: 5,3,227,227
I1024 20:35:21.390950 14846 data_transformer.cpp:22] Loading mean file from: imagenet_mean.binaryproto
I1024 20:35:21.395833 14846 net.cpp:120] Top shape: 5 3 227 227 (772935)
I1024 20:35:21.395859 14846 net.cpp:120] Top shape: 5 (5)
I1024 20:35:21.395871 14846 layer_factory.hpp:74] Creating layer label_frame_data_frame_1_split
I1024 20:35:21.395889 14846 net.cpp:84] Creating Layer label_frame_data_frame_1_split
I1024 20:35:21.395900 14846 net.cpp:384] label_frame_data_frame_1_split <- label_frame
I1024 20:35:21.395916 14846 net.cpp:342] label_frame_data_frame_1_split -> label_frame_data_frame_1_split_0
I1024 20:35:21.395936 14846 net.cpp:342] label_frame_data_frame_1_split -> label_frame_data_frame_1_split_1
I1024 20:35:21.395952 14846 net.cpp:113] Setting up label_frame_data_frame_1_split
I1024 20:35:21.395975 14846 net.cpp:120] Top shape: 5 (5)
I1024 20:35:21.396018 14846 net.cpp:120] Top shape: 5 (5)
I1024 20:35:21.396030 14846 layer_factory.hpp:74] Creating layer context
I1024 20:35:21.396055 14846 net.cpp:84] Creating Layer context
I1024 20:35:21.396070 14846 net.cpp:342] context -> data_context
I1024 20:35:21.396090 14846 net.cpp:113] Setting up context
I1024 20:35:21.396105 14846 hdf5_data_layer.cpp:80] Loading list of HDF5 filenames from: /cs/vml2/zhiweid/CVPR16_NEW/data/0930/hdf5db/train_context.txt
I1024 20:35:21.396615 14846 hdf5_data_layer.cpp:94] Number of HDF5 files: 1
I1024 20:35:21.400549 14846 net.cpp:120] Top shape: 5 240 (1200)
I1024 20:35:21.400585 14846 layer_factory.hpp:74] Creating layer conv1_frame
I1024 20:35:21.400612 14846 net.cpp:84] Creating Layer conv1_frame
I1024 20:35:21.400627 14846 net.cpp:384] conv1_frame <- data_frame
I1024 20:35:21.400647 14846 net.cpp:342] conv1_frame -> conv1_frame
I1024 20:35:21.400670 14846 net.cpp:113] Setting up conv1_frame
I1024 20:35:21.401636 14846 net.cpp:120] Top shape: 5 96 55 55 (1452000)
I1024 20:35:21.401669 14846 layer_factory.hpp:74] Creating layer relu1_frame
I1024 20:35:21.401686 14846 net.cpp:84] Creating Layer relu1_frame
I1024 20:35:21.401700 14846 net.cpp:384] relu1_frame <- conv1_frame
I1024 20:35:21.401715 14846 net.cpp:331] relu1_frame -> conv1_frame (in-place)
I1024 20:35:21.401729 14846 net.cpp:113] Setting up relu1_frame
I1024 20:35:21.401744 14846 net.cpp:120] Top shape: 5 96 55 55 (1452000)
I1024 20:35:21.401757 14846 layer_factory.hpp:74] Creating layer pool1_frame
I1024 20:35:21.401772 14846 net.cpp:84] Creating Layer pool1_frame
I1024 20:35:21.401783 14846 net.cpp:384] pool1_frame <- conv1_frame
I1024 20:35:21.401799 14846 net.cpp:342] pool1_frame -> pool1_frame
I1024 20:35:21.401816 14846 net.cpp:113] Setting up pool1_frame
I1024 20:35:21.401836 14846 net.cpp:120] Top shape: 5 96 27 27 (349920)
I1024 20:35:21.401849 14846 layer_factory.hpp:74] Creating layer norm1_frame
I1024 20:35:21.401864 14846 net.cpp:84] Creating Layer norm1_frame
I1024 20:35:21.401875 14846 net.cpp:384] norm1_frame <- pool1_frame
I1024 20:35:21.401890 14846 net.cpp:342] norm1_frame -> norm1_frame
I1024 20:35:21.401906 14846 net.cpp:113] Setting up norm1_frame
I1024 20:35:21.401924 14846 net.cpp:120] Top shape: 5 96 27 27 (349920)
I1024 20:35:21.401935 14846 layer_factory.hpp:74] Creating layer conv2_frame
I1024 20:35:21.401952 14846 net.cpp:84] Creating Layer conv2_frame
I1024 20:35:21.401963 14846 net.cpp:384] conv2_frame <- norm1_frame
I1024 20:35:21.401979 14846 net.cpp:342] conv2_frame -> conv2_frame
I1024 20:35:21.401996 14846 net.cpp:113] Setting up conv2_frame
I1024 20:35:21.411329 14846 net.cpp:120] Top shape: 5 256 27 27 (933120)
I1024 20:35:21.411358 14846 layer_factory.hpp:74] Creating layer relu2_frame
I1024 20:35:21.411375 14846 net.cpp:84] Creating Layer relu2_frame
I1024 20:35:21.411387 14846 net.cpp:384] relu2_frame <- conv2_frame
I1024 20:35:21.411402 14846 net.cpp:331] relu2_frame -> conv2_frame (in-place)
I1024 20:35:21.411418 14846 net.cpp:113] Setting up relu2_frame
I1024 20:35:21.411433 14846 net.cpp:120] Top shape: 5 256 27 27 (933120)
I1024 20:35:21.411444 14846 layer_factory.hpp:74] Creating layer pool2_frame
I1024 20:35:21.411459 14846 net.cpp:84] Creating Layer pool2_frame
I1024 20:35:21.411470 14846 net.cpp:384] pool2_frame <- conv2_frame
I1024 20:35:21.411494 14846 net.cpp:342] pool2_frame -> pool2_frame
I1024 20:35:21.411511 14846 net.cpp:113] Setting up pool2_frame
I1024 20:35:21.411531 14846 net.cpp:120] Top shape: 5 256 13 13 (216320)
I1024 20:35:21.411543 14846 layer_factory.hpp:74] Creating layer norm2_frame
I1024 20:35:21.411558 14846 net.cpp:84] Creating Layer norm2_frame
I1024 20:35:21.411569 14846 net.cpp:384] norm2_frame <- pool2_frame
I1024 20:35:21.411584 14846 net.cpp:342] norm2_frame -> norm2_frame
I1024 20:35:21.411631 14846 net.cpp:113] Setting up norm2_frame
I1024 20:35:21.411649 14846 net.cpp:120] Top shape: 5 256 13 13 (216320)
I1024 20:35:21.411660 14846 layer_factory.hpp:74] Creating layer conv3_frame
I1024 20:35:21.411684 14846 net.cpp:84] Creating Layer conv3_frame
I1024 20:35:21.411725 14846 net.cpp:384] conv3_frame <- norm2_frame
I1024 20:35:21.411743 14846 net.cpp:342] conv3_frame -> conv3_frame
I1024 20:35:21.411761 14846 net.cpp:113] Setting up conv3_frame
I1024 20:35:21.424108 14846 net.cpp:120] Top shape: 5 384 13 13 (324480)
I1024 20:35:21.424130 14846 layer_factory.hpp:74] Creating layer relu3_frame
I1024 20:35:21.424144 14846 net.cpp:84] Creating Layer relu3_frame
I1024 20:35:21.424150 14846 net.cpp:384] relu3_frame <- conv3_frame
I1024 20:35:21.424159 14846 net.cpp:331] relu3_frame -> conv3_frame (in-place)
I1024 20:35:21.424166 14846 net.cpp:113] Setting up relu3_frame
I1024 20:35:21.424175 14846 net.cpp:120] Top shape: 5 384 13 13 (324480)
I1024 20:35:21.424180 14846 layer_factory.hpp:74] Creating layer conv4_frame
I1024 20:35:21.424190 14846 net.cpp:84] Creating Layer conv4_frame
I1024 20:35:21.424195 14846 net.cpp:384] conv4_frame <- conv3_frame
I1024 20:35:21.424203 14846 net.cpp:342] conv4_frame -> conv4_frame
I1024 20:35:21.424211 14846 net.cpp:113] Setting up conv4_frame
I1024 20:35:21.433043 14846 net.cpp:120] Top shape: 5 384 13 13 (324480)
I1024 20:35:21.433058 14846 layer_factory.hpp:74] Creating layer relu4_frame
I1024 20:35:21.433066 14846 net.cpp:84] Creating Layer relu4_frame
I1024 20:35:21.433073 14846 net.cpp:384] relu4_frame <- conv4_frame
I1024 20:35:21.433079 14846 net.cpp:331] relu4_frame -> conv4_frame (in-place)
I1024 20:35:21.433087 14846 net.cpp:113] Setting up relu4_frame
I1024 20:35:21.433094 14846 net.cpp:120] Top shape: 5 384 13 13 (324480)
I1024 20:35:21.433099 14846 layer_factory.hpp:74] Creating layer conv5_frame
I1024 20:35:21.433107 14846 net.cpp:84] Creating Layer conv5_frame
I1024 20:35:21.433114 14846 net.cpp:384] conv5_frame <- conv4_frame
I1024 20:35:21.433120 14846 net.cpp:342] conv5_frame -> conv5_frame
I1024 20:35:21.433128 14846 net.cpp:113] Setting up conv5_frame
I1024 20:35:21.439225 14846 net.cpp:120] Top shape: 5 256 13 13 (216320)
I1024 20:35:21.439241 14846 layer_factory.hpp:74] Creating layer relu5_frame
I1024 20:35:21.439260 14846 net.cpp:84] Creating Layer relu5_frame
I1024 20:35:21.439267 14846 net.cpp:384] relu5_frame <- conv5_frame
I1024 20:35:21.439275 14846 net.cpp:331] relu5_frame -> conv5_frame (in-place)
I1024 20:35:21.439282 14846 net.cpp:113] Setting up relu5_frame
I1024 20:35:21.439291 14846 net.cpp:120] Top shape: 5 256 13 13 (216320)
I1024 20:35:21.439296 14846 layer_factory.hpp:74] Creating layer pool5_frame
I1024 20:35:21.439304 14846 net.cpp:84] Creating Layer pool5_frame
I1024 20:35:21.439311 14846 net.cpp:384] pool5_frame <- conv5_frame
I1024 20:35:21.439318 14846 net.cpp:342] pool5_frame -> pool5_frame
I1024 20:35:21.439327 14846 net.cpp:113] Setting up pool5_frame
I1024 20:35:21.439337 14846 net.cpp:120] Top shape: 5 256 6 6 (46080)
I1024 20:35:21.439342 14846 layer_factory.hpp:74] Creating layer fc6_frame
I1024 20:35:21.439352 14846 net.cpp:84] Creating Layer fc6_frame
I1024 20:35:21.439357 14846 net.cpp:384] fc6_frame <- pool5_frame
I1024 20:35:21.439365 14846 net.cpp:342] fc6_frame -> fc6_frame
I1024 20:35:21.439374 14846 net.cpp:113] Setting up fc6_frame
I1024 20:35:21.916077 14846 net.cpp:120] Top shape: 5 4096 (20480)
I1024 20:35:21.916123 14846 layer_factory.hpp:74] Creating layer relu6_frame
I1024 20:35:21.916137 14846 net.cpp:84] Creating Layer relu6_frame
I1024 20:35:21.916146 14846 net.cpp:384] relu6_frame <- fc6_frame
I1024 20:35:21.916154 14846 net.cpp:331] relu6_frame -> fc6_frame (in-place)
I1024 20:35:21.916165 14846 net.cpp:113] Setting up relu6_frame
I1024 20:35:21.916173 14846 net.cpp:120] Top shape: 5 4096 (20480)
I1024 20:35:21.916178 14846 layer_factory.hpp:74] Creating layer drop6_frame
I1024 20:35:21.916188 14846 net.cpp:84] Creating Layer drop6_frame
I1024 20:35:21.916193 14846 net.cpp:384] drop6_frame <- fc6_frame
I1024 20:35:21.916200 14846 net.cpp:331] drop6_frame -> fc6_frame (in-place)
I1024 20:35:21.916208 14846 net.cpp:113] Setting up drop6_frame
I1024 20:35:21.916216 14846 net.cpp:120] Top shape: 5 4096 (20480)
I1024 20:35:21.916229 14846 layer_factory.hpp:74] Creating layer fc7_frame
I1024 20:35:21.916259 14846 net.cpp:84] Creating Layer fc7_frame
I1024 20:35:21.916265 14846 net.cpp:384] fc7_frame <- fc6_frame
I1024 20:35:21.916273 14846 net.cpp:342] fc7_frame -> fc7_frame
I1024 20:35:21.916287 14846 net.cpp:113] Setting up fc7_frame
I1024 20:35:22.129129 14846 net.cpp:120] Top shape: 5 4096 (20480)
I1024 20:35:22.129171 14846 layer_factory.hpp:74] Creating layer relu7_frame
I1024 20:35:22.129189 14846 net.cpp:84] Creating Layer relu7_frame
I1024 20:35:22.129196 14846 net.cpp:384] relu7_frame <- fc7_frame
I1024 20:35:22.129205 14846 net.cpp:331] relu7_frame -> fc7_frame (in-place)
I1024 20:35:22.129215 14846 net.cpp:113] Setting up relu7_frame
I1024 20:35:22.129223 14846 net.cpp:120] Top shape: 5 4096 (20480)
I1024 20:35:22.129230 14846 layer_factory.hpp:74] Creating layer drop7_frame
I1024 20:35:22.129238 14846 net.cpp:84] Creating Layer drop7_frame
I1024 20:35:22.129243 14846 net.cpp:384] drop7_frame <- fc7_frame
I1024 20:35:22.129251 14846 net.cpp:331] drop7_frame -> fc7_frame (in-place)
I1024 20:35:22.129258 14846 net.cpp:113] Setting up drop7_frame
I1024 20:35:22.129267 14846 net.cpp:120] Top shape: 5 4096 (20480)
I1024 20:35:22.129272 14846 layer_factory.hpp:74] Creating layer fc8_CAD_frame
I1024 20:35:22.129282 14846 net.cpp:84] Creating Layer fc8_CAD_frame
I1024 20:35:22.129287 14846 net.cpp:384] fc8_CAD_frame <- fc7_frame
I1024 20:35:22.129295 14846 net.cpp:342] fc8_CAD_frame -> fc8_CAD_frame
I1024 20:35:22.129312 14846 net.cpp:113] Setting up fc8_CAD_frame
I1024 20:35:22.129587 14846 net.cpp:120] Top shape: 5 5 (25)
I1024 20:35:22.129598 14846 layer_factory.hpp:74] Creating layer fc8_CAD_frame_fc8_CAD_frame_0_split
I1024 20:35:22.129606 14846 net.cpp:84] Creating Layer fc8_CAD_frame_fc8_CAD_frame_0_split
I1024 20:35:22.129612 14846 net.cpp:384] fc8_CAD_frame_fc8_CAD_frame_0_split <- fc8_CAD_frame
I1024 20:35:22.129621 14846 net.cpp:342] fc8_CAD_frame_fc8_CAD_frame_0_split -> fc8_CAD_frame_fc8_CAD_frame_0_split_0
I1024 20:35:22.129629 14846 net.cpp:342] fc8_CAD_frame_fc8_CAD_frame_0_split -> fc8_CAD_frame_fc8_CAD_frame_0_split_1
I1024 20:35:22.129637 14846 net.cpp:113] Setting up fc8_CAD_frame_fc8_CAD_frame_0_split
I1024 20:35:22.129644 14846 net.cpp:120] Top shape: 5 5 (25)
I1024 20:35:22.129662 14846 net.cpp:120] Top shape: 5 5 (25)
I1024 20:35:22.129667 14846 layer_factory.hpp:74] Creating layer fc8_context
I1024 20:35:22.129675 14846 net.cpp:84] Creating Layer fc8_context
I1024 20:35:22.129681 14846 net.cpp:384] fc8_context <- data_context
I1024 20:35:22.129689 14846 net.cpp:342] fc8_context -> fc8_context
I1024 20:35:22.129698 14846 net.cpp:113] Setting up fc8_context
I1024 20:35:22.129724 14846 net.cpp:120] Top shape: 5 5 (25)
I1024 20:35:22.129732 14846 layer_factory.hpp:74] Creating layer sum_frame
I1024 20:35:22.129748 14846 net.cpp:84] Creating Layer sum_frame
I1024 20:35:22.129755 14846 net.cpp:384] sum_frame <- fc8_context
I1024 20:35:22.129760 14846 net.cpp:384] sum_frame <- fc8_CAD_frame_fc8_CAD_frame_0_split_0
I1024 20:35:22.129768 14846 net.cpp:342] sum_frame -> sum_frame
I1024 20:35:22.129777 14846 net.cpp:113] Setting up sum_frame
I1024 20:35:22.129786 14846 net.cpp:120] Top shape: 5 5 (25)
I1024 20:35:22.129791 14846 layer_factory.hpp:74] Creating layer prob_frame
I1024 20:35:22.129798 14846 net.cpp:84] Creating Layer prob_frame
I1024 20:35:22.129804 14846 net.cpp:384] prob_frame <- fc8_CAD_frame_fc8_CAD_frame_0_split_1
I1024 20:35:22.129812 14846 net.cpp:342] prob_frame -> fc8_CAD_frame_prob
I1024 20:35:22.129818 14846 net.cpp:113] Setting up prob_frame
I1024 20:35:22.129829 14846 net.cpp:120] Top shape: 5 5 (25)
I1024 20:35:22.129834 14846 layer_factory.hpp:74] Creating layer prob_action
I1024 20:35:22.129842 14846 net.cpp:84] Creating Layer prob_action
I1024 20:35:22.129848 14846 net.cpp:384] prob_action <- fc8_CAD_action
I1024 20:35:22.129853 14846 net.cpp:342] prob_action -> fc8_CAD_prob
I1024 20:35:22.129861 14846 net.cpp:113] Setting up prob_action
I1024 20:35:22.129869 14846 net.cpp:120] Top shape: 70 7 (490)
I1024 20:35:22.129880 14846 layer_factory.hpp:74] Creating layer Data_arrange_layer_filter
I1024 20:35:24.725775 14846 net.cpp:84] Creating Layer Data_arrange_layer_filter
I1024 20:35:24.725811 14846 net.cpp:384] Data_arrange_layer_filter <- fc8_CAD_prob
I1024 20:35:24.725826 14846 net.cpp:384] Data_arrange_layer_filter <- label_action_data_action_1_split_0
I1024 20:35:24.725834 14846 net.cpp:342] Data_arrange_layer_filter -> fc9_filtered
I1024 20:35:24.725853 14846 net.cpp:113] Setting up Data_arrange_layer_filter
I1024 20:35:24.725915 14846 net.cpp:120] Top shape: 5 98 (490)
I1024 20:35:24.725926 14846 layer_factory.hpp:74] Creating layer concatenation_s_a_p
I1024 20:35:24.725939 14846 net.cpp:84] Creating Layer concatenation_s_a_p
I1024 20:35:24.725946 14846 net.cpp:384] concatenation_s_a_p <- fc8_CAD_frame_prob
I1024 20:35:24.725953 14846 net.cpp:384] concatenation_s_a_p <- fc9_filtered
I1024 20:35:24.725965 14846 net.cpp:342] concatenation_s_a_p -> concat_all0
I1024 20:35:24.725975 14846 net.cpp:113] Setting up concatenation_s_a_p
I1024 20:35:24.725986 14846 net.cpp:120] Top shape: 5 103 (515)
I1024 20:35:24.725991 14846 layer_factory.hpp:74] Creating layer concat_all0_concatenation_s_a_p_0_split
I1024 20:35:24.725998 14846 net.cpp:84] Creating Layer concat_all0_concatenation_s_a_p_0_split
I1024 20:35:24.726004 14846 net.cpp:384] concat_all0_concatenation_s_a_p_0_split <- concat_all0
I1024 20:35:24.726011 14846 net.cpp:342] concat_all0_concatenation_s_a_p_0_split -> concat_all0_concatenation_s_a_p_0_split_0
I1024 20:35:24.726019 14846 net.cpp:342] concat_all0_concatenation_s_a_p_0_split -> concat_all0_concatenation_s_a_p_0_split_1
I1024 20:35:24.726027 14846 net.cpp:113] Setting up concat_all0_concatenation_s_a_p_0_split
I1024 20:35:24.726035 14846 net.cpp:120] Top shape: 5 103 (515)
I1024 20:35:24.726042 14846 net.cpp:120] Top shape: 5 103 (515)
I1024 20:35:24.726047 14846 layer_factory.hpp:74] Creating layer Belief_Propagation_Recurrent_Neural_Network_ArrangeMessageIn1
I1024 20:35:24.727179 14846 net.cpp:84] Creating Layer Belief_Propagation_Recurrent_Neural_Network_ArrangeMessageIn1
I1024 20:35:24.727191 14846 net.cpp:384] Belief_Propagation_Recurrent_Neural_Network_ArrangeMessageIn1 <- concat_all0_concatenation_s_a_p_0_split_0
I1024 20:35:24.727198 14846 net.cpp:384] Belief_Propagation_Recurrent_Neural_Network_ArrangeMessageIn1 <- label_action_data_action_1_split_1
I1024 20:35:24.727206 14846 net.cpp:342] Belief_Propagation_Recurrent_Neural_Network_ArrangeMessageIn1 -> A_A_MessageIn1
I1024 20:35:24.727216 14846 net.cpp:342] Belief_Propagation_Recurrent_Neural_Network_ArrangeMessageIn1 -> A_S_MessageIn1
I1024 20:35:24.727224 14846 net.cpp:342] Belief_Propagation_Recurrent_Neural_Network_ArrangeMessageIn1 -> S_A_MessageIn1
I1024 20:35:24.727232 14846 net.cpp:113] Setting up Belief_Propagation_Recurrent_Neural_Network_ArrangeMessageIn1
I1024 20:35:24.727538 14846 net.cpp:120] Top shape: 1 7 (7)
I1024 20:35:24.727550 14846 net.cpp:120] Top shape: 1 7 (7)
I1024 20:35:24.727557 14846 net.cpp:120] Top shape: 1 5 (5)
I1024 20:35:24.727563 14846 layer_factory.hpp:74] Creating layer Belief_Propagation_Recurrent_Neural_Network_A_A_Message1
I1024 20:35:24.727574 14846 net.cpp:84] Creating Layer Belief_Propagation_Recurrent_Neural_Network_A_A_Message1
I1024 20:35:24.727581 14846 net.cpp:384] Belief_Propagation_Recurrent_Neural_Network_A_A_Message1 <- A_A_MessageIn1
I1024 20:35:24.727588 14846 net.cpp:342] Belief_Propagation_Recurrent_Neural_Network_A_A_Message1 -> A_A_MessageOut1
I1024 20:35:24.727598 14846 net.cpp:113] Setting up Belief_Propagation_Recurrent_Neural_Network_A_A_Message1
I1024 20:35:24.727625 14846 net.cpp:120] Top shape: 1 7 (7)
I1024 20:35:24.727637 14846 layer_factory.hpp:74] Creating layer Belief_Propagation_Recurrent_Neural_Network_A_S_Message1
I1024 20:35:24.727645 14846 net.cpp:84] Creating Layer Belief_Propagation_Recurrent_Neural_Network_A_S_Message1
I1024 20:35:24.727651 14846 net.cpp:384] Belief_Propagation_Recurrent_Neural_Network_A_S_Message1 <- A_S_MessageIn1
I1024 20:35:24.727663 14846 net.cpp:342] Belief_Propagation_Recurrent_Neural_Network_A_S_Message1 -> A_S_MessageOut1
I1024 20:35:24.727696 14846 net.cpp:113] Setting up Belief_Propagation_Recurrent_Neural_Network_A_S_Message1
I1024 20:35:24.727710 14846 net.cpp:120] Top shape: 1 5 (5)
I1024 20:35:24.727718 14846 layer_factory.hpp:74] Creating layer Belief_Propagation_Recurrent_Neural_Network_S_A_Message1
I1024 20:35:24.727726 14846 net.cpp:84] Creating Layer Belief_Propagation_Recurrent_Neural_Network_S_A_Message1
I1024 20:35:24.727732 14846 net.cpp:384] Belief_Propagation_Recurrent_Neural_Network_S_A_Message1 <- S_A_MessageIn1
I1024 20:35:24.727741 14846 net.cpp:342] Belief_Propagation_Recurrent_Neural_Network_S_A_Message1 -> S_A_MessageOut1
I1024 20:35:24.727749 14846 net.cpp:113] Setting up Belief_Propagation_Recurrent_Neural_Network_S_A_Message1
I1024 20:35:24.727761 14846 net.cpp:120] Top shape: 1 7 (7)
I1024 20:35:24.727768 14846 layer_factory.hpp:74] Creating layer Belief_Propagation_Recurrent_Neural_Network_ArrangeMessageOut1
I1024 20:35:24.728901 14846 net.cpp:84] Creating Layer Belief_Propagation_Recurrent_Neural_Network_ArrangeMessageOut1
I1024 20:35:24.728914 14846 net.cpp:384] Belief_Propagation_Recurrent_Neural_Network_ArrangeMessageOut1 <- A_A_MessageOut1
I1024 20:35:24.728922 14846 net.cpp:384] Belief_Propagation_Recurrent_Neural_Network_ArrangeMessageOut1 <- A_S_MessageOut1
I1024 20:35:24.728929 14846 net.cpp:384] Belief_Propagation_Recurrent_Neural_Network_ArrangeMessageOut1 <- S_A_MessageOut1
I1024 20:35:24.728935 14846 net.cpp:384] Belief_Propagation_Recurrent_Neural_Network_ArrangeMessageOut1 <- label_action_data_action_1_split_2
I1024 20:35:24.728941 14846 net.cpp:384] Belief_Propagation_Recurrent_Neural_Network_ArrangeMessageOut1 <- concat_all0_concatenation_s_a_p_0_split_1
I1024 20:35:24.728950 14846 net.cpp:342] Belief_Propagation_Recurrent_Neural_Network_ArrangeMessageOut1 -> scene_1
I1024 20:35:24.728960 14846 net.cpp:342] Belief_Propagation_Recurrent_Neural_Network_ArrangeMessageOut1 -> action_1
I1024 20:35:24.728967 14846 net.cpp:113] Setting up Belief_Propagation_Recurrent_Neural_Network_ArrangeMessageOut1
I1024 20:35:24.729162 14846 net.cpp:120] Top shape: 5 10 (50)
I1024 20:35:24.729174 14846 net.cpp:120] Top shape: 70 21 (1470)
I1024 20:35:24.729182 14846 layer_factory.hpp:74] Creating layer Belief_Propagation_Recurrent_Neural_Network_Scene1
I1024 20:35:24.729190 14846 net.cpp:84] Creating Layer Belief_Propagation_Recurrent_Neural_Network_Scene1
I1024 20:35:24.729197 14846 net.cpp:384] Belief_Propagation_Recurrent_Neural_Network_Scene1 <- scene_1
I1024 20:35:24.729204 14846 net.cpp:342] Belief_Propagation_Recurrent_Neural_Network_Scene1 -> scene_out1
I1024 20:35:24.729214 14846 net.cpp:113] Setting up Belief_Propagation_Recurrent_Neural_Network_Scene1
I1024 20:35:24.729228 14846 net.cpp:120] Top shape: 5 5 (25)
I1024 20:35:24.729235 14846 layer_factory.hpp:74] Creating layer scene_out1_Belief_Propagation_Recurrent_Neural_Network_Scene1_0_split
I1024 20:35:24.729243 14846 net.cpp:84] Creating Layer scene_out1_Belief_Propagation_Recurrent_Neural_Network_Scene1_0_split
I1024 20:35:24.729249 14846 net.cpp:384] scene_out1_Belief_Propagation_Recurrent_Neural_Network_Scene1_0_split <- scene_out1
I1024 20:35:24.729255 14846 net.cpp:342] scene_out1_Belief_Propagation_Recurrent_Neural_Network_Scene1_0_split -> scene_out1_Belief_Propagation_Recurrent_Neural_Network_Scene1_0_split_0
I1024 20:35:24.729264 14846 net.cpp:342] scene_out1_Belief_Propagation_Recurrent_Neural_Network_Scene1_0_split -> scene_out1_Belief_Propagation_Recurrent_Neural_Network_Scene1_0_split_1
I1024 20:35:24.729272 14846 net.cpp:342] scene_out1_Belief_Propagation_Recurrent_Neural_Network_Scene1_0_split -> scene_out1_Belief_Propagation_Recurrent_Neural_Network_Scene1_0_split_2
I1024 20:35:24.729279 14846 net.cpp:113] Setting up scene_out1_Belief_Propagation_Recurrent_Neural_Network_Scene1_0_split
I1024 20:35:24.729287 14846 net.cpp:120] Top shape: 5 5 (25)
I1024 20:35:24.729293 14846 net.cpp:120] Top shape: 5 5 (25)
I1024 20:35:24.729302 14846 net.cpp:120] Top shape: 5 5 (25)
I1024 20:35:24.729307 14846 layer_factory.hpp:74] Creating layer Belief_Propagation_Recurrent_Neural_Network_Action1
I1024 20:35:24.729326 14846 net.cpp:84] Creating Layer Belief_Propagation_Recurrent_Neural_Network_Action1
I1024 20:35:24.729332 14846 net.cpp:384] Belief_Propagation_Recurrent_Neural_Network_Action1 <- action_1
I1024 20:35:24.729341 14846 net.cpp:342] Belief_Propagation_Recurrent_Neural_Network_Action1 -> action_out1
I1024 20:35:24.729348 14846 net.cpp:113] Setting up Belief_Propagation_Recurrent_Neural_Network_Action1
I1024 20:35:24.729362 14846 net.cpp:120] Top shape: 70 7 (490)
I1024 20:35:24.729370 14846 layer_factory.hpp:74] Creating layer action_out1_Belief_Propagation_Recurrent_Neural_Network_Action1_0_split
I1024 20:35:24.729378 14846 net.cpp:84] Creating Layer action_out1_Belief_Propagation_Recurrent_Neural_Network_Action1_0_split
I1024 20:35:24.729383 14846 net.cpp:384] action_out1_Belief_Propagation_Recurrent_Neural_Network_Action1_0_split <- action_out1
I1024 20:35:24.729390 14846 net.cpp:342] action_out1_Belief_Propagation_Recurrent_Neural_Network_Action1_0_split -> action_out1_Belief_Propagation_Recurrent_Neural_Network_Action1_0_split_0
I1024 20:35:24.729398 14846 net.cpp:342] action_out1_Belief_Propagation_Recurrent_Neural_Network_Action1_0_split -> action_out1_Belief_Propagation_Recurrent_Neural_Network_Action1_0_split_1
I1024 20:35:24.729406 14846 net.cpp:113] Setting up action_out1_Belief_Propagation_Recurrent_Neural_Network_Action1_0_split
I1024 20:35:24.729413 14846 net.cpp:120] Top shape: 70 7 (490)
I1024 20:35:24.729419 14846 net.cpp:120] Top shape: 70 7 (490)
I1024 20:35:24.729424 14846 layer_factory.hpp:74] Creating layer Belief_Propagation_Recurrent_Neural_Network_message_reshape1
I1024 20:35:24.730509 14846 net.cpp:84] Creating Layer Belief_Propagation_Recurrent_Neural_Network_message_reshape1
I1024 20:35:24.730522 14846 net.cpp:384] Belief_Propagation_Recurrent_Neural_Network_message_reshape1 <- action_out1_Belief_Propagation_Recurrent_Neural_Network_Action1_0_split_0
I1024 20:35:24.730531 14846 net.cpp:342] Belief_Propagation_Recurrent_Neural_Network_message_reshape1 -> action_out_reshaped1
I1024 20:35:24.730540 14846 net.cpp:113] Setting up Belief_Propagation_Recurrent_Neural_Network_message_reshape1
I1024 20:35:24.730571 14846 net.cpp:120] Top shape: 5 98 (490)
I1024 20:35:24.730579 14846 layer_factory.hpp:74] Creating layer Belief_Propagation_Recurrent_Neural_Network_Normalize_Scene_1
I1024 20:35:24.730587 14846 net.cpp:84] Creating Layer Belief_Propagation_Recurrent_Neural_Network_Normalize_Scene_1
I1024 20:35:24.730593 14846 net.cpp:384] Belief_Propagation_Recurrent_Neural_Network_Normalize_Scene_1 <- scene_out1_Belief_Propagation_Recurrent_Neural_Network_Scene1_0_split_0
I1024 20:35:24.730602 14846 net.cpp:342] Belief_Propagation_Recurrent_Neural_Network_Normalize_Scene_1 -> scene_normalized_1
I1024 20:35:24.730609 14846 net.cpp:113] Setting up Belief_Propagation_Recurrent_Neural_Network_Normalize_Scene_1
I1024 20:35:24.730618 14846 net.cpp:120] Top shape: 5 5 (25)
I1024 20:35:24.730623 14846 layer_factory.hpp:74] Creating layer Belief_Propagation_Recurrent_Neural_Network_Normalize_Action_1
I1024 20:35:24.730630 14846 net.cpp:84] Creating Layer Belief_Propagation_Recurrent_Neural_Network_Normalize_Action_1
I1024 20:35:24.730636 14846 net.cpp:384] Belief_Propagation_Recurrent_Neural_Network_Normalize_Action_1 <- action_out1_Belief_Propagation_Recurrent_Neural_Network_Action1_0_split_1
I1024 20:35:24.730643 14846 net.cpp:342] Belief_Propagation_Recurrent_Neural_Network_Normalize_Action_1 -> action_normalized_1
I1024 20:35:24.730651 14846 net.cpp:113] Setting up Belief_Propagation_Recurrent_Neural_Network_Normalize_Action_1
I1024 20:35:24.730659 14846 net.cpp:120] Top shape: 70 7 (490)
I1024 20:35:24.730664 14846 layer_factory.hpp:74] Creating layer Belief_Propagation_Recurrent_Neural_Network_Data_arrange_layer_filter1
I1024 20:35:24.730689 14846 net.cpp:84] Creating Layer Belief_Propagation_Recurrent_Neural_Network_Data_arrange_layer_filter1
I1024 20:35:24.730700 14846 net.cpp:384] Belief_Propagation_Recurrent_Neural_Network_Data_arrange_layer_filter1 <- action_normalized_1
I1024 20:35:24.730716 14846 net.cpp:384] Belief_Propagation_Recurrent_Neural_Network_Data_arrange_layer_filter1 <- label_action_data_action_1_split_3
I1024 20:35:24.730726 14846 net.cpp:342] Belief_Propagation_Recurrent_Neural_Network_Data_arrange_layer_filter1 -> fc9_filtered1
I1024 20:35:24.730734 14846 net.cpp:113] Setting up Belief_Propagation_Recurrent_Neural_Network_Data_arrange_layer_filter1
I1024 20:35:24.730764 14846 net.cpp:120] Top shape: 5 98 (490)
I1024 20:35:24.730774 14846 layer_factory.hpp:74] Creating layer Belief_Propagation_Recurrent_Neural_Network_concatenation_s_a1
I1024 20:35:24.730782 14846 net.cpp:84] Creating Layer Belief_Propagation_Recurrent_Neural_Network_concatenation_s_a1
I1024 20:35:24.730787 14846 net.cpp:384] Belief_Propagation_Recurrent_Neural_Network_concatenation_s_a1 <- scene_normalized_1
I1024 20:35:24.730794 14846 net.cpp:384] Belief_Propagation_Recurrent_Neural_Network_concatenation_s_a1 <- fc9_filtered1
I1024 20:35:24.730803 14846 net.cpp:342] Belief_Propagation_Recurrent_Neural_Network_concatenation_s_a1 -> concat_all1
I1024 20:35:24.730810 14846 net.cpp:113] Setting up Belief_Propagation_Recurrent_Neural_Network_concatenation_s_a1
I1024 20:35:24.730818 14846 net.cpp:120] Top shape: 5 103 (515)
I1024 20:35:24.730823 14846 layer_factory.hpp:74] Creating layer Belief_Propagation_Recurrent_Neural_Network_message_reshape_pose1
I1024 20:35:24.730846 14846 net.cpp:84] Creating Layer Belief_Propagation_Recurrent_Neural_Network_message_reshape_pose1
I1024 20:35:24.730855 14846 net.cpp:384] Belief_Propagation_Recurrent_Neural_Network_message_reshape_pose1 <- fc8_CAD_pose
I1024 20:35:24.730864 14846 net.cpp:342] Belief_Propagation_Recurrent_Neural_Network_message_reshape_pose1 -> pose_out_reshaped1
I1024 20:35:24.730871 14846 net.cpp:113] Setting up Belief_Propagation_Recurrent_Neural_Network_message_reshape_pose1
I1024 20:35:24.730898 14846 net.cpp:120] Top shape: 5 252 (1260)
I1024 20:35:24.730907 14846 layer_factory.hpp:74] Creating layer Data_arrange_layer_filter_mean_1
I1024 20:35:24.732089 14846 net.cpp:84] Creating Layer Data_arrange_layer_filter_mean_1
I1024 20:35:24.732102 14846 net.cpp:384] Data_arrange_layer_filter_mean_1 <- action_out_reshaped1
I1024 20:35:24.732110 14846 net.cpp:384] Data_arrange_layer_filter_mean_1 <- label_action_data_action_1_split_4
I1024 20:35:24.732118 14846 net.cpp:342] Data_arrange_layer_filter_mean_1 -> action_pred_clean_1
I1024 20:35:24.732128 14846 net.cpp:342] Data_arrange_layer_filter_mean_1 -> label_action_clean_1
I1024 20:35:24.732136 14846 net.cpp:113] Setting up Data_arrange_layer_filter_mean_1
I1024 20:35:24.732218 14846 net.cpp:120] Top shape: 5 7 (35)
I1024 20:35:24.732230 14846 net.cpp:120] Top shape: 5 (5)
I1024 20:35:24.732236 14846 layer_factory.hpp:74] Creating layer action_pred_clean_1_Data_arrange_layer_filter_mean_1_0_split
I1024 20:35:24.732244 14846 net.cpp:84] Creating Layer action_pred_clean_1_Data_arrange_layer_filter_mean_1_0_split
I1024 20:35:24.732250 14846 net.cpp:384] action_pred_clean_1_Data_arrange_layer_filter_mean_1_0_split <- action_pred_clean_1
I1024 20:35:24.732259 14846 net.cpp:342] action_pred_clean_1_Data_arrange_layer_filter_mean_1_0_split -> action_pred_clean_1_Data_arrange_layer_filter_mean_1_0_split_0
I1024 20:35:24.732267 14846 net.cpp:342] action_pred_clean_1_Data_arrange_layer_filter_mean_1_0_split -> action_pred_clean_1_Data_arrange_layer_filter_mean_1_0_split_1
I1024 20:35:24.732275 14846 net.cpp:113] Setting up action_pred_clean_1_Data_arrange_layer_filter_mean_1_0_split
I1024 20:35:24.732283 14846 net.cpp:120] Top shape: 5 7 (35)
I1024 20:35:24.732290 14846 net.cpp:120] Top shape: 5 7 (35)
I1024 20:35:24.732295 14846 layer_factory.hpp:74] Creating layer Data_arrange_layer_accu_1
I1024 20:35:24.733439 14846 net.cpp:84] Creating Layer Data_arrange_layer_accu_1
I1024 20:35:24.733453 14846 net.cpp:384] Data_arrange_layer_accu_1 <- action_pred_clean_1_Data_arrange_layer_filter_mean_1_0_split_0
I1024 20:35:24.733463 14846 net.cpp:384] Data_arrange_layer_accu_1 <- label_action_data_action_1_split_5
I1024 20:35:24.733481 14846 net.cpp:342] Data_arrange_layer_accu_1 -> action_pred_final_1
I1024 20:35:24.733505 14846 net.cpp:342] Data_arrange_layer_accu_1 -> label_action_accu_1
I1024 20:35:24.733528 14846 net.cpp:113] Setting up Data_arrange_layer_accu_1
I1024 20:35:24.733696 14846 net.cpp:120] Top shape: 5 7 (35)
I1024 20:35:24.733719 14846 net.cpp:120] Top shape: 5 1 (5)
I1024 20:35:24.733732 14846 layer_factory.hpp:74] Creating layer Data_arrange_layer_filter_pose_1
I1024 20:35:24.733780 14846 net.cpp:84] Creating Layer Data_arrange_layer_filter_pose_1
I1024 20:35:24.733798 14846 net.cpp:384] Data_arrange_layer_filter_pose_1 <- pose_out_reshaped1
I1024 20:35:24.733813 14846 net.cpp:384] Data_arrange_layer_filter_pose_1 <- label_action_data_action_1_split_6
I1024 20:35:24.733825 14846 net.cpp:384] Data_arrange_layer_filter_pose_1 <- label_pose_data_pose_1_split_0
I1024 20:35:24.733842 14846 net.cpp:342] Data_arrange_layer_filter_pose_1 -> pose_pred_clean_1
I1024 20:35:24.733862 14846 net.cpp:342] Data_arrange_layer_filter_pose_1 -> label_action_clean_1_trash
I1024 20:35:24.733880 14846 net.cpp:342] Data_arrange_layer_filter_pose_1 -> label_pose_clean_1
I1024 20:35:24.733897 14846 net.cpp:113] Setting up Data_arrange_layer_filter_pose_1
I1024 20:35:24.734053 14846 net.cpp:120] Top shape: 5 18 (90)
I1024 20:35:24.734076 14846 net.cpp:120] Top shape: 5 (5)
I1024 20:35:24.734089 14846 net.cpp:120] Top shape: 5 (5)
I1024 20:35:24.734102 14846 layer_factory.hpp:74] Creating layer pose_pred_clean_1_Data_arrange_layer_filter_pose_1_0_split
I1024 20:35:24.734117 14846 net.cpp:84] Creating Layer pose_pred_clean_1_Data_arrange_layer_filter_pose_1_0_split
I1024 20:35:24.734128 14846 net.cpp:384] pose_pred_clean_1_Data_arrange_layer_filter_pose_1_0_split <- pose_pred_clean_1
I1024 20:35:24.734144 14846 net.cpp:342] pose_pred_clean_1_Data_arrange_layer_filter_pose_1_0_split -> pose_pred_clean_1_Data_arrange_layer_filter_pose_1_0_split_0
I1024 20:35:24.734163 14846 net.cpp:342] pose_pred_clean_1_Data_arrange_layer_filter_pose_1_0_split -> pose_pred_clean_1_Data_arrange_layer_filter_pose_1_0_split_1
I1024 20:35:24.734179 14846 net.cpp:113] Setting up pose_pred_clean_1_Data_arrange_layer_filter_pose_1_0_split
I1024 20:35:24.734195 14846 net.cpp:120] Top shape: 5 18 (90)
I1024 20:35:24.734208 14846 net.cpp:120] Top shape: 5 18 (90)
I1024 20:35:24.734220 14846 layer_factory.hpp:74] Creating layer Data_arrange_layer_accu_pose_1
I1024 20:35:24.734266 14846 net.cpp:84] Creating Layer Data_arrange_layer_accu_pose_1
I1024 20:35:24.734283 14846 net.cpp:384] Data_arrange_layer_accu_pose_1 <- pose_pred_clean_1_Data_arrange_layer_filter_pose_1_0_split_0
I1024 20:35:24.734299 14846 net.cpp:384] Data_arrange_layer_accu_pose_1 <- label_action_data_action_1_split_7
I1024 20:35:24.734313 14846 net.cpp:384] Data_arrange_layer_accu_pose_1 <- label_pose_data_pose_1_split_1
I1024 20:35:24.734328 14846 net.cpp:342] Data_arrange_layer_accu_pose_1 -> pose_pred_final_1
I1024 20:35:24.734349 14846 net.cpp:342] Data_arrange_layer_accu_pose_1 -> label_action_accu_1_trash
I1024 20:35:24.734367 14846 net.cpp:342] Data_arrange_layer_accu_pose_1 -> label_pose_accu_1
I1024 20:35:24.734383 14846 net.cpp:113] Setting up Data_arrange_layer_accu_pose_1
I1024 20:35:24.734562 14846 net.cpp:120] Top shape: 5 18 (90)
I1024 20:35:24.734586 14846 net.cpp:120] Top shape: 5 1 (5)
I1024 20:35:24.734598 14846 net.cpp:120] Top shape: 5 1 (5)
I1024 20:35:24.734611 14846 layer_factory.hpp:74] Creating layer scene_accuracy_arrange_1
I1024 20:35:24.735899 14846 net.cpp:84] Creating Layer scene_accuracy_arrange_1
I1024 20:35:24.735924 14846 net.cpp:384] scene_accuracy_arrange_1 <- scene_out1_Belief_Propagation_Recurrent_Neural_Network_Scene1_0_split_1
I1024 20:35:24.735944 14846 net.cpp:342] scene_accuracy_arrange_1 -> scene_pred_final_1
I1024 20:35:24.736016 14846 net.cpp:113] Setting up scene_accuracy_arrange_1
I1024 20:35:24.736076 14846 net.cpp:120] Top shape: 5 5 (25)
I1024 20:35:24.736099 14846 layer_factory.hpp:74] Creating layer scene_loss_arrange_1
I1024 20:35:24.737370 14846 net.cpp:84] Creating Layer scene_loss_arrange_1
I1024 20:35:24.737396 14846 net.cpp:384] scene_loss_arrange_1 <- scene_out1_Belief_Propagation_Recurrent_Neural_Network_Scene1_0_split_2
I1024 20:35:24.737411 14846 net.cpp:384] scene_loss_arrange_1 <- label_frame_data_frame_1_split_0
I1024 20:35:24.737427 14846 net.cpp:342] scene_loss_arrange_1 -> scene_pred_all_1
I1024 20:35:24.737447 14846 net.cpp:342] scene_loss_arrange_1 -> scene_label_all_1
I1024 20:35:24.737463 14846 net.cpp:113] Setting up scene_loss_arrange_1
I1024 20:35:24.737540 14846 net.cpp:120] Top shape: 5 5 (25)
I1024 20:35:24.737560 14846 net.cpp:120] Top shape: 5 1 (5)
I1024 20:35:24.737572 14846 layer_factory.hpp:74] Creating layer silence_layer
I1024 20:35:24.738719 14846 net.cpp:84] Creating Layer silence_layer
I1024 20:35:24.738742 14846 net.cpp:384] silence_layer <- label_frame_data_frame_1_split_1
I1024 20:35:24.738759 14846 net.cpp:384] silence_layer <- concat_all1
I1024 20:35:24.738772 14846 net.cpp:384] silence_layer <- scene_pred_final_1
I1024 20:35:24.738786 14846 net.cpp:384] silence_layer <- action_pred_final_1
…
I1024 20:35:24.746529 14846 net.cpp:261] The NetState phase (1) differed from the phase (0) specified by a rule in layer context
I1024 20:35:24.748456 14846 net.cpp:42] Initializing net from parameters: 
name: "CaffeNet"
force_backward: true
state {
  phase: TEST
}
layer {
  name: "data_action"
  type: "Data"
  top: "data_action"
  top: "label_action"
  include {
    phase: TEST
  }
  transform_param {
    mirror: false
    crop_size: 227
    mean_file: "imagenet_mean.binaryproto"
  }
  data_param {
    source: "/cs/vml2/zhiweid/CVPR16_NEW/data/0930/CAD_action_val_lmdb_0930"
    batch_size: 14
    backend: LMDB
  }
}
layer {
  name: "conv1_action"
  type: "Convolution"
  bottom: "data_action"
  top: "conv1_action"
  param {
    lr_mult: 0
    decay_mult: 0
  }
  param {
    lr_mult: 0
    decay_mult: 0
  }
  convolution_param {
    num_output: 96
    kernel_size: 11
    stride: 4
    weight_filler {
      type: "gaussian"
      std: 0.01
    }
    bias_filler {
      type: "constant"
      value: 0
    }
  }
}
layer {
  name: "relu1_action"
  type: "ReLU"
  bottom: "conv1_action"
  top: "conv1_action"
}
layer {
  name: "pool1_action"
  type: "Pooling"
  bottom: "conv1_action"
  top: "pool1_action"
  pooling_param {
    pool: MAX
    kernel_size: 3
    stride: 2
  }
}
layer {
  name: "norm1_action"
  type: "LRN"
  bottom: "pool1_action"
  top: "norm1_action"
  lrn_param {
    local_size: 5
    alpha: 0.0001
    beta: 0.75
  }
}
layer {
  name: "conv2_action"
  type: "Convolution"
  bottom: "norm1_action"
  top: "conv2_action"
  param {
    lr_mult: 0
    decay_mult: 0
  }
  param {
    lr_mult: 0
    decay_mult: 0
  }
  convolution_param {
    num_output: 256
    pad: 2
    kernel_size: 5
    group: 2
    weight_filler {
      type: "gaussian"
      std: 0.01
    }
    bias_filler {
      type: "constant"
      value: 1
    }
  }
}
layer {
  name: "relu2_action"
  type: "ReLU"
  bottom: "conv2_action"
  top: "conv2_action"
}
layer {
  name: "pool2_action"
  type: "Pooling"
  bottom: "conv2_action"
  top: "pool2_action"
  pooling_param {
    pool: MAX
    kernel_size: 3
    stride: 2
  }
}
layer {
  name: "norm2_action"
  type: "LRN"
  bottom: "pool2_action"
  top: "norm2_action"
  lrn_param {
    local_size: 5
    alpha: 0.0001
    beta: 0.75
  }
}
layer {
  name: "conv3_action"
  type: "Convolution"
  bottom: "norm2_action"
  top: "conv3_action"
  param {
    lr_mult: 0
    decay_mult: 0
  }
  param {
    lr_mult: 0
    decay_mult: 0
  }
  convolution_param {
    num_output: 384
    pad: 1
    kernel_size: 3
    weight_filler {
      type: "gaussian"
      std: 0.01
    }
    bias_filler {
      type: "constant"
      value: 0
    }
  }
}
layer {
  name: "relu3_action"
  type: "ReLU"
  bottom: "conv3_action"
  top: "conv3_action"
}
layer {
  name: "conv4_action"
  type: "Convolution"
  bottom: "conv3_action"
  top: "conv4_action"
  param {
    lr_mult: 0
    decay_mult: 0
  }
  param {
    lr_mult: 0
    decay_mult: 0
  }
  convolution_param {
    num_output: 384
    pad: 1
    kernel_size: 3
    group: 2
    weight_filler {
      type: "gaussian"
      std: 0.01
    }
    bias_filler {
      type: "constant"
      value: 1
    }
  }
}
layer {
  name: "relu4_action"
  type: "ReLU"
  bottom: "conv4_action"
  top: "conv4_action"
}
layer {
  name: "conv5_action"
  type: "Convolution"
  bottom: "conv4_action"
  top: "conv5_action"
  param {
    lr_mult: 0
    decay_mult: 0
  }
  param {
    lr_mult: 0
    decay_mult: 0
  }
  convolution_param {
    num_output: 256
    pad: 1
    kernel_size: 3
    group: 2
    weight_filler {
      type: "gaussian"
      std: 0.01
    }
    bias_filler {
      type: "constant"
      value: 1
    }
  }
}
layer {
  name: "relu5_action"
  type: "ReLU"
  bottom: "conv5_action"
  top: "conv5_action"
}
layer {
  name: "pool5_action"
  type: "Pooling"
  bottom: "conv5_action"
  top: "pool5_action"
  pooling_param {
    pool: MAX
    kernel_size: 3
    stride: 2
  }
}
layer {
  name: "fc6_action"
  type: "InnerProduct"
  bottom: "pool5_action"
  top: "fc6_action"
  param {
    lr_mult: 0
    decay_mult: 0
  }
  param {
    lr_mult: 0
    decay_mult: 0
  }
  inner_product_param {
    num_output: 4096
    weight_filler {
      type: "gaussian"
      std: 0.005
    }
    bias_filler {
      type: "constant"
      value: 1
    }
  }
}
layer {
  name: "relu6_action"
  type: "ReLU"
  bottom: "fc6_action"
  top: "fc6_action"
}
layer {
  name: "drop6_action"
  type: "Dropout"
  bottom: "fc6_action"
  top: "fc6_action"
  dropout_param {
    dropout_ratio: 0.5
  }
}
layer {
  name: "fc7_action"
  type: "InnerProduct"
  bottom: "fc6_action"
  top: "fc7_action"
  param {
    lr_mult: 0
    decay_mult: 0
  }
  param {
    lr_mult: 0
    decay_mult: 0
  }
  inner_product_param {
    num_output: 4096
    weight_filler {
      type: "gaussian"
      std: 0.005
    }
    bias_filler {
      type: "constant"
      value: 1
    }
  }
}
layer {
  name: "relu7_action"
  type: "ReLU"
  bottom: "fc7_action"
  top: "fc7_action"
}
layer {
  name: "drop7_action"
  type: "Dropout"
  bottom: "fc7_action"
  top: "fc7_action"
  dropout_param {
    dropout_ratio: 0.5
  }
}
layer {
  name: "fc8_CAD_action"
  type: "InnerProduct"
  bottom: "fc7_action"
  top: "fc8_CAD_action"
  param {
    lr_mult: 0
    decay_mult: 0
  }
  param {
    lr_mult: 0
    decay_mult: 0
  }
  inner_product_param {
    num_output: 7
    weight_filler {
      type: "gaussian"
      std: 0.01
    }
    bias_filler {
      type: "constant"
      value: 1
    }
  }
}
layer {
  name: "data_pose"
  type: "Data"
  top: "data_pose"
  top: "label_pose"
  include {
    phase: TEST
  }
  transform_param {
    mirror: false
    crop_size: 227
    mean_file: "imagenet_mean.binaryproto"
  }
  data_param {
    source: "/cs/vml2/zhiweid/CVPR16_NEW/data/0930/CAD_pose_val_lmdb_0930"
    batch_size: 14
    backend: LMDB
  }
}
layer {
  name: "conv1_pose"
  type: "Convolution"
  bottom: "data_pose"
  top: "conv1_pose"
  param {
    lr_mult: 0
    decay_mult: 0
  }
  param {
    lr_mult: 0
    decay_mult: 0
  }
  convolution_param {
    num_output: 96
    kernel_size: 11
    stride: 4
    weight_filler {
      type: "gaussian"
      std: 0.01
    }
    bias_filler {
      type: "constant"
      value: 0
    }
  }
}
layer {
  name: "relu1_pose"
  type: "ReLU"
  bottom: "conv1_pose"
  top: "conv1_pose"
}
layer {
  name: "pool1_pose"
  type: "Pooling"
  bottom: "conv1_pose"
  top: "pool1_pose"
  pooling_param {
    pool: MAX
    kernel_size: 3
    stride: 2
  }
}
layer {
  name: "norm1_pose"
  type: "LRN"
  bottom: "pool1_pose"
  top: "norm1_pose"
  lrn_param {
    local_size: 5
    alpha: 0.0001
    beta: 0.75
  }
}
layer {
  name: "conv2_pose"
  type: "Convolution"
  bottom: "norm1_pose"
  top: "conv2_pose"
  param {
    lr_mult: 0
    decay_mult: 0
  }
  param {
    lr_mult: 0
    decay_mult: 0
  }
  convolution_param {
    num_output: 256
    pad: 2
    kernel_size: 5
    group: 2
    weight_filler {
      type: "gaussian"
      std: 0.01
    }
    bias_filler {
      type: "constant"
      value: 1
    }
  }
}
layer {
  name: "relu2_pose"
  type: "ReLU"
  bottom: "conv2_pose"
  top: "conv2_pose"
}
layer {
  name: "pool2_pose"
  type: "Pooling"
  bottom: "conv2_pose"
  top: "pool2_pose"
  pooling_param {
    pool: MAX
    kernel_size: 3
    stride: 2
  }
}
layer {
  name: "norm2_pose"
  type: "LRN"
  bottom: "pool2_pose"
  top: "norm2_pose"
  lrn_param {
    local_size: 5
    alpha: 0.0001
    beta: 0.75
  }
}
layer {
  name: "conv3_pose"
  type: "Convolution"
  bottom: "norm2_pose"
  top: "conv3_pose"
  param {
    lr_mult: 0
    decay_mult: 0
  }
  param {
    lr_mult: 0
    decay_mult: 0
  }
  convolution_param {
    num_output: 384
    pad: 1
    kernel_size: 3
    weight_filler {
      type: "gaussian"
      std: 0.01
    }
    bias_filler {
      type: "constant"
      value: 0
    }
  }
}
layer {
  name: "relu3_pose"
  type: "ReLU"
  bottom: "conv3_pose"
  top: "conv3_pose"
}
layer {
  name: "conv4_pose"
  type: "Convolution"
  bottom: "conv3_pose"
  top: "conv4_pose"
  param {
    lr_mult: 0
    decay_mult: 0
  }
  param {
    lr_mult: 0
    decay_mult: 0
  }
  convolution_param {
    num_output: 384
    pad: 1
    kernel_size: 3
    group: 2
    weight_filler {
      type: "gaussian"
      std: 0.01
    }
    bias_filler {
      type: "constant"
      value: 1
    }
  }
}
layer {
  name: "relu4_pose"
  type: "ReLU"
  bottom: "conv4_pose"
  top: "conv4_pose"
}
layer {
  name: "conv5_pose"
  type: "Convolution"
  bottom: "conv4_pose"
  top: "conv5_pose"
  param {
    lr_mult: 0
    decay_mult: 0
  }
  param {
    lr_mult: 0
    decay_mult: 0
  }
  convolution_param {
    num_output: 256
    pad: 1
    kernel_size: 3
    group: 2
    weight_filler {
      type: "gaussian"
      std: 0.01
    }
    bias_filler {
      type: "constant"
      value: 1
    }
  }
}
layer {
  name: "relu5_pose"
  type: "ReLU"
  bottom: "conv5_pose"
  top: "conv5_pose"
}
layer {
  name: "pool5_pose"
  type: "Pooling"
  bottom: "conv5_pose"
  top: "pool5_pose"
  pooling_param {
    pool: MAX
    kernel_size: 3
    stride: 2
  }
}
layer {
  name: "fc6_pose"
  type: "InnerProduct"
  bottom: "pool5_pose"
  top: "fc6_pose"
  param {
    lr_mult: 0
    decay_mult: 0
  }
  param {
    lr_mult: 0
    decay_mult: 0
  }
  inner_product_param {
    num_output: 4096
    weight_filler {
      type: "gaussian"
      std: 0.005
    }
    bias_filler {
      type: "constant"
      value: 1
    }
  }
}
layer {
  name: "relu6_pose"
  type: "ReLU"
  bottom: "fc6_pose"
  top: "fc6_pose"
}
layer {
  name: "drop6_pose"
  type: "Dropout"
  bottom: "fc6_pose"
  top: "fc6_pose"
  dropout_param {
    dropout_ratio: 0.5
  }
}
layer {
  name: "fc7_pose"
  type: "InnerProduct"
  bottom: "fc6_pose"
  top: "fc7_pose"
  param {
    lr_mult: 0
    decay_mult: 0
  }
  param {
    lr_mult: 0
    decay_mult: 0
  }
  inner_product_param {
    num_output: 4096
    weight_filler {
      type: "gaussian"
      std: 0.005
    }
    bias_filler {
      type: "constant"
      value: 1
    }
  }
}
layer {
  name: "relu7_pose"
  type: "ReLU"
  bottom: "fc7_pose"
  top: "fc7_pose"
}
layer {
  name: "drop7_pose"
  type: "Dropout"
  bottom: "fc7_pose"
  top: "fc7_pose"
  dropout_param {
    dropout_ratio: 0.4
  }
}
layer {
  name: "fc8_CAD_pose"
  type: "InnerProduct"
  bottom: "fc7_pose"
  top: "fc8_CAD_pose"
  param {
    lr_mult: 0
    decay_mult: 0
  }
  param {
    lr_mult: 0
    decay_mult: 0
  }
  inner_product_param {
    num_output: 18
    bias_term: true
    weight_filler {
      type: "gaussian"
      std: 0.01
    }
  }
}
layer {
  name: "data_frame"
  type: "Data"
  top: "data_frame"
  top: "label_frame"
  include {
    phase: TEST
  }
  transform_param {
    mirror: false
    crop_size: 227
    mean_file: "imagenet_mean.binaryproto"
  }
  data_param {
    source: "/cs/vml2/zhiweid/CVPR16_NEW/data/0930/CAD_frame_val_lmdb_0930"
    batch_size: 1
    backend: LMDB
  }
}
layer {
  name: "context"
  type: "HDF5Data"
  top: "data_context"
  include {
    phase: TEST
  }
  hdf5_data_param {
    source: "/cs/vml2/zhiweid/CVPR16_NEW/data/0930/hdf5db/val_context.txt"
    batch_size: 1
  }
}
layer {
  name: "conv1_frame"
  type: "Convolution"
  bottom: "data_frame"
  top: "conv1_frame"
  param {
    lr_mult: 0
    decay_mult: 0
  }
  param {
    lr_mult: 0
    decay_mult: 0
  }
  convolution_param {
    num_output: 96
    kernel_size: 11
    stride: 4
    weight_filler {
      type: "gaussian"
      std: 0.01
    }
    bias_filler {
      type: "constant"
      value: 0
    }
  }
}
layer {
  name: "relu1_frame"
  type: "ReLU"
  bottom: "conv1_frame"
  top: "conv1_frame"
}
layer {
  name: "pool1_frame"
  type: "Pooling"
  bottom: "conv1_frame"
  top: "pool1_frame"
  pooling_param {
    pool: MAX
    kernel_size: 3
    stride: 2
  }
}
layer {
  name: "norm1_frame"
  type: "LRN"
  bottom: "pool1_frame"
  top: "norm1_frame"
  lrn_param {
    local_size: 5
    alpha: 0.0001
    beta: 0.75
  }
}
layer {
  name: "conv2_frame"
  type: "Convolution"
  bottom: "norm1_frame"
  top: "conv2_frame"
  param {
    lr_mult: 0
    decay_mult: 0
  }
  param {
    lr_mult: 0
    decay_mult: 0
  }
  convolution_param {
    num_output: 256
    pad: 2
    kernel_size: 5
    group: 2
    weight_filler {
      type: "gaussian"
      std: 0.01
    }
    bias_filler {
      type: "constant"
      value: 1
    }
  }
}
layer {
  name: "relu2_frame"
  type: "ReLU"
  bottom: "conv2_frame"
  top: "conv2_frame"
}
layer {
  name: "pool2_frame"
  type: "Pooling"
  bottom: "conv2_frame"
  top: "pool2_frame"
  pooling_param {
    pool: MAX
    kernel_size: 3
    stride: 2
  }
}
layer {
  name: "norm2_frame"
  type: "LRN"
  bottom: "pool2_frame"
  top: "norm2_frame"
  lrn_param {
    local_size: 5
    alpha: 0.0001
    beta: 0.75
  }
}
layer {
  name: "conv3_frame"
  type: "Convolution"
  bottom: "norm2_frame"
  top: "conv3_frame"
  param {
    lr_mult: 0
    decay_mult: 0
  }
  param {
    lr_mult: 0
    decay_mult: 0
  }
  convolution_param {
    num_output: 384
    pad: 1
    kernel_size: 3
    weight_filler {
      type: "gaussian"
      std: 0.01
    }
    bias_filler {
      type: "constant"
      value: 0
    }
  }
}
layer {
  name: "relu3_frame"
  type: "ReLU"
  bottom: "conv3_frame"
  top: "conv3_frame"
}
layer {
  name: "conv4_frame"
  type: "Convolution"
  bottom: "conv3_frame"
  top: "conv4_frame"
  param {
    lr_mult: 0
    decay_mult: 0
  }
  param {
    lr_mult: 0
    decay_mult: 0
  }
  convolution_param {
    num_output: 384
    pad: 1
    kernel_size: 3
    group: 2
    weight_filler {
      type: "gaussian"
      std: 0.01
    }
    bias_filler {
      type: "constant"
      value: 1
    }
  }
}
layer {
  name: "relu4_frame"
  type: "ReLU"
  bottom: "conv4_frame"
  top: "conv4_frame"
}
layer {
  name: "conv5_frame"
  type: "Convolution"
  bottom: "conv4_frame"
  top: "conv5_frame"
  param {
    lr_mult: 0
    decay_mult: 0
  }
  param {
    lr_mult: 0
    decay_mult: 0
  }
  convolution_param {
    num_output: 256
    pad: 1
    kernel_size: 3
    group: 2
    weight_filler {
      type: "gaussian"
      std: 0.01
    }
    bias_filler {
      type: "constant"
      value: 1
    }
  }
}
layer {
  name: "relu5_frame"
  type: "ReLU"
  bottom: "conv5_frame"
  top: "conv5_frame"
}
layer {
  name: "pool5_frame"
  type: "Pooling"
  bottom: "conv5_frame"
  top: "pool5_frame"
  pooling_param {
    pool: MAX
    kernel_size: 3
    stride: 2
  }
}
layer {
  name: "fc6_frame"
  type: "InnerProduct"
  bottom: "pool5_frame"
  top: "fc6_frame"
  param {
    lr_mult: 0
    decay_mult: 0
  }
  param {
    lr_mult: 0
    decay_mult: 0
  }
  inner_product_param {
    num_output: 4096
    weight_filler {
      type: "gaussian"
      std: 0.005
    }
    bias_filler {
      type: "constant"
      value: 1
    }
  }
}
layer {
  name: "relu6_frame"
  type: "ReLU"
  bottom: "fc6_frame"
  top: "fc6_frame"
}
layer {
  name: "drop6_frame"
  type: "Dropout"
  bottom: "fc6_frame"
  top: "fc6_frame"
  dropout_param {
    dropout_ratio: 0.5
  }
}
layer {
  name: "fc7_frame"
  type: "InnerProduct"
  bottom: "fc6_frame"
  top: "fc7_frame"
  param {
    lr_mult: 0
    decay_mult: 0
  }
  param {
    lr_mult: 0
    decay_mult: 0
  }
  inner_product_param {
    num_output: 4096
    weight_filler {
      type: "gaussian"
      std: 0.005
    }
    bias_filler {
      type: "constant"
      value: 1
    }
  }
}
layer {
  name: "relu7_frame"
  type: "ReLU"
  bottom: "fc7_frame"
  top: "fc7_frame"
}
layer {
  name: "drop7_frame"
  type: "Dropout"
  bottom: "fc7_frame"
  top: "fc7_frame"
  dropout_param {
    dropout_ratio: 0.5
  }
}
layer {
  name: "fc8_CAD_frame"
  type: "InnerProduct"
  bottom: "fc7_frame"
  top: "fc8_CAD_frame"
  param {
    lr_mult: 0
    decay_mult: 0
  }
  param {
    lr_mult: 0
    decay_mult: 0
  }
  inner_product_param {
    num_output: 5
    bias_term: true
    weight_filler {
      type: "gaussian"
      std: 0.01
    }
  }
}
layer {
  name: "fc8_context"
  type: "InnerProduct"
  bottom: "data_context"
  top: "fc8_context"
  param {
    lr_mult: 0
    decay_mult: 0
  }
  param {
    lr_mult: 0
    decay_mult: 0
  }
  inner_product_param {
    num_output: 5
    bias_term: true
    weight_filler {
      type: "gaussian"
      std: 0.01
    }
  }
}
layer {
  name: "sum_frame"
  type: "Eltwise"
  bottom: "fc8_context"
  bottom: "fc8_CAD_frame"
  top: "sum_frame"
  eltwise_param {
    operation: SUM
  }
}
layer {
  name: "prob_frame"
  type: "Softmax"
  bottom: "fc8_CAD_frame"
  top: "fc8_CAD_frame_prob"
}
layer {
  name: "prob_action"
  type: "Softmax"
  bottom: "fc8_CAD_action"
  top: "fc8_CAD_prob"
}
layer {
  name: "Data_arrange_layer_filter"
  type: "Python"
  bottom: "fc8_CAD_prob"
  bottom: "label_action"
  top: "fc9_filtered"
  python_param {
    module: "Data_arrange"
    layer: "Data_Arrange_Layer"
  }
}
layer {
  name: "concatenation_s_a_p"
  type: "Concat"
  bottom: "fc8_CAD_frame_prob"
  bottom: "fc9_filtered"
  top: "concat_all0"
  concat_param {
    concat_dim: 1
  }
}
layer {
  name: "Belief_Propagation_Recurrent_Neural_Network_ArrangeMessageIn1"
  type: "Python"
  bottom: "concat_all0"
  bottom: "label_action"
  top: "A_A_MessageIn1"
  top: "A_S_MessageIn1"
  top: "S_A_MessageIn1"
  python_param {
    module: "simplified_message_in"
    layer: "simplified_message_in"
  }
}
layer {
  name: "Belief_Propagation_Recurrent_Neural_Network_A_A_Message1"
  type: "InnerProduct"
  bottom: "A_A_MessageIn1"
  top: "A_A_MessageOut1"
  param {
    name: "W_hh_1"
    lr_mult: 10
    decay_mult: 10
  }
  param {
    lr_mult: 20
    decay_mult: 0
  }
  inner_product_param {
    num_output: 7
    bias_term: true
    weight_filler {
      type: "uniform"
      min: -0.08
      max: 0.08
    }
    bias_filler {
      type: "constant"
      value: 0
    }
    axis: 1
  }
}
layer {
  name: "Belief_Propagation_Recurrent_Neural_Network_A_S_Message1"
  type: "InnerProduct"
  bottom: "A_S_MessageIn1"
  top: "A_S_MessageOut1"
  param {
    name: "W_hh_2"
    lr_mult: 10
    decay_mult: 10
  }
  param {
    lr_mult: 20
    decay_mult: 0
  }
  inner_product_param {
    num_output: 5
    bias_term: true
    weight_filler {
      type: "uniform"
      min: -0.08
      max: 0.08
    }
    bias_filler {
      type: "constant"
      value: 0
    }
    axis: 1
  }
}
layer {
  name: "Belief_Propagation_Recurrent_Neural_Network_S_A_Message1"
  type: "InnerProduct"
  bottom: "S_A_MessageIn1"
  top: "S_A_MessageOut1"
  param {
    name: "W_hh_3"
    lr_mult: 10
    decay_mult: 10
  }
  param {
    lr_mult: 20
    decay_mult: 0
  }
  inner_product_param {
    num_output: 7
    bias_term: true
    weight_filler {
      type: "uniform"
      min: -0.08
      max: 0.08
    }
    bias_filler {
      type: "constant"
      value: 0
    }
    axis: 1
  }
}
layer {
  name: "Belief_Propagation_Recurrent_Neural_Network_ArrangeMessageOut1"
  type: "Python"
  bottom: "A_A_MessageOut1"
  bottom: "A_S_MessageOut1"
  bottom: "S_A_MessageOut1"
  bottom: "label_action"
  bottom: "concat_all0"
  top: "scene_1"
  top: "action_1"
  python_param {
    module: "simplified_message_out"
    layer: "simplified_message_out"
  }
}
layer {
  name: "Belief_Propagation_Recurrent_Neural_Network_Scene1"
  type: "InnerProduct"
  bottom: "scene_1"
  top: "scene_out1"
  param {
    name: "W_ho_1"
    lr_mult: 10
    decay_mult: 10
  }
  param {
    lr_mult: 20
    decay_mult: 0
  }
  inner_product_param {
    num_output: 5
    bias_term: true
    weight_filler {
      type: "uniform"
      min: -0.08
      max: 0.08
    }
    bias_filler {
      type: "constant"
      value: 0
    }
    axis: 1
  }
}
layer {
  name: "Belief_Propagation_Recurrent_Neural_Network_Action1"
  type: "InnerProduct"
  bottom: "action_1"
  top: "action_out1"
  param {
    name: "W_ho_2"
    lr_mult: 10
    decay_mult: 10
  }
  param {
    lr_mult: 20
    decay_mult: 0
  }
  inner_product_param {
    num_output: 7
    bias_term: true
    weight_filler {
      type: "uniform"
      min: -0.08
      max: 0.08
    }
    bias_filler {
      type: "constant"
      value: 0
    }
    axis: 1
  }
}
layer {
  name: "Belief_Propagation_Recurrent_Neural_Network_message_reshape1"
  type: "Python"
  bottom: "action_out1"
  top: "action_out_reshaped1"
  python_param {
    module: "Message_Reshape1"
    layer: "Message_Reshape1"
  }
}
layer {
  name: "Belief_Propagation_Recurrent_Neural_Network_Normalize_Scene_1"
  type: "Softmax"
  bottom: "scene_out1"
  top: "scene_normalized_1"
}
layer {
  name: "Belief_Propagation_Recurrent_Neural_Network_Normalize_Action_1"
  type: "Softmax"
  bottom: "action_out1"
  top: "action_normalized_1"
}
layer {
  name: "Belief_Propagation_Recurrent_Neural_Network_Data_arrange_layer_filter1"
  type: "Python"
  bottom: "action_normalized_1"
  bottom: "label_action"
  top: "fc9_filtered1"
  python_param {
    module: "Data_arrange"
    layer: "Data_Arrange_Layer"
  }
}
layer {
  name: "Belief_Propagation_Recurrent_Neural_Network_concatenation_s_a1"
  type: "Concat"
  bottom: "scene_normalized_1"
  bottom: "fc9_filtered1"
  top: "concat_all1"
  concat_param {
    concat_dim: 1
  }
}
layer {
  name: "Belief_Propagation_Recurrent_Neural_Network_message_reshape_pose1"
  type: "Python"
  bottom: "fc8_CAD_pose"
  top: "pose_out_reshaped1"
  python_param {
    module: "Message_Reshape1"
    layer: "Message_Reshape1"
  }
}
layer {
  name: "Data_arrange_layer_filter_mean_1"
  type: "Python"
  bottom: "action_out_reshaped1"
  bottom: "label_action"
  top: "action_pred_clean_1"
  top: "label_action_clean_1"
  python_param {
    module: "Data_Arrange_Loss_Action"
    layer: "Data_Arrange_Layer"
  }
}
layer {
  name: "Data_arrange_layer_accu_1"
  type: "Python"
  bottom: "action_pred_clean_1"
  bottom: "label_action"
  top: "action_pred_final_1"
  top: "label_action_accu_1"
  python_param {
    module: "Data_Arrange_Accuracy_Action"
    layer: "Data_Arrange_Layer"
  }
}
layer {
  name: "Data_arrange_layer_filter_pose_1"
  type: "Python"
  bottom: "pose_out_reshaped1"
  bottom: "label_action"
  bottom: "label_pose"
  top: "pose_pred_clean_1"
  top: "label_action_clean_1_trash"
  top: "label_pose_clean_1"
  python_param {
    module: "Data_Arrange_Loss_Action"
    layer: "Data_Arrange_Layer"
  }
}
layer {
  name: "Data_arrange_layer_accu_pose_1"
  type: "Python"
  bottom: "pose_pred_clean_1"
  bottom: "label_action"
  bottom: "label_pose"
  top: "pose_pred_final_1"
  top: "label_action_accu_1_trash"
  top: "label_pose_accu_1"
  python_param {
    module: "Data_Arrange_Accuracy_Action"
    layer: "Data_Arrange_Layer"
  }
}
layer {
  name: "scene_accuracy_arrange_1"
  type: "Python"
  bottom: "scene_out1"
  top: "scene_pred_final_1"
  python_param {
    module: "Data_Arrange_Accuracy_Scene"
    layer: "Data_Arrange_Layer"
  }
}
layer {
  name: "scene_loss_arrange_1"
  type: "Python"
  bottom: "scene_out1"
  bottom: "label_frame"
  top: "scene_pred_all_1"
  top: "scene_label_all_1"
  python_param {
    module: "Data_Arrange_Loss_Scene"
    layer: "Data_Arrange_Layer"
  }
}
layer {
  name: "silence_layer"
  type: "Python"
  bottom: "label_frame"
  bottom: "concat_all1"
  bottom: "scene_pred_final_1"
  bottom: "action_pred_final_1"
  bottom: "label_action_accu_1"
  bottom: "label_pose_accu_1"
  bottom: "label_action_accu_1_trash"
  bottom: "label_action_clean_1_trash"
  bottom: "pose_pred_final_1"
  bottom: "sum_frame"
  python_param {
    module: "Silence"
    layer: "Silence_Layer"
  }
}
layer {
  name: "loss_scene_1"
  type: "SoftmaxWithLoss"
  bottom: "scene_pred_all_1"
  bottom: "scene_label_all_1"
  top: "loss_scene_1"
}
layer {
  name: "accuracy_scene_1"
  type: "Accuracy"
  bottom: "scene_pred_final_1"
  bottom: "label_frame"
  top: "accuracy_scene_1"
  include {
    phase: TEST
  }
}
layer {
  name: "loss_action_1"
  type: "SoftmaxWithLoss"
  bottom: "action_pred_clean_1"
  bottom: "label_action_clean_1"
  top: "loss_action_1"
}
layer {
  name: "accuracy_action_1"
  type: "Accuracy"
  bottom: "action_pred_final_1"
  bottom: "label_action_accu_1"
  top: "accuracy_action_1"
  include {
    phase: TEST
  }
}
layer {
  name: "loss_pose_1"
  type: "SoftmaxWithLoss"
  bottom: "pose_pred_clean_1"
  bottom: "label_pose_clean_1"
  top: "loss_pose_1"
}
layer {
  name: "accuracy_pose_1"
  type: "Accuracy"
  bottom: "pose_pred_final_1"
  bottom: "label_pose_accu_1"
  top: "accuracy_pose_1"
  include {
    phase: TEST
  }
}
I1024 20:35:24.749388 14846 layer_factory.hpp:74] Creating layer data_action
I1024 20:35:24.749416 14846 net.cpp:84] Creating Layer data_action
I1024 20:35:24.749431 14846 net.cpp:342] data_action -> data_action
I1024 20:35:24.749454 14846 net.cpp:342] data_action -> label_action
I1024 20:35:24.749471 14846 net.cpp:113] Setting up data_action
I1024 20:35:24.753705 14846 db.cpp:34] Opened lmdb /cs/vml2/zhiweid/CVPR16_NEW/data/0930/CAD_action_val_lmdb_0930
I1024 20:35:24.754366 14846 data_layer.cpp:67] output data size: 14,3,227,227
I1024 20:35:24.754393 14846 data_transformer.cpp:22] Loading mean file from: imagenet_mean.binaryproto
I1024 20:35:24.759330 14846 net.cpp:120] Top shape: 14 3 227 227 (2164218)
I1024 20:35:24.759363 14846 net.cpp:120] Top shape: 14 (14)
I1024 20:35:24.759378 14846 layer_factory.hpp:74] Creating layer label_action_data_action_1_split
I1024 20:35:24.759398 14846 net.cpp:84] Creating Layer label_action_data_action_1_split
I1024 20:35:24.759412 14846 net.cpp:384] label_action_data_action_1_split <- label_action
I1024 20:35:24.759428 14846 net.cpp:342] label_action_data_action_1_split -> label_action_data_action_1_split_0
I1024 20:35:24.759459 14846 net.cpp:342] label_action_data_action_1_split -> label_action_data_action_1_split_1
I1024 20:35:24.759511 14846 net.cpp:342] label_action_data_action_1_split -> label_action_data_action_1_split_2
I1024 20:35:24.759531 14846 net.cpp:342] label_action_data_action_1_split -> label_action_data_action_1_split_3
I1024 20:35:24.759548 14846 net.cpp:342] label_action_data_action_1_split -> label_action_data_action_1_split_4
I1024 20:35:24.759567 14846 net.cpp:342] label_action_data_action_1_split -> label_action_data_action_1_split_5
I1024 20:35:24.759582 14846 net.cpp:342] label_action_data_action_1_split -> label_action_data_action_1_split_6
I1024 20:35:24.759600 14846 net.cpp:342] label_action_data_action_1_split -> label_action_data_action_1_split_7
I1024 20:35:24.759615 14846 net.cpp:113] Setting up label_action_data_action_1_split
I1024 20:35:24.759635 14846 net.cpp:120] Top shape: 14 (14)
I1024 20:35:24.759649 14846 net.cpp:120] Top shape: 14 (14)
I1024 20:35:24.759662 14846 net.cpp:120] Top shape: 14 (14)
I1024 20:35:24.759675 14846 net.cpp:120] Top shape: 14 (14)
I1024 20:35:24.759687 14846 net.cpp:120] Top shape: 14 (14)
I1024 20:35:24.759701 14846 net.cpp:120] Top shape: 14 (14)
I1024 20:35:24.759713 14846 net.cpp:120] Top shape: 14 (14)
I1024 20:35:24.759727 14846 net.cpp:120] Top shape: 14 (14)
I1024 20:35:24.759737 14846 layer_factory.hpp:74] Creating layer conv1_action
I1024 20:35:24.759757 14846 net.cpp:84] Creating Layer conv1_action
I1024 20:35:24.759768 14846 net.cpp:384] conv1_action <- data_action
I1024 20:35:24.759783 14846 net.cpp:342] conv1_action -> conv1_action
I1024 20:35:24.759800 14846 net.cpp:113] Setting up conv1_action
I1024 20:35:24.760768 14846 net.cpp:120] Top shape: 14 96 55 55 (4065600)
I1024 20:35:24.760795 14846 layer_factory.hpp:74] Creating layer relu1_action
I1024 20:35:24.760812 14846 net.cpp:84] Creating Layer relu1_action
I1024 20:35:24.760823 14846 net.cpp:384] relu1_action <- conv1_action
I1024 20:35:24.760838 14846 net.cpp:331] relu1_action -> conv1_action (in-place)
I1024 20:35:24.760853 14846 net.cpp:113] Setting up relu1_action
I1024 20:35:24.760867 14846 net.cpp:120] Top shape: 14 96 55 55 (4065600)
I1024 20:35:24.760879 14846 layer_factory.hpp:74] Creating layer pool1_action
I1024 20:35:24.760895 14846 net.cpp:84] Creating Layer pool1_action
I1024 20:35:24.760906 14846 net.cpp:384] pool1_action <- conv1_action
I1024 20:35:24.760921 14846 net.cpp:342] pool1_action -> pool1_action
I1024 20:35:24.760936 14846 net.cpp:113] Setting up pool1_action
I1024 20:35:24.760957 14846 net.cpp:120] Top shape: 14 96 27 27 (979776)
I1024 20:35:24.760967 14846 layer_factory.hpp:74] Creating layer norm1_action
I1024 20:35:24.760983 14846 net.cpp:84] Creating Layer norm1_action
I1024 20:35:24.760994 14846 net.cpp:384] norm1_action <- pool1_action
I1024 20:35:24.761008 14846 net.cpp:342] norm1_action -> norm1_action
I1024 20:35:24.761024 14846 net.cpp:113] Setting up norm1_action
I1024 20:35:24.761041 14846 net.cpp:120] Top shape: 14 96 27 27 (979776)
I1024 20:35:24.761052 14846 layer_factory.hpp:74] Creating layer conv2_action
I1024 20:35:24.761068 14846 net.cpp:84] Creating Layer conv2_action
I1024 20:35:24.761080 14846 net.cpp:384] conv2_action <- norm1_action
I1024 20:35:24.761095 14846 net.cpp:342] conv2_action -> conv2_action
I1024 20:35:24.761111 14846 net.cpp:113] Setting up conv2_action
I1024 20:35:24.769459 14846 net.cpp:120] Top shape: 14 256 27 27 (2612736)
I1024 20:35:24.769505 14846 layer_factory.hpp:74] Creating layer relu2_action
I1024 20:35:24.769561 14846 net.cpp:84] Creating Layer relu2_action
I1024 20:35:24.769573 14846 net.cpp:384] relu2_action <- conv2_action
I1024 20:35:24.769589 14846 net.cpp:331] relu2_action -> conv2_action (in-place)
I1024 20:35:24.769605 14846 net.cpp:113] Setting up relu2_action
I1024 20:35:24.769621 14846 net.cpp:120] Top shape: 14 256 27 27 (2612736)
I1024 20:35:24.769632 14846 layer_factory.hpp:74] Creating layer pool2_action
I1024 20:35:24.769650 14846 net.cpp:84] Creating Layer pool2_action
I1024 20:35:24.769661 14846 net.cpp:384] pool2_action <- conv2_action
I1024 20:35:24.769685 14846 net.cpp:342] pool2_action -> pool2_action
I1024 20:35:24.769729 14846 net.cpp:113] Setting up pool2_action
I1024 20:35:24.769752 14846 net.cpp:120] Top shape: 14 256 13 13 (605696)
I1024 20:35:24.769763 14846 layer_factory.hpp:74] Creating layer norm2_action
I1024 20:35:24.769783 14846 net.cpp:84] Creating Layer norm2_action
I1024 20:35:24.769795 14846 net.cpp:384] norm2_action <- pool2_action
I1024 20:35:24.769810 14846 net.cpp:342] norm2_action -> norm2_action
I1024 20:35:24.769826 14846 net.cpp:113] Setting up norm2_action
I1024 20:35:24.769845 14846 net.cpp:120] Top shape: 14 256 13 13 (605696)
I1024 20:35:24.769855 14846 layer_factory.hpp:74] Creating layer conv3_action
I1024 20:35:24.769873 14846 net.cpp:84] Creating Layer conv3_action
I1024 20:35:24.769884 14846 net.cpp:384] conv3_action <- norm2_action
I1024 20:35:24.769903 14846 net.cpp:342] conv3_action -> conv3_action
I1024 20:35:24.769925 14846 net.cpp:113] Setting up conv3_action
I1024 20:35:24.784008 14846 net.cpp:120] Top shape: 14 384 13 13 (908544)
I1024 20:35:24.784046 14846 layer_factory.hpp:74] Creating layer relu3_action
I1024 20:35:24.784060 14846 net.cpp:84] Creating Layer relu3_action
I1024 20:35:24.784066 14846 net.cpp:384] relu3_action <- conv3_action
I1024 20:35:24.784076 14846 net.cpp:331] relu3_action -> conv3_action (in-place)
I1024 20:35:24.784086 14846 net.cpp:113] Setting up relu3_action
I1024 20:35:24.784095 14846 net.cpp:120] Top shape: 14 384 13 13 (908544)
I1024 20:35:24.784099 14846 layer_factory.hpp:74] Creating layer conv4_action
I1024 20:35:24.784109 14846 net.cpp:84] Creating Layer conv4_action
I1024 20:35:24.784116 14846 net.cpp:384] conv4_action <- conv3_action
I1024 20:35:24.784124 14846 net.cpp:342] conv4_action -> conv4_action
I1024 20:35:24.784133 14846 net.cpp:113] Setting up conv4_action
I1024 20:35:24.792943 14846 net.cpp:120] Top shape: 14 384 13 13 (908544)
I1024 20:35:24.792958 14846 layer_factory.hpp:74] Creating layer relu4_action
I1024 20:35:24.792965 14846 net.cpp:84] Creating Layer relu4_action
I1024 20:35:24.792971 14846 net.cpp:384] relu4_action <- conv4_action
I1024 20:35:24.792982 14846 net.cpp:331] relu4_action -> conv4_action (in-place)
I1024 20:35:24.792989 14846 net.cpp:113] Setting up relu4_action
I1024 20:35:24.792996 14846 net.cpp:120] Top shape: 14 384 13 13 (908544)
I1024 20:35:24.793002 14846 layer_factory.hpp:74] Creating layer conv5_action
I1024 20:35:24.793010 14846 net.cpp:84] Creating Layer conv5_action
I1024 20:35:24.793017 14846 net.cpp:384] conv5_action <- conv4_action
I1024 20:35:24.793025 14846 net.cpp:342] conv5_action -> conv5_action
I1024 20:35:24.793032 14846 net.cpp:113] Setting up conv5_action
I1024 20:35:24.799056 14846 net.cpp:120] Top shape: 14 256 13 13 (605696)
I1024 20:35:24.799075 14846 layer_factory.hpp:74] Creating layer relu5_action
I1024 20:35:24.799088 14846 net.cpp:84] Creating Layer relu5_action
I1024 20:35:24.799093 14846 net.cpp:384] relu5_action <- conv5_action
I1024 20:35:24.799101 14846 net.cpp:331] relu5_action -> conv5_action (in-place)
I1024 20:35:24.799108 14846 net.cpp:113] Setting up relu5_action
I1024 20:35:24.799116 14846 net.cpp:120] Top shape: 14 256 13 13 (605696)
I1024 20:35:24.799121 14846 layer_factory.hpp:74] Creating layer pool5_action
I1024 20:35:24.799134 14846 net.cpp:84] Creating Layer pool5_action
I1024 20:35:24.799140 14846 net.cpp:384] pool5_action <- conv5_action
I1024 20:35:24.799149 14846 net.cpp:342] pool5_action -> pool5_action
I1024 20:35:24.799156 14846 net.cpp:113] Setting up pool5_action
I1024 20:35:24.799166 14846 net.cpp:120] Top shape: 14 256 6 6 (129024)
I1024 20:35:24.799172 14846 layer_factory.hpp:74] Creating layer fc6_action
I1024 20:35:24.799182 14846 net.cpp:84] Creating Layer fc6_action
I1024 20:35:24.799187 14846 net.cpp:384] fc6_action <- pool5_action
I1024 20:35:24.799196 14846 net.cpp:342] fc6_action -> fc6_action
I1024 20:35:24.799206 14846 net.cpp:113] Setting up fc6_action
I1024 20:35:25.277932 14846 net.cpp:120] Top shape: 14 4096 (57344)
I1024 20:35:25.277977 14846 layer_factory.hpp:74] Creating layer relu6_action
I1024 20:35:25.278017 14846 net.cpp:84] Creating Layer relu6_action
I1024 20:35:25.278025 14846 net.cpp:384] relu6_action <- fc6_action
I1024 20:35:25.278034 14846 net.cpp:331] relu6_action -> fc6_action (in-place)
I1024 20:35:25.278044 14846 net.cpp:113] Setting up relu6_action
I1024 20:35:25.278053 14846 net.cpp:120] Top shape: 14 4096 (57344)
I1024 20:35:25.278059 14846 layer_factory.hpp:74] Creating layer drop6_action
I1024 20:35:25.278067 14846 net.cpp:84] Creating Layer drop6_action
I1024 20:35:25.278072 14846 net.cpp:384] drop6_action <- fc6_action
I1024 20:35:25.278079 14846 net.cpp:331] drop6_action -> fc6_action (in-place)
I1024 20:35:25.278086 14846 net.cpp:113] Setting up drop6_action
I1024 20:35:25.278095 14846 net.cpp:120] Top shape: 14 4096 (57344)
I1024 20:35:25.278101 14846 layer_factory.hpp:74] Creating layer fc7_action
I1024 20:35:25.278111 14846 net.cpp:84] Creating Layer fc7_action
I1024 20:35:25.278116 14846 net.cpp:384] fc7_action <- fc6_action
I1024 20:35:25.278126 14846 net.cpp:342] fc7_action -> fc7_action
I1024 20:35:25.278139 14846 net.cpp:113] Setting up fc7_action
I1024 20:35:25.489509 14846 net.cpp:120] Top shape: 14 4096 (57344)
I1024 20:35:25.489552 14846 layer_factory.hpp:74] Creating layer relu7_action
I1024 20:35:25.489568 14846 net.cpp:84] Creating Layer relu7_action
I1024 20:35:25.489576 14846 net.cpp:384] relu7_action <- fc7_action
I1024 20:35:25.489586 14846 net.cpp:331] relu7_action -> fc7_action (in-place)
I1024 20:35:25.489596 14846 net.cpp:113] Setting up relu7_action
I1024 20:35:25.489604 14846 net.cpp:120] Top shape: 14 4096 (57344)
I1024 20:35:25.489609 14846 layer_factory.hpp:74] Creating layer drop7_action
I1024 20:35:25.489619 14846 net.cpp:84] Creating Layer drop7_action
I1024 20:35:25.489624 14846 net.cpp:384] drop7_action <- fc7_action
I1024 20:35:25.489630 14846 net.cpp:331] drop7_action -> fc7_action (in-place)
I1024 20:35:25.489637 14846 net.cpp:113] Setting up drop7_action
I1024 20:35:25.489646 14846 net.cpp:120] Top shape: 14 4096 (57344)
I1024 20:35:25.489652 14846 layer_factory.hpp:74] Creating layer fc8_CAD_action
I1024 20:35:25.489663 14846 net.cpp:84] Creating Layer fc8_CAD_action
I1024 20:35:25.489670 14846 net.cpp:384] fc8_CAD_action <- fc7_action
I1024 20:35:25.489677 14846 net.cpp:342] fc8_CAD_action -> fc8_CAD_action
I1024 20:35:25.489686 14846 net.cpp:113] Setting up fc8_CAD_action
I1024 20:35:25.490080 14846 net.cpp:120] Top shape: 14 7 (98)
I1024 20:35:25.490092 14846 layer_factory.hpp:74] Creating layer data_pose
I1024 20:35:25.490105 14846 net.cpp:84] Creating Layer data_pose
I1024 20:35:25.490113 14846 net.cpp:342] data_pose -> data_pose
I1024 20:35:25.490125 14846 net.cpp:342] data_pose -> label_pose
I1024 20:35:25.490134 14846 net.cpp:113] Setting up data_pose
I1024 20:35:25.494514 14846 db.cpp:34] Opened lmdb /cs/vml2/zhiweid/CVPR16_NEW/data/0930/CAD_pose_val_lmdb_0930
I1024 20:35:25.495077 14846 data_layer.cpp:67] output data size: 14,3,227,227
I1024 20:35:25.495093 14846 data_transformer.cpp:22] Loading mean file from: imagenet_mean.binaryproto
I1024 20:35:25.498653 14846 net.cpp:120] Top shape: 14 3 227 227 (2164218)
I1024 20:35:25.498674 14846 net.cpp:120] Top shape: 14 (14)
I1024 20:35:25.498682 14846 layer_factory.hpp:74] Creating layer label_pose_data_pose_1_split
I1024 20:35:25.498692 14846 net.cpp:84] Creating Layer label_pose_data_pose_1_split
I1024 20:35:25.498698 14846 net.cpp:384] label_pose_data_pose_1_split <- label_pose
I1024 20:35:25.498708 14846 net.cpp:342] label_pose_data_pose_1_split -> label_pose_data_pose_1_split_0
I1024 20:35:25.498719 14846 net.cpp:342] label_pose_data_pose_1_split -> label_pose_data_pose_1_split_1
I1024 20:35:25.498728 14846 net.cpp:113] Setting up label_pose_data_pose_1_split
I1024 20:35:25.498738 14846 net.cpp:120] Top shape: 14 (14)
I1024 20:35:25.498744 14846 net.cpp:120] Top shape: 14 (14)
I1024 20:35:25.498750 14846 layer_factory.hpp:74] Creating layer conv1_pose
I1024 20:35:25.498761 14846 net.cpp:84] Creating Layer conv1_pose
I1024 20:35:25.498772 14846 net.cpp:384] conv1_pose <- data_pose
I1024 20:35:25.498802 14846 net.cpp:342] conv1_pose -> conv1_pose
I1024 20:35:25.498813 14846 net.cpp:113] Setting up conv1_pose
I1024 20:35:25.499312 14846 net.cpp:120] Top shape: 14 96 55 55 (4065600)
I1024 20:35:25.499330 14846 layer_factory.hpp:74] Creating layer relu1_pose
I1024 20:35:25.499339 14846 net.cpp:84] Creating Layer relu1_pose
I1024 20:35:25.499346 14846 net.cpp:384] relu1_pose <- conv1_pose
I1024 20:35:25.499352 14846 net.cpp:331] relu1_pose -> conv1_pose (in-place)
I1024 20:35:25.499361 14846 net.cpp:113] Setting up relu1_pose
I1024 20:35:25.499368 14846 net.cpp:120] Top shape: 14 96 55 55 (4065600)
I1024 20:35:25.499377 14846 layer_factory.hpp:74] Creating layer pool1_pose
I1024 20:35:25.499387 14846 net.cpp:84] Creating Layer pool1_pose
I1024 20:35:25.499392 14846 net.cpp:384] pool1_pose <- conv1_pose
I1024 20:35:25.499400 14846 net.cpp:342] pool1_pose -> pool1_pose
I1024 20:35:25.499409 14846 net.cpp:113] Setting up pool1_pose
I1024 20:35:25.499420 14846 net.cpp:120] Top shape: 14 96 27 27 (979776)
I1024 20:35:25.499426 14846 layer_factory.hpp:74] Creating layer norm1_pose
I1024 20:35:25.499435 14846 net.cpp:84] Creating Layer norm1_pose
I1024 20:35:25.499441 14846 net.cpp:384] norm1_pose <- pool1_pose
I1024 20:35:25.499449 14846 net.cpp:342] norm1_pose -> norm1_pose
I1024 20:35:25.499457 14846 net.cpp:113] Setting up norm1_pose
I1024 20:35:25.499467 14846 net.cpp:120] Top shape: 14 96 27 27 (979776)
I1024 20:35:25.499474 14846 layer_factory.hpp:74] Creating layer conv2_pose
I1024 20:35:25.499482 14846 net.cpp:84] Creating Layer conv2_pose
I1024 20:35:25.499495 14846 net.cpp:384] conv2_pose <- norm1_pose
I1024 20:35:25.499505 14846 net.cpp:342] conv2_pose -> conv2_pose
I1024 20:35:25.499513 14846 net.cpp:113] Setting up conv2_pose
I1024 20:35:25.503887 14846 net.cpp:120] Top shape: 14 256 27 27 (2612736)
I1024 20:35:25.503916 14846 layer_factory.hpp:74] Creating layer relu2_pose
I1024 20:35:25.503927 14846 net.cpp:84] Creating Layer relu2_pose
I1024 20:35:25.503934 14846 net.cpp:384] relu2_pose <- conv2_pose
I1024 20:35:25.503944 14846 net.cpp:331] relu2_pose -> conv2_pose (in-place)
I1024 20:35:25.503953 14846 net.cpp:113] Setting up relu2_pose
I1024 20:35:25.503962 14846 net.cpp:120] Top shape: 14 256 27 27 (2612736)
I1024 20:35:25.503968 14846 layer_factory.hpp:74] Creating layer pool2_pose
I1024 20:35:25.503981 14846 net.cpp:84] Creating Layer pool2_pose
I1024 20:35:25.503988 14846 net.cpp:384] pool2_pose <- conv2_pose
I1024 20:35:25.503995 14846 net.cpp:342] pool2_pose -> pool2_pose
I1024 20:35:25.504004 14846 net.cpp:113] Setting up pool2_pose
I1024 20:35:25.504014 14846 net.cpp:120] Top shape: 14 256 13 13 (605696)
I1024 20:35:25.504020 14846 layer_factory.hpp:74] Creating layer norm2_pose
I1024 20:35:25.504029 14846 net.cpp:84] Creating Layer norm2_pose
I1024 20:35:25.504034 14846 net.cpp:384] norm2_pose <- pool2_pose
I1024 20:35:25.504043 14846 net.cpp:342] norm2_pose -> norm2_pose
I1024 20:35:25.504055 14846 net.cpp:113] Setting up norm2_pose
I1024 20:35:25.504066 14846 net.cpp:120] Top shape: 14 256 13 13 (605696)
I1024 20:35:25.504072 14846 layer_factory.hpp:74] Creating layer conv3_pose
I1024 20:35:25.504082 14846 net.cpp:84] Creating Layer conv3_pose
I1024 20:35:25.504087 14846 net.cpp:384] conv3_pose <- norm2_pose
I1024 20:35:25.504096 14846 net.cpp:342] conv3_pose -> conv3_pose
I1024 20:35:25.504106 14846 net.cpp:113] Setting up conv3_pose
I1024 20:35:25.516944 14846 net.cpp:120] Top shape: 14 384 13 13 (908544)
I1024 20:35:25.516974 14846 layer_factory.hpp:74] Creating layer relu3_pose
I1024 20:35:25.516988 14846 net.cpp:84] Creating Layer relu3_pose
I1024 20:35:25.516994 14846 net.cpp:384] relu3_pose <- conv3_pose
I1024 20:35:25.517004 14846 net.cpp:331] relu3_pose -> conv3_pose (in-place)
I1024 20:35:25.517014 14846 net.cpp:113] Setting up relu3_pose
I1024 20:35:25.517022 14846 net.cpp:120] Top shape: 14 384 13 13 (908544)
I1024 20:35:25.517027 14846 layer_factory.hpp:74] Creating layer conv4_pose
I1024 20:35:25.517038 14846 net.cpp:84] Creating Layer conv4_pose
I1024 20:35:25.517047 14846 net.cpp:384] conv4_pose <- conv3_pose
I1024 20:35:25.517077 14846 net.cpp:342] conv4_pose -> conv4_pose
I1024 20:35:25.517087 14846 net.cpp:113] Setting up conv4_pose
I1024 20:35:25.526351 14846 net.cpp:120] Top shape: 14 384 13 13 (908544)
I1024 20:35:25.526367 14846 layer_factory.hpp:74] Creating layer relu4_pose
I1024 20:35:25.526376 14846 net.cpp:84] Creating Layer relu4_pose
I1024 20:35:25.526381 14846 net.cpp:384] relu4_pose <- conv4_pose
I1024 20:35:25.526387 14846 net.cpp:331] relu4_pose -> conv4_pose (in-place)
I1024 20:35:25.526394 14846 net.cpp:113] Setting up relu4_pose
I1024 20:35:25.526401 14846 net.cpp:120] Top shape: 14 384 13 13 (908544)
I1024 20:35:25.526407 14846 layer_factory.hpp:74] Creating layer conv5_pose
I1024 20:35:25.526414 14846 net.cpp:84] Creating Layer conv5_pose
I1024 20:35:25.526420 14846 net.cpp:384] conv5_pose <- conv4_pose
I1024 20:35:25.526432 14846 net.cpp:342] conv5_pose -> conv5_pose
I1024 20:35:25.526440 14846 net.cpp:113] Setting up conv5_pose
I1024 20:35:25.532425 14846 net.cpp:120] Top shape: 14 256 13 13 (605696)
I1024 20:35:25.532441 14846 layer_factory.hpp:74] Creating layer relu5_pose
I1024 20:35:25.532454 14846 net.cpp:84] Creating Layer relu5_pose
I1024 20:35:25.532461 14846 net.cpp:384] relu5_pose <- conv5_pose
I1024 20:35:25.532469 14846 net.cpp:331] relu5_pose -> conv5_pose (in-place)
I1024 20:35:25.532476 14846 net.cpp:113] Setting up relu5_pose
I1024 20:35:25.532483 14846 net.cpp:120] Top shape: 14 256 13 13 (605696)
I1024 20:35:25.532493 14846 layer_factory.hpp:74] Creating layer pool5_pose
I1024 20:35:25.532502 14846 net.cpp:84] Creating Layer pool5_pose
I1024 20:35:25.532507 14846 net.cpp:384] pool5_pose <- conv5_pose
I1024 20:35:25.532516 14846 net.cpp:342] pool5_pose -> pool5_pose
I1024 20:35:25.532524 14846 net.cpp:113] Setting up pool5_pose
I1024 20:35:25.532536 14846 net.cpp:120] Top shape: 14 256 6 6 (129024)
I1024 20:35:25.532541 14846 layer_factory.hpp:74] Creating layer fc6_pose
I1024 20:35:25.532551 14846 net.cpp:84] Creating Layer fc6_pose
I1024 20:35:25.532555 14846 net.cpp:384] fc6_pose <- pool5_pose
I1024 20:35:25.532565 14846 net.cpp:342] fc6_pose -> fc6_pose
I1024 20:35:25.532575 14846 net.cpp:113] Setting up fc6_pose
I1024 20:35:26.007959 14846 net.cpp:120] Top shape: 14 4096 (57344)
I1024 20:35:26.008003 14846 layer_factory.hpp:74] Creating layer relu6_pose
I1024 20:35:26.008018 14846 net.cpp:84] Creating Layer relu6_pose
I1024 20:35:26.008025 14846 net.cpp:384] relu6_pose <- fc6_pose
I1024 20:35:26.008034 14846 net.cpp:331] relu6_pose -> fc6_pose (in-place)
I1024 20:35:26.008044 14846 net.cpp:113] Setting up relu6_pose
I1024 20:35:26.008052 14846 net.cpp:120] Top shape: 14 4096 (57344)
I1024 20:35:26.008057 14846 layer_factory.hpp:74] Creating layer drop6_pose
I1024 20:35:26.008066 14846 net.cpp:84] Creating Layer drop6_pose
I1024 20:35:26.008071 14846 net.cpp:384] drop6_pose <- fc6_pose
I1024 20:35:26.008080 14846 net.cpp:331] drop6_pose -> fc6_pose (in-place)
I1024 20:35:26.008088 14846 net.cpp:113] Setting up drop6_pose
I1024 20:35:26.008098 14846 net.cpp:120] Top shape: 14 4096 (57344)
I1024 20:35:26.008103 14846 layer_factory.hpp:74] Creating layer fc7_pose
I1024 20:35:26.008113 14846 net.cpp:84] Creating Layer fc7_pose
I1024 20:35:26.008118 14846 net.cpp:384] fc7_pose <- fc6_pose
I1024 20:35:26.008126 14846 net.cpp:342] fc7_pose -> fc7_pose
I1024 20:35:26.008136 14846 net.cpp:113] Setting up fc7_pose
I1024 20:35:26.219614 14846 net.cpp:120] Top shape: 14 4096 (57344)
I1024 20:35:26.219652 14846 layer_factory.hpp:74] Creating layer relu7_pose
I1024 20:35:26.219669 14846 net.cpp:84] Creating Layer relu7_pose
I1024 20:35:26.219677 14846 net.cpp:384] relu7_pose <- fc7_pose
I1024 20:35:26.219688 14846 net.cpp:331] relu7_pose -> fc7_pose (in-place)
I1024 20:35:26.219698 14846 net.cpp:113] Setting up relu7_pose
I1024 20:35:26.219707 14846 net.cpp:120] Top shape: 14 4096 (57344)
I1024 20:35:26.219712 14846 layer_factory.hpp:74] Creating layer drop7_pose
I1024 20:35:26.219720 14846 net.cpp:84] Creating Layer drop7_pose
I1024 20:35:26.219730 14846 net.cpp:384] drop7_pose <- fc7_pose
I1024 20:35:26.219758 14846 net.cpp:331] drop7_pose -> fc7_pose (in-place)
I1024 20:35:26.219768 14846 net.cpp:113] Setting up drop7_pose
I1024 20:35:26.219776 14846 net.cpp:120] Top shape: 14 4096 (57344)
I1024 20:35:26.219782 14846 layer_factory.hpp:74] Creating layer fc8_CAD_pose
I1024 20:35:26.219794 14846 net.cpp:84] Creating Layer fc8_CAD_pose
I1024 20:35:26.219799 14846 net.cpp:384] fc8_CAD_pose <- fc7_pose
I1024 20:35:26.219807 14846 net.cpp:342] fc8_CAD_pose -> fc8_CAD_pose
I1024 20:35:26.219820 14846 net.cpp:113] Setting up fc8_CAD_pose
I1024 20:35:26.220803 14846 net.cpp:120] Top shape: 14 18 (252)
I1024 20:35:26.220814 14846 layer_factory.hpp:74] Creating layer data_frame
I1024 20:35:26.220829 14846 net.cpp:84] Creating Layer data_frame
I1024 20:35:26.220837 14846 net.cpp:342] data_frame -> data_frame
I1024 20:35:26.220849 14846 net.cpp:342] data_frame -> label_frame
I1024 20:35:26.220857 14846 net.cpp:113] Setting up data_frame
I1024 20:35:26.225409 14846 db.cpp:34] Opened lmdb /cs/vml2/zhiweid/CVPR16_NEW/data/0930/CAD_frame_val_lmdb_0930
I1024 20:35:26.225981 14846 data_layer.cpp:67] output data size: 1,3,227,227
I1024 20:35:26.225997 14846 data_transformer.cpp:22] Loading mean file from: imagenet_mean.binaryproto
I1024 20:35:26.227844 14846 net.cpp:120] Top shape: 1 3 227 227 (154587)
I1024 20:35:26.227859 14846 net.cpp:120] Top shape: 1 (1)
I1024 20:35:26.227865 14846 layer_factory.hpp:74] Creating layer label_frame_data_frame_1_split
I1024 20:35:26.227875 14846 net.cpp:84] Creating Layer label_frame_data_frame_1_split
I1024 20:35:26.227882 14846 net.cpp:384] label_frame_data_frame_1_split <- label_frame
I1024 20:35:26.227891 14846 net.cpp:342] label_frame_data_frame_1_split -> label_frame_data_frame_1_split_0
I1024 20:35:26.227901 14846 net.cpp:342] label_frame_data_frame_1_split -> label_frame_data_frame_1_split_1
I1024 20:35:26.227911 14846 net.cpp:342] label_frame_data_frame_1_split -> label_frame_data_frame_1_split_2
I1024 20:35:26.227921 14846 net.cpp:113] Setting up label_frame_data_frame_1_split
I1024 20:35:26.227929 14846 net.cpp:120] Top shape: 1 (1)
I1024 20:35:26.227936 14846 net.cpp:120] Top shape: 1 (1)
I1024 20:35:26.227943 14846 net.cpp:120] Top shape: 1 (1)
I1024 20:35:26.227951 14846 layer_factory.hpp:74] Creating layer context
I1024 20:35:26.227960 14846 net.cpp:84] Creating Layer context
I1024 20:35:26.227967 14846 net.cpp:342] context -> data_context
I1024 20:35:26.227977 14846 net.cpp:113] Setting up context
I1024 20:35:26.227983 14846 hdf5_data_layer.cpp:80] Loading list of HDF5 filenames from: /cs/vml2/zhiweid/CVPR16_NEW/data/0930/hdf5db/val_context.txt
I1024 20:35:26.228338 14846 hdf5_data_layer.cpp:94] Number of HDF5 files: 1
I1024 20:35:26.229411 14846 net.cpp:120] Top shape: 1 240 (240)
I1024 20:35:26.229426 14846 layer_factory.hpp:74] Creating layer conv1_frame
I1024 20:35:26.229439 14846 net.cpp:84] Creating Layer conv1_frame
I1024 20:35:26.229447 14846 net.cpp:384] conv1_frame <- data_frame
I1024 20:35:26.229457 14846 net.cpp:342] conv1_frame -> conv1_frame
I1024 20:35:26.229468 14846 net.cpp:113] Setting up conv1_frame
I1024 20:35:26.230077 14846 net.cpp:120] Top shape: 1 96 55 55 (290400)
I1024 20:35:26.230098 14846 layer_factory.hpp:74] Creating layer relu1_frame
I1024 20:35:26.230108 14846 net.cpp:84] Creating Layer relu1_frame
I1024 20:35:26.230114 14846 net.cpp:384] relu1_frame <- conv1_frame
I1024 20:35:26.230123 14846 net.cpp:331] relu1_frame -> conv1_frame (in-place)
I1024 20:35:26.230131 14846 net.cpp:113] Setting up relu1_frame
I1024 20:35:26.230139 14846 net.cpp:120] Top shape: 1 96 55 55 (290400)
I1024 20:35:26.230145 14846 layer_factory.hpp:74] Creating layer pool1_frame
I1024 20:35:26.230155 14846 net.cpp:84] Creating Layer pool1_frame
I1024 20:35:26.230161 14846 net.cpp:384] pool1_frame <- conv1_frame
I1024 20:35:26.230170 14846 net.cpp:342] pool1_frame -> pool1_frame
I1024 20:35:26.230180 14846 net.cpp:113] Setting up pool1_frame
I1024 20:35:26.230191 14846 net.cpp:120] Top shape: 1 96 27 27 (69984)
I1024 20:35:26.230202 14846 layer_factory.hpp:74] Creating layer norm1_frame
I1024 20:35:26.230227 14846 net.cpp:84] Creating Layer norm1_frame
I1024 20:35:26.230234 14846 net.cpp:384] norm1_frame <- pool1_frame
I1024 20:35:26.230243 14846 net.cpp:342] norm1_frame -> norm1_frame
I1024 20:35:26.230252 14846 net.cpp:113] Setting up norm1_frame
I1024 20:35:26.230262 14846 net.cpp:120] Top shape: 1 96 27 27 (69984)
I1024 20:35:26.230269 14846 layer_factory.hpp:74] Creating layer conv2_frame
I1024 20:35:26.230279 14846 net.cpp:84] Creating Layer conv2_frame
I1024 20:35:26.230285 14846 net.cpp:384] conv2_frame <- norm1_frame
I1024 20:35:26.230294 14846 net.cpp:342] conv2_frame -> conv2_frame
I1024 20:35:26.230304 14846 net.cpp:113] Setting up conv2_frame
I1024 20:35:26.235469 14846 net.cpp:120] Top shape: 1 256 27 27 (186624)
I1024 20:35:26.235492 14846 layer_factory.hpp:74] Creating layer relu2_frame
I1024 20:35:26.235503 14846 net.cpp:84] Creating Layer relu2_frame
I1024 20:35:26.235510 14846 net.cpp:384] relu2_frame <- conv2_frame
I1024 20:35:26.235520 14846 net.cpp:331] relu2_frame -> conv2_frame (in-place)
I1024 20:35:26.235530 14846 net.cpp:113] Setting up relu2_frame
I1024 20:35:26.235539 14846 net.cpp:120] Top shape: 1 256 27 27 (186624)
I1024 20:35:26.235546 14846 layer_factory.hpp:74] Creating layer pool2_frame
I1024 20:35:26.235555 14846 net.cpp:84] Creating Layer pool2_frame
I1024 20:35:26.235563 14846 net.cpp:384] pool2_frame <- conv2_frame
I1024 20:35:26.235571 14846 net.cpp:342] pool2_frame -> pool2_frame
I1024 20:35:26.235581 14846 net.cpp:113] Setting up pool2_frame
I1024 20:35:26.235594 14846 net.cpp:120] Top shape: 1 256 13 13 (43264)
I1024 20:35:26.235600 14846 layer_factory.hpp:74] Creating layer norm2_frame
I1024 20:35:26.235610 14846 net.cpp:84] Creating Layer norm2_frame
I1024 20:35:26.235616 14846 net.cpp:384] norm2_frame <- pool2_frame
I1024 20:35:26.235626 14846 net.cpp:342] norm2_frame -> norm2_frame
I1024 20:35:26.235635 14846 net.cpp:113] Setting up norm2_frame
I1024 20:35:26.235646 14846 net.cpp:120] Top shape: 1 256 13 13 (43264)
I1024 20:35:26.235652 14846 layer_factory.hpp:74] Creating layer conv3_frame
I1024 20:35:26.235663 14846 net.cpp:84] Creating Layer conv3_frame
I1024 20:35:26.235671 14846 net.cpp:384] conv3_frame <- norm2_frame
I1024 20:35:26.235680 14846 net.cpp:342] conv3_frame -> conv3_frame
I1024 20:35:26.235690 14846 net.cpp:113] Setting up conv3_frame
I1024 20:35:26.248890 14846 net.cpp:120] Top shape: 1 384 13 13 (64896)
I1024 20:35:26.248911 14846 layer_factory.hpp:74] Creating layer relu3_frame
I1024 20:35:26.248924 14846 net.cpp:84] Creating Layer relu3_frame
I1024 20:35:26.248930 14846 net.cpp:384] relu3_frame <- conv3_frame
I1024 20:35:26.248939 14846 net.cpp:331] relu3_frame -> conv3_frame (in-place)
I1024 20:35:26.248947 14846 net.cpp:113] Setting up relu3_frame
I1024 20:35:26.248955 14846 net.cpp:120] Top shape: 1 384 13 13 (64896)
I1024 20:35:26.248960 14846 layer_factory.hpp:74] Creating layer conv4_frame
I1024 20:35:26.248970 14846 net.cpp:84] Creating Layer conv4_frame
I1024 20:35:26.248975 14846 net.cpp:384] conv4_frame <- conv3_frame
I1024 20:35:26.248983 14846 net.cpp:342] conv4_frame -> conv4_frame
I1024 20:35:26.248991 14846 net.cpp:113] Setting up conv4_frame
I1024 20:35:26.257802 14846 net.cpp:120] Top shape: 1 384 13 13 (64896)
I1024 20:35:26.257817 14846 layer_factory.hpp:74] Creating layer relu4_frame
I1024 20:35:26.257827 14846 net.cpp:84] Creating Layer relu4_frame
I1024 20:35:26.257833 14846 net.cpp:384] relu4_frame <- conv4_frame
I1024 20:35:26.257839 14846 net.cpp:331] relu4_frame -> conv4_frame (in-place)
I1024 20:35:26.257846 14846 net.cpp:113] Setting up relu4_frame
I1024 20:35:26.257853 14846 net.cpp:120] Top shape: 1 384 13 13 (64896)
I1024 20:35:26.257859 14846 layer_factory.hpp:74] Creating layer conv5_frame
I1024 20:35:26.257868 14846 net.cpp:84] Creating Layer conv5_frame
I1024 20:35:26.257874 14846 net.cpp:384] conv5_frame <- conv4_frame
I1024 20:35:26.257880 14846 net.cpp:342] conv5_frame -> conv5_frame
I1024 20:35:26.257894 14846 net.cpp:113] Setting up conv5_frame
I1024 20:35:26.263890 14846 net.cpp:120] Top shape: 1 256 13 13 (43264)
I1024 20:35:26.263906 14846 layer_factory.hpp:74] Creating layer relu5_frame
I1024 20:35:26.263926 14846 net.cpp:84] Creating Layer relu5_frame
I1024 20:35:26.263933 14846 net.cpp:384] relu5_frame <- conv5_frame
I1024 20:35:26.263942 14846 net.cpp:331] relu5_frame -> conv5_frame (in-place)
I1024 20:35:26.263948 14846 net.cpp:113] Setting up relu5_frame
I1024 20:35:26.263957 14846 net.cpp:120] Top shape: 1 256 13 13 (43264)
I1024 20:35:26.263962 14846 layer_factory.hpp:74] Creating layer pool5_frame
I1024 20:35:26.263970 14846 net.cpp:84] Creating Layer pool5_frame
I1024 20:35:26.263977 14846 net.cpp:384] pool5_frame <- conv5_frame
I1024 20:35:26.263984 14846 net.cpp:342] pool5_frame -> pool5_frame
I1024 20:35:26.263993 14846 net.cpp:113] Setting up pool5_frame
I1024 20:35:26.264003 14846 net.cpp:120] Top shape: 1 256 6 6 (9216)
I1024 20:35:26.264009 14846 layer_factory.hpp:74] Creating layer fc6_frame
I1024 20:35:26.264019 14846 net.cpp:84] Creating Layer fc6_frame
I1024 20:35:26.264024 14846 net.cpp:384] fc6_frame <- pool5_frame
I1024 20:35:26.264035 14846 net.cpp:342] fc6_frame -> fc6_frame
I1024 20:35:26.264044 14846 net.cpp:113] Setting up fc6_frame
I1024 20:35:26.741153 14846 net.cpp:120] Top shape: 1 4096 (4096)
I1024 20:35:26.741197 14846 layer_factory.hpp:74] Creating layer relu6_frame
I1024 20:35:26.741212 14846 net.cpp:84] Creating Layer relu6_frame
I1024 20:35:26.741220 14846 net.cpp:384] relu6_frame <- fc6_frame
I1024 20:35:26.741230 14846 net.cpp:331] relu6_frame -> fc6_frame (in-place)
I1024 20:35:26.741240 14846 net.cpp:113] Setting up relu6_frame
I1024 20:35:26.741247 14846 net.cpp:120] Top shape: 1 4096 (4096)
I1024 20:35:26.741252 14846 layer_factory.hpp:74] Creating layer drop6_frame
I1024 20:35:26.741261 14846 net.cpp:84] Creating Layer drop6_frame
I1024 20:35:26.741267 14846 net.cpp:384] drop6_frame <- fc6_frame
I1024 20:35:26.741274 14846 net.cpp:331] drop6_frame -> fc6_frame (in-place)
I1024 20:35:26.741281 14846 net.cpp:113] Setting up drop6_frame
I1024 20:35:26.741291 14846 net.cpp:120] Top shape: 1 4096 (4096)
I1024 20:35:26.741297 14846 layer_factory.hpp:74] Creating layer fc7_frame
I1024 20:35:26.741307 14846 net.cpp:84] Creating Layer fc7_frame
I1024 20:35:26.741312 14846 net.cpp:384] fc7_frame <- fc6_frame
I1024 20:35:26.741320 14846 net.cpp:342] fc7_frame -> fc7_frame
I1024 20:35:26.741329 14846 net.cpp:113] Setting up fc7_frame
I1024 20:35:26.952653 14846 net.cpp:120] Top shape: 1 4096 (4096)
I1024 20:35:26.952697 14846 layer_factory.hpp:74] Creating layer relu7_frame
I1024 20:35:26.952711 14846 net.cpp:84] Creating Layer relu7_frame
I1024 20:35:26.952720 14846 net.cpp:384] relu7_frame <- fc7_frame
I1024 20:35:26.952729 14846 net.cpp:331] relu7_frame -> fc7_frame (in-place)
I1024 20:35:26.952739 14846 net.cpp:113] Setting up relu7_frame
I1024 20:35:26.952746 14846 net.cpp:120] Top shape: 1 4096 (4096)
I1024 20:35:26.952752 14846 layer_factory.hpp:74] Creating layer drop7_frame
I1024 20:35:26.952761 14846 net.cpp:84] Creating Layer drop7_frame
I1024 20:35:26.952767 14846 net.cpp:384] drop7_frame <- fc7_frame
I1024 20:35:26.952775 14846 net.cpp:331] drop7_frame -> fc7_frame (in-place)
I1024 20:35:26.952781 14846 net.cpp:113] Setting up drop7_frame
I1024 20:35:26.952790 14846 net.cpp:120] Top shape: 1 4096 (4096)
I1024 20:35:26.952796 14846 layer_factory.hpp:74] Creating layer fc8_CAD_frame
I1024 20:35:26.952805 14846 net.cpp:84] Creating Layer fc8_CAD_frame
I1024 20:35:26.952811 14846 net.cpp:384] fc8_CAD_frame <- fc7_frame
I1024 20:35:26.952819 14846 net.cpp:342] fc8_CAD_frame -> fc8_CAD_frame
I1024 20:35:26.952828 14846 net.cpp:113] Setting up fc8_CAD_frame
I1024 20:35:26.953099 14846 net.cpp:120] Top shape: 1 5 (5)
I1024 20:35:26.953109 14846 layer_factory.hpp:74] Creating layer fc8_CAD_frame_fc8_CAD_frame_0_split
I1024 20:35:26.953116 14846 net.cpp:84] Creating Layer fc8_CAD_frame_fc8_CAD_frame_0_split
I1024 20:35:26.953122 14846 net.cpp:384] fc8_CAD_frame_fc8_CAD_frame_0_split <- fc8_CAD_frame
I1024 20:35:26.953135 14846 net.cpp:342] fc8_CAD_frame_fc8_CAD_frame_0_split -> fc8_CAD_frame_fc8_CAD_frame_0_split_0
I1024 20:35:26.953164 14846 net.cpp:342] fc8_CAD_frame_fc8_CAD_frame_0_split -> fc8_CAD_frame_fc8_CAD_frame_0_split_1
I1024 20:35:26.953172 14846 net.cpp:113] Setting up fc8_CAD_frame_fc8_CAD_frame_0_split
I1024 20:35:26.953181 14846 net.cpp:120] Top shape: 1 5 (5)
I1024 20:35:26.953187 14846 net.cpp:120] Top shape: 1 5 (5)
I1024 20:35:26.953192 14846 layer_factory.hpp:74] Creating layer fc8_context
I1024 20:35:26.953200 14846 net.cpp:84] Creating Layer fc8_context
I1024 20:35:26.953207 14846 net.cpp:384] fc8_context <- data_context
I1024 20:35:26.953214 14846 net.cpp:342] fc8_context -> fc8_context
I1024 20:35:26.953222 14846 net.cpp:113] Setting up fc8_context
I1024 20:35:26.953248 14846 net.cpp:120] Top shape: 1 5 (5)
I1024 20:35:26.953256 14846 layer_factory.hpp:74] Creating layer sum_frame
I1024 20:35:26.953265 14846 net.cpp:84] Creating Layer sum_frame
I1024 20:35:26.953270 14846 net.cpp:384] sum_frame <- fc8_context
I1024 20:35:26.953276 14846 net.cpp:384] sum_frame <- fc8_CAD_frame_fc8_CAD_frame_0_split_0
I1024 20:35:26.953284 14846 net.cpp:342] sum_frame -> sum_frame
I1024 20:35:26.953292 14846 net.cpp:113] Setting up sum_frame
I1024 20:35:26.953301 14846 net.cpp:120] Top shape: 1 5 (5)
I1024 20:35:26.953306 14846 layer_factory.hpp:74] Creating layer prob_frame
I1024 20:35:26.953315 14846 net.cpp:84] Creating Layer prob_frame
I1024 20:35:26.953320 14846 net.cpp:384] prob_frame <- fc8_CAD_frame_fc8_CAD_frame_0_split_1
I1024 20:35:26.953326 14846 net.cpp:342] prob_frame -> fc8_CAD_frame_prob
I1024 20:35:26.953333 14846 net.cpp:113] Setting up prob_frame
I1024 20:35:26.953342 14846 net.cpp:120] Top shape: 1 5 (5)
I1024 20:35:26.953348 14846 layer_factory.hpp:74] Creating layer prob_action
I1024 20:35:26.953354 14846 net.cpp:84] Creating Layer prob_action
I1024 20:35:26.953361 14846 net.cpp:384] prob_action <- fc8_CAD_action
I1024 20:35:26.953367 14846 net.cpp:342] prob_action -> fc8_CAD_prob
I1024 20:35:26.953382 14846 net.cpp:113] Setting up prob_action
I1024 20:35:26.953392 14846 net.cpp:120] Top shape: 14 7 (98)
I1024 20:35:26.953397 14846 layer_factory.hpp:74] Creating layer Data_arrange_layer_filter
I1024 20:35:26.953457 14846 net.cpp:84] Creating Layer Data_arrange_layer_filter
I1024 20:35:26.953466 14846 net.cpp:384] Data_arrange_layer_filter <- fc8_CAD_prob
I1024 20:35:26.953472 14846 net.cpp:384] Data_arrange_layer_filter <- label_action_data_action_1_split_0
I1024 20:35:26.953480 14846 net.cpp:342] Data_arrange_layer_filter -> fc9_filtered
I1024 20:35:26.953591 14846 net.cpp:113] Setting up Data_arrange_layer_filter
I1024 20:35:26.953654 14846 net.cpp:120] Top shape: 1 98 (98)
I1024 20:35:26.953663 14846 layer_factory.hpp:74] Creating layer concatenation_s_a_p
I1024 20:35:26.953673 14846 net.cpp:84] Creating Layer concatenation_s_a_p
I1024 20:35:26.953680 14846 net.cpp:384] concatenation_s_a_p <- fc8_CAD_frame_prob
I1024 20:35:26.953690 14846 net.cpp:384] concatenation_s_a_p <- fc9_filtered
I1024 20:35:26.953697 14846 net.cpp:342] concatenation_s_a_p -> concat_all0
I1024 20:35:26.953706 14846 net.cpp:113] Setting up concatenation_s_a_p
I1024 20:35:26.953714 14846 net.cpp:120] Top shape: 1 103 (103)
I1024 20:35:26.953719 14846 layer_factory.hpp:74] Creating layer concat_all0_concatenation_s_a_p_0_split
I1024 20:35:26.953727 14846 net.cpp:84] Creating Layer concat_all0_concatenation_s_a_p_0_split
I1024 20:35:26.953732 14846 net.cpp:384] concat_all0_concatenation_s_a_p_0_split <- concat_all0
I1024 20:35:26.953738 14846 net.cpp:342] concat_all0_concatenation_s_a_p_0_split -> concat_all0_concatenation_s_a_p_0_split_0
I1024 20:35:26.953747 14846 net.cpp:342] concat_all0_concatenation_s_a_p_0_split -> concat_all0_concatenation_s_a_p_0_split_1
I1024 20:35:26.953754 14846 net.cpp:113] Setting up concat_all0_concatenation_s_a_p_0_split
I1024 20:35:26.953761 14846 net.cpp:120] Top shape: 1 103 (103)
I1024 20:35:26.953768 14846 net.cpp:120] Top shape: 1 103 (103)
I1024 20:35:26.953776 14846 layer_factory.hpp:74] Creating layer Belief_Propagation_Recurrent_Neural_Network_ArrangeMessageIn1
I1024 20:35:26.953811 14846 net.cpp:84] Creating Layer Belief_Propagation_Recurrent_Neural_Network_ArrangeMessageIn1
I1024 20:35:26.953820 14846 net.cpp:384] Belief_Propagation_Recurrent_Neural_Network_ArrangeMessageIn1 <- concat_all0_concatenation_s_a_p_0_split_0
I1024 20:35:26.953827 14846 net.cpp:384] Belief_Propagation_Recurrent_Neural_Network_ArrangeMessageIn1 <- label_action_data_action_1_split_1
I1024 20:35:26.953835 14846 net.cpp:342] Belief_Propagation_Recurrent_Neural_Network_ArrangeMessageIn1 -> A_A_MessageIn1
I1024 20:35:26.953845 14846 net.cpp:342] Belief_Propagation_Recurrent_Neural_Network_ArrangeMessageIn1 -> A_S_MessageIn1
I1024 20:35:26.953852 14846 net.cpp:342] Belief_Propagation_Recurrent_Neural_Network_ArrangeMessageIn1 -> S_A_MessageIn1
I1024 20:35:26.953860 14846 net.cpp:113] Setting up Belief_Propagation_Recurrent_Neural_Network_ArrangeMessageIn1
I1024 20:35:26.954071 14846 net.cpp:120] Top shape: 1 7 (7)
I1024 20:35:26.954084 14846 net.cpp:120] Top shape: 1 7 (7)
I1024 20:35:26.954090 14846 net.cpp:120] Top shape: 1 5 (5)
I1024 20:35:26.954097 14846 layer_factory.hpp:74] Creating layer Belief_Propagation_Recurrent_Neural_Network_A_A_Message1
I1024 20:35:26.954105 14846 net.cpp:84] Creating Layer Belief_Propagation_Recurrent_Neural_Network_A_A_Message1
I1024 20:35:26.954112 14846 net.cpp:384] Belief_Propagation_Recurrent_Neural_Network_A_A_Message1 <- A_A_MessageIn1
I1024 20:35:26.954120 14846 net.cpp:342] Belief_Propagation_Recurrent_Neural_Network_A_A_Message1 -> A_A_MessageOut1
I1024 20:35:26.954129 14846 net.cpp:113] Setting up Belief_Propagation_Recurrent_Neural_Network_A_A_Message1
I1024 20:35:26.954143 14846 net.cpp:120] Top shape: 1 7 (7)
I1024 20:35:26.954151 14846 layer_factory.hpp:74] Creating layer Belief_Propagation_Recurrent_Neural_Network_A_S_Message1
I1024 20:35:26.954159 14846 net.cpp:84] Creating Layer Belief_Propagation_Recurrent_Neural_Network_A_S_Message1
I1024 20:35:26.954165 14846 net.cpp:384] Belief_Propagation_Recurrent_Neural_Network_A_S_Message1 <- A_S_MessageIn1
I1024 20:35:26.954174 14846 net.cpp:342] Belief_Propagation_Recurrent_Neural_Network_A_S_Message1 -> A_S_MessageOut1
I1024 20:35:26.954181 14846 net.cpp:113] Setting up Belief_Propagation_Recurrent_Neural_Network_A_S_Message1
I1024 20:35:26.954192 14846 net.cpp:120] Top shape: 1 5 (5)
I1024 20:35:26.954200 14846 layer_factory.hpp:74] Creating layer Belief_Propagation_Recurrent_Neural_Network_S_A_Message1
I1024 20:35:26.954208 14846 net.cpp:84] Creating Layer Belief_Propagation_Recurrent_Neural_Network_S_A_Message1
I1024 20:35:26.954213 14846 net.cpp:384] Belief_Propagation_Recurrent_Neural_Network_S_A_Message1 <- S_A_MessageIn1
I1024 20:35:26.954221 14846 net.cpp:342] Belief_Propagation_Recurrent_Neural_Network_S_A_Message1 -> S_A_MessageOut1
I1024 20:35:26.954229 14846 net.cpp:113] Setting up Belief_Propagation_Recurrent_Neural_Network_S_A_Message1
I1024 20:35:26.954241 14846 net.cpp:120] Top shape: 1 7 (7)
I1024 20:35:26.954247 14846 layer_factory.hpp:74] Creating layer Belief_Propagation_Recurrent_Neural_Network_ArrangeMessageOut1
I1024 20:35:26.954274 14846 net.cpp:84] Creating Layer Belief_Propagation_Recurrent_Neural_Network_ArrangeMessageOut1
I1024 20:35:26.954283 14846 net.cpp:384] Belief_Propagation_Recurrent_Neural_Network_ArrangeMessageOut1 <- A_A_MessageOut1
I1024 20:35:26.954290 14846 net.cpp:384] Belief_Propagation_Recurrent_Neural_Network_ArrangeMessageOut1 <- A_S_MessageOut1
I1024 20:35:26.954296 14846 net.cpp:384] Belief_Propagation_Recurrent_Neural_Network_ArrangeMessageOut1 <- S_A_MessageOut1
I1024 20:35:26.954303 14846 net.cpp:384] Belief_Propagation_Recurrent_Neural_Network_ArrangeMessageOut1 <- label_action_data_action_1_split_2
I1024 20:35:26.954309 14846 net.cpp:384] Belief_Propagation_Recurrent_Neural_Network_ArrangeMessageOut1 <- concat_all0_concatenation_s_a_p_0_split_1
I1024 20:35:26.954318 14846 net.cpp:342] Belief_Propagation_Recurrent_Neural_Network_ArrangeMessageOut1 -> scene_1
I1024 20:35:26.954329 14846 net.cpp:342] Belief_Propagation_Recurrent_Neural_Network_ArrangeMessageOut1 -> action_1
I1024 20:35:26.954346 14846 net.cpp:113] Setting up Belief_Propagation_Recurrent_Neural_Network_ArrangeMessageOut1
I1024 20:35:26.954447 14846 net.cpp:120] Top shape: 1 10 (10)
I1024 20:35:26.954459 14846 net.cpp:120] Top shape: 14 21 (294)
I1024 20:35:26.954465 14846 layer_factory.hpp:74] Creating layer Belief_Propagation_Recurrent_Neural_Network_Scene1
I1024 20:35:26.954475 14846 net.cpp:84] Creating Layer Belief_Propagation_Recurrent_Neural_Network_Scene1
I1024 20:35:26.954480 14846 net.cpp:384] Belief_Propagation_Recurrent_Neural_Network_Scene1 <- scene_1
I1024 20:35:26.954493 14846 net.cpp:342] Belief_Propagation_Recurrent_Neural_Network_Scene1 -> scene_out1
I1024 20:35:26.954504 14846 net.cpp:113] Setting up Belief_Propagation_Recurrent_Neural_Network_Scene1
I1024 20:35:26.954515 14846 net.cpp:120] Top shape: 1 5 (5)
I1024 20:35:26.954524 14846 layer_factory.hpp:74] Creating layer scene_out1_Belief_Propagation_Recurrent_Neural_Network_Scene1_0_split
I1024 20:35:26.954531 14846 net.cpp:84] Creating Layer scene_out1_Belief_Propagation_Recurrent_Neural_Network_Scene1_0_split
I1024 20:35:26.954537 14846 net.cpp:384] scene_out1_Belief_Propagation_Recurrent_Neural_Network_Scene1_0_split <- scene_out1
I1024 20:35:26.954545 14846 net.cpp:342] scene_out1_Belief_Propagation_Recurrent_Neural_Network_Scene1_0_split -> scene_out1_Belief_Propagation_Recurrent_Neural_Network_Scene1_0_split_0
I1024 20:35:26.954552 14846 net.cpp:342] scene_out1_Belief_Propagation_Recurrent_Neural_Network_Scene1_0_split -> scene_out1_Belief_Propagation_Recurrent_Neural_Network_Scene1_0_split_1
I1024 20:35:26.954560 14846 net.cpp:342] scene_out1_Belief_Propagation_Recurrent_Neural_Network_Scene1_0_split -> scene_out1_Belief_Propagation_Recurrent_Neural_Network_Scene1_0_split_2
I1024 20:35:26.954568 14846 net.cpp:113] Setting up scene_out1_Belief_Propagation_Recurrent_Neural_Network_Scene1_0_split
I1024 20:35:26.954576 14846 net.cpp:120] Top shape: 1 5 (5)
I1024 20:35:26.954582 14846 net.cpp:120] Top shape: 1 5 (5)
I1024 20:35:26.954588 14846 net.cpp:120] Top shape: 1 5 (5)
I1024 20:35:26.954593 14846 layer_factory.hpp:74] Creating layer Belief_Propagation_Recurrent_Neural_Network_Action1
I1024 20:35:26.954602 14846 net.cpp:84] Creating Layer Belief_Propagation_Recurrent_Neural_Network_Action1
I1024 20:35:26.954607 14846 net.cpp:384] Belief_Propagation_Recurrent_Neural_Network_Action1 <- action_1
I1024 20:35:26.954614 14846 net.cpp:342] Belief_Propagation_Recurrent_Neural_Network_Action1 -> action_out1
I1024 20:35:26.954622 14846 net.cpp:113] Setting up Belief_Propagation_Recurrent_Neural_Network_Action1
I1024 20:35:26.954634 14846 net.cpp:120] Top shape: 14 7 (98)
I1024 20:35:26.954643 14846 layer_factory.hpp:74] Creating layer action_out1_Belief_Propagation_Recurrent_Neural_Network_Action1_0_split
I1024 20:35:26.954650 14846 net.cpp:84] Creating Layer action_out1_Belief_Propagation_Recurrent_Neural_Network_Action1_0_split
I1024 20:35:26.954655 14846 net.cpp:384] action_out1_Belief_Propagation_Recurrent_Neural_Network_Action1_0_split <- action_out1
I1024 20:35:26.954663 14846 net.cpp:342] action_out1_Belief_Propagation_Recurrent_Neural_Network_Action1_0_split -> action_out1_Belief_Propagation_Recurrent_Neural_Network_Action1_0_split_0
I1024 20:35:26.954670 14846 net.cpp:342] action_out1_Belief_Propagation_Recurrent_Neural_Network_Action1_0_split -> action_out1_Belief_Propagation_Recurrent_Neural_Network_Action1_0_split_1
I1024 20:35:26.954677 14846 net.cpp:113] Setting up action_out1_Belief_Propagation_Recurrent_Neural_Network_Action1_0_split
I1024 20:35:26.954685 14846 net.cpp:120] Top shape: 14 7 (98)
I1024 20:35:26.954691 14846 net.cpp:120] Top shape: 14 7 (98)
I1024 20:35:26.954696 14846 layer_factory.hpp:74] Creating layer Belief_Propagation_Recurrent_Neural_Network_message_reshape1
I1024 20:35:26.954721 14846 net.cpp:84] Creating Layer Belief_Propagation_Recurrent_Neural_Network_message_reshape1
I1024 20:35:26.954733 14846 net.cpp:384] Belief_Propagation_Recurrent_Neural_Network_message_reshape1 <- action_out1_Belief_Propagation_Recurrent_Neural_Network_Action1_0_split_0
I1024 20:35:26.954751 14846 net.cpp:342] Belief_Propagation_Recurrent_Neural_Network_message_reshape1 -> action_out_reshaped1
I1024 20:35:26.954759 14846 net.cpp:113] Setting up Belief_Propagation_Recurrent_Neural_Network_message_reshape1
I1024 20:35:26.954787 14846 net.cpp:120] Top shape: 1 98 (98)
I1024 20:35:26.954797 14846 layer_factory.hpp:74] Creating layer Belief_Propagation_Recurrent_Neural_Network_Normalize_Scene_1
I1024 20:35:26.954804 14846 net.cpp:84] Creating Layer Belief_Propagation_Recurrent_Neural_Network_Normalize_Scene_1
I1024 20:35:26.954810 14846 net.cpp:384] Belief_Propagation_Recurrent_Neural_Network_Normalize_Scene_1 <- scene_out1_Belief_Propagation_Recurrent_Neural_Network_Scene1_0_split_0
I1024 20:35:26.954818 14846 net.cpp:342] Belief_Propagation_Recurrent_Neural_Network_Normalize_Scene_1 -> scene_normalized_1
I1024 20:35:26.954825 14846 net.cpp:113] Setting up Belief_Propagation_Recurrent_Neural_Network_Normalize_Scene_1
I1024 20:35:26.954834 14846 net.cpp:120] Top shape: 1 5 (5)
I1024 20:35:26.954840 14846 layer_factory.hpp:74] Creating layer Belief_Propagation_Recurrent_Neural_Network_Normalize_Action_1
I1024 20:35:26.954846 14846 net.cpp:84] Creating Layer Belief_Propagation_Recurrent_Neural_Network_Normalize_Action_1
I1024 20:35:26.954852 14846 net.cpp:384] Belief_Propagation_Recurrent_Neural_Network_Normalize_Action_1 <- action_out1_Belief_Propagation_Recurrent_Neural_Network_Action1_0_split_1
I1024 20:35:26.954859 14846 net.cpp:342] Belief_Propagation_Recurrent_Neural_Network_Normalize_Action_1 -> action_normalized_1
I1024 20:35:26.954866 14846 net.cpp:113] Setting up Belief_Propagation_Recurrent_Neural_Network_Normalize_Action_1
I1024 20:35:26.954875 14846 net.cpp:120] Top shape: 14 7 (98)
I1024 20:35:26.954880 14846 layer_factory.hpp:74] Creating layer Belief_Propagation_Recurrent_Neural_Network_Data_arrange_layer_filter1
I1024 20:35:26.954903 14846 net.cpp:84] Creating Layer Belief_Propagation_Recurrent_Neural_Network_Data_arrange_layer_filter1
I1024 20:35:26.954912 14846 net.cpp:384] Belief_Propagation_Recurrent_Neural_Network_Data_arrange_layer_filter1 <- action_normalized_1
I1024 20:35:26.954920 14846 net.cpp:384] Belief_Propagation_Recurrent_Neural_Network_Data_arrange_layer_filter1 <- label_action_data_action_1_split_3
I1024 20:35:26.954927 14846 net.cpp:342] Belief_Propagation_Recurrent_Neural_Network_Data_arrange_layer_filter1 -> fc9_filtered1
I1024 20:35:26.954936 14846 net.cpp:113] Setting up Belief_Propagation_Recurrent_Neural_Network_Data_arrange_layer_filter1
I1024 20:35:26.954963 14846 net.cpp:120] Top shape: 1 98 (98)
I1024 20:35:26.954972 14846 layer_factory.hpp:74] Creating layer Belief_Propagation_Recurrent_Neural_Network_concatenation_s_a1
I1024 20:35:26.954980 14846 net.cpp:84] Creating Layer Belief_Propagation_Recurrent_Neural_Network_concatenation_s_a1
I1024 20:35:26.954987 14846 net.cpp:384] Belief_Propagation_Recurrent_Neural_Network_concatenation_s_a1 <- scene_normalized_1
I1024 20:35:26.954993 14846 net.cpp:384] Belief_Propagation_Recurrent_Neural_Network_concatenation_s_a1 <- fc9_filtered1
I1024 20:35:26.955000 14846 net.cpp:342] Belief_Propagation_Recurrent_Neural_Network_concatenation_s_a1 -> concat_all1
I1024 20:35:26.955008 14846 net.cpp:113] Setting up Belief_Propagation_Recurrent_Neural_Network_concatenation_s_a1
I1024 20:35:26.955016 14846 net.cpp:120] Top shape: 1 103 (103)
I1024 20:35:26.955023 14846 layer_factory.hpp:74] Creating layer Belief_Propagation_Recurrent_Neural_Network_message_reshape_pose1
I1024 20:35:26.955044 14846 net.cpp:84] Creating Layer Belief_Propagation_Recurrent_Neural_Network_message_reshape_pose1
I1024 20:35:26.955052 14846 net.cpp:384] Belief_Propagation_Recurrent_Neural_Network_message_reshape_pose1 <- fc8_CAD_pose
I1024 20:35:26.955060 14846 net.cpp:342] Belief_Propagation_Recurrent_Neural_Network_message_reshape_pose1 -> pose_out_reshaped1
I1024 20:35:26.955070 14846 net.cpp:113] Setting up Belief_Propagation_Recurrent_Neural_Network_message_reshape_pose1
I1024 20:35:26.955109 14846 net.cpp:120] Top shape: 1 252 (252)
I1024 20:35:26.955118 14846 layer_factory.hpp:74] Creating layer Data_arrange_layer_filter_mean_1
I1024 20:35:26.955142 14846 net.cpp:84] Creating Layer Data_arrange_layer_filter_mean_1
I1024 20:35:26.955149 14846 net.cpp:384] Data_arrange_layer_filter_mean_1 <- action_out_reshaped1
I1024 20:35:26.955157 14846 net.cpp:384] Data_arrange_layer_filter_mean_1 <- label_action_data_action_1_split_4
I1024 20:35:26.955164 14846 net.cpp:342] Data_arrange_layer_filter_mean_1 -> action_pred_clean_1
I1024 20:35:26.955173 14846 net.cpp:342] Data_arrange_layer_filter_mean_1 -> label_action_clean_1
I1024 20:35:26.955181 14846 net.cpp:113] Setting up Data_arrange_layer_filter_mean_1
I1024 20:35:26.955238 14846 net.cpp:120] Top shape: 1 7 (7)
I1024 20:35:26.955250 14846 net.cpp:120] Top shape: 1 (1)
I1024 20:35:26.955255 14846 layer_factory.hpp:74] Creating layer action_pred_clean_1_Data_arrange_layer_filter_mean_1_0_split
I1024 20:35:26.955263 14846 net.cpp:84] Creating Layer action_pred_clean_1_Data_arrange_layer_filter_mean_1_0_split
I1024 20:35:26.955268 14846 net.cpp:384] action_pred_clean_1_Data_arrange_layer_filter_mean_1_0_split <- action_pred_clean_1
I1024 20:35:26.955276 14846 net.cpp:342] action_pred_clean_1_Data_arrange_layer_filter_mean_1_0_split -> action_pred_clean_1_Data_arrange_layer_filter_mean_1_0_split_0
I1024 20:35:26.955286 14846 net.cpp:342] action_pred_clean_1_Data_arrange_layer_filter_mean_1_0_split -> action_pred_clean_1_Data_arrange_layer_filter_mean_1_0_split_1
I1024 20:35:26.955293 14846 net.cpp:113] Setting up action_pred_clean_1_Data_arrange_layer_filter_mean_1_0_split
I1024 20:35:26.955301 14846 net.cpp:120] Top shape: 1 7 (7)
I1024 20:35:26.955307 14846 net.cpp:120] Top shape: 1 7 (7)
I1024 20:35:26.955312 14846 layer_factory.hpp:74] Creating layer Data_arrange_layer_accu_1
I1024 20:35:26.955341 14846 net.cpp:84] Creating Layer Data_arrange_layer_accu_1
I1024 20:35:26.955350 14846 net.cpp:384] Data_arrange_layer_accu_1 <- action_pred_clean_1_Data_arrange_layer_filter_mean_1_0_split_0
I1024 20:35:26.955358 14846 net.cpp:384] Data_arrange_layer_accu_1 <- label_action_data_action_1_split_5
I1024 20:35:26.955365 14846 net.cpp:342] Data_arrange_layer_accu_1 -> action_pred_final_1
I1024 20:35:26.955374 14846 net.cpp:342] Data_arrange_layer_accu_1 -> label_action_accu_1
I1024 20:35:26.955381 14846 net.cpp:113] Setting up Data_arrange_layer_accu_1
I1024 20:35:26.955440 14846 net.cpp:120] Top shape: 1 7 (7)
I1024 20:35:26.955451 14846 net.cpp:120] Top shape: 1 1 (1)
I1024 20:35:26.955456 14846 layer_factory.hpp:74] Creating layer action_pred_final_1_Data_arrange_layer_accu_1_0_split
I1024 20:35:26.955464 14846 net.cpp:84] Creating Layer action_pred_final_1_Data_arrange_layer_accu_1_0_split
I1024 20:35:26.955471 14846 net.cpp:384] action_pred_final_1_Data_arrange_layer_accu_1_0_split <- action_pred_final_1
I1024 20:35:26.955477 14846 net.cpp:342] action_pred_final_1_Data_arrange_layer_accu_1_0_split -> action_pred_final_1_Data_arrange_layer_accu_1_0_split_0
I1024 20:35:26.955490 14846 net.cpp:342] action_pred_final_1_Data_arrange_layer_accu_1_0_split -> action_pred_final_1_Data_arrange_layer_accu_1_0_split_1
I1024 20:35:26.955499 14846 net.cpp:113] Setting up action_pred_final_1_Data_arrange_layer_accu_1_0_split
I1024 20:35:26.955507 14846 net.cpp:120] Top shape: 1 7 (7)
I1024 20:35:26.955513 14846 net.cpp:120] Top shape: 1 7 (7)
I1024 20:35:26.955518 14846 layer_factory.hpp:74] Creating layer label_action_accu_1_Data_arrange_layer_accu_1_1_split
I1024 20:35:26.955525 14846 net.cpp:84] Creating Layer label_action_accu_1_Data_arrange_layer_accu_1_1_split
I1024 20:35:26.955531 14846 net.cpp:384] label_action_accu_1_Data_arrange_layer_accu_1_1_split <- label_action_accu_1
I1024 20:35:26.955538 14846 net.cpp:342] label_action_accu_1_Data_arrange_layer_accu_1_1_split -> label_action_accu_1_Data_arrange_layer_accu_1_1_split_0
I1024 20:35:26.955546 14846 net.cpp:342] label_action_accu_1_Data_arrange_layer_accu_1_1_split -> label_action_accu_1_Data_arrange_layer_accu_1_1_split_1
I1024 20:35:26.955569 14846 net.cpp:113] Setting up label_action_accu_1_Data_arrange_layer_accu_1_1_split
I1024 20:35:26.955577 14846 net.cpp:120] Top shape: 1 1 (1)
I1024 20:35:26.955584 14846 net.cpp:120] Top shape: 1 1 (1)
I1024 20:35:26.955588 14846 layer_factory.hpp:74] Creating layer Data_arrange_layer_filter_pose_1
I1024 20:35:26.955616 14846 net.cpp:84] Creating Layer Data_arrange_layer_filter_pose_1
I1024 20:35:26.955626 14846 net.cpp:384] Data_arrange_layer_filter_pose_1 <- pose_out_reshaped1
I1024 20:35:26.955632 14846 net.cpp:384] Data_arrange_layer_filter_pose_1 <- label_action_data_action_1_split_6
I1024 20:35:26.955639 14846 net.cpp:384] Data_arrange_layer_filter_pose_1 <- label_pose_data_pose_1_split_0
I1024 20:35:26.955647 14846 net.cpp:342] Data_arrange_layer_filter_pose_1 -> pose_pred_clean_1
I1024 20:35:26.955657 14846 net.cpp:342] Data_arrange_layer_filter_pose_1 -> label_action_clean_1_trash
I1024 20:35:26.955665 14846 net.cpp:342] Data_arrange_layer_filter_pose_1 -> label_pose_clean_1
I1024 20:35:26.955672 14846 net.cpp:113] Setting up Data_arrange_layer_filter_pose_1
I1024 20:35:26.955730 14846 net.cpp:120] Top shape: 1 18 (18)
I1024 20:35:26.955742 14846 net.cpp:120] Top shape: 1 (1)
I1024 20:35:26.955749 14846 net.cpp:120] Top shape: 1 (1)
I1024 20:35:26.955754 14846 layer_factory.hpp:74] Creating layer pose_pred_clean_1_Data_arrange_layer_filter_pose_1_0_split
I1024 20:35:26.955761 14846 net.cpp:84] Creating Layer pose_pred_clean_1_Data_arrange_layer_filter_pose_1_0_split
I1024 20:35:26.955767 14846 net.cpp:384] pose_pred_clean_1_Data_arrange_layer_filter_pose_1_0_split <- pose_pred_clean_1
I1024 20:35:26.955775 14846 net.cpp:342] pose_pred_clean_1_Data_arrange_layer_filter_pose_1_0_split -> pose_pred_clean_1_Data_arrange_layer_filter_pose_1_0_split_0
I1024 20:35:26.955785 14846 net.cpp:342] pose_pred_clean_1_Data_arrange_layer_filter_pose_1_0_split -> pose_pred_clean_1_Data_arrange_layer_filter_pose_1_0_split_1
I1024 20:35:26.955792 14846 net.cpp:113] Setting up pose_pred_clean_1_Data_arrange_layer_filter_pose_1_0_split
I1024 20:35:26.955799 14846 net.cpp:120] Top shape: 1 18 (18)
I1024 20:35:26.955806 14846 net.cpp:120] Top shape: 1 18 (18)
I1024 20:35:26.955811 14846 layer_factory.hpp:74] Creating layer Data_arrange_layer_accu_pose_1
I1024 20:35:26.955835 14846 net.cpp:84] Creating Layer Data_arrange_layer_accu_pose_1
I1024 20:35:26.955844 14846 net.cpp:384] Data_arrange_layer_accu_pose_1 <- pose_pred_clean_1_Data_arrange_layer_filter_pose_1_0_split_0
I1024 20:35:26.955852 14846 net.cpp:384] Data_arrange_layer_accu_pose_1 <- label_action_data_action_1_split_7
I1024 20:35:26.955858 14846 net.cpp:384] Data_arrange_layer_accu_pose_1 <- label_pose_data_pose_1_split_1
I1024 20:35:26.955865 14846 net.cpp:342] Data_arrange_layer_accu_pose_1 -> pose_pred_final_1
I1024 20:35:26.955875 14846 net.cpp:342] Data_arrange_layer_accu_pose_1 -> label_action_accu_1_trash
I1024 20:35:26.955884 14846 net.cpp:342] Data_arrange_layer_accu_pose_1 -> label_pose_accu_1
I1024 20:35:26.955891 14846 net.cpp:113] Setting up Data_arrange_layer_accu_pose_1
I1024 20:35:26.955953 14846 net.cpp:120] Top shape: 1 18 (18)
I1024 20:35:26.955965 14846 net.cpp:120] Top shape: 1 1 (1)
I1024 20:35:26.955971 14846 net.cpp:120] Top shape: 1 1 (1)
I1024 20:35:26.955977 14846 layer_factory.hpp:74] Creating layer pose_pred_final_1_Data_arrange_layer_accu_pose_1_0_split
I1024 20:35:26.955986 14846 net.cpp:84] Creating Layer pose_pred_final_1_Data_arrange_layer_accu_pose_1_0_split
I1024 20:35:26.955991 14846 net.cpp:384] pose_pred_final_1_Data_arrange_layer_accu_pose_1_0_split <- pose_pred_final_1
I1024 20:35:26.955998 14846 net.cpp:342] pose_pred_final_1_Data_arrange_layer_accu_pose_1_0_split -> pose_pred_final_1_Data_arrange_layer_accu_pose_1_0_split_0
I1024 20:35:26.956007 14846 net.cpp:342] pose_pred_final_1_Data_arrange_layer_accu_pose_1_0_split -> pose_pred_final_1_Data_arrange_layer_accu_pose_1_0_split_1
I1024 20:35:26.956018 14846 net.cpp:113] Setting up pose_pred_final_1_Data_arrange_layer_accu_pose_1_0_split
I1024 20:35:26.956034 14846 net.cpp:120] Top shape: 1 18 (18)
I1024 20:35:26.956042 14846 net.cpp:120] Top shape: 1 18 (18)
I1024 20:35:26.956046 14846 layer_factory.hpp:74] Creating layer label_pose_accu_1_Data_arrange_layer_accu_pose_1_2_split
I1024 20:35:26.956053 14846 net.cpp:84] Creating Layer label_pose_accu_1_Data_arrange_layer_accu_pose_1_2_split
I1024 20:35:26.956059 14846 net.cpp:384] label_pose_accu_1_Data_arrange_layer_accu_pose_1_2_split <- label_pose_accu_1
I1024 20:35:26.956066 14846 net.cpp:342] label_pose_accu_1_Data_arrange_layer_accu_pose_1_2_split -> label_pose_accu_1_Data_arrange_layer_accu_pose_1_2_split_0
I1024 20:35:26.956074 14846 net.cpp:342] label_pose_accu_1_Data_arrange_layer_accu_pose_1_2_split -> label_pose_accu_1_Data_arrange_layer_accu_pose_1_2_split_1
I1024 20:35:26.956082 14846 net.cpp:113] Setting up label_pose_accu_1_Data_arrange_layer_accu_pose_1_2_split
I1024 20:35:26.956089 14846 net.cpp:120] Top shape: 1 1 (1)
I1024 20:35:26.956095 14846 net.cpp:120] Top shape: 1 1 (1)
I1024 20:35:26.956101 14846 layer_factory.hpp:74] Creating layer scene_accuracy_arrange_1
I1024 20:35:26.956125 14846 net.cpp:84] Creating Layer scene_accuracy_arrange_1
I1024 20:35:26.956135 14846 net.cpp:384] scene_accuracy_arrange_1 <- scene_out1_Belief_Propagation_Recurrent_Neural_Network_Scene1_0_split_1
I1024 20:35:26.956142 14846 net.cpp:342] scene_accuracy_arrange_1 -> scene_pred_final_1
I1024 20:35:26.956151 14846 net.cpp:113] Setting up scene_accuracy_arrange_1
I1024 20:35:26.956178 14846 net.cpp:120] Top shape: 1 5 (5)
I1024 20:35:26.956187 14846 layer_factory.hpp:74] Creating layer scene_pred_final_1_scene_accuracy_arrange_1_0_split
I1024 20:35:26.956194 14846 net.cpp:84] Creating Layer scene_pred_final_1_scene_accuracy_arrange_1_0_split
I1024 20:35:26.956200 14846 net.cpp:384] scene_pred_final_1_scene_accuracy_arrange_1_0_split <- scene_pred_final_1
I1024 20:35:26.956208 14846 net.cpp:342] scene_pred_final_1_scene_accuracy_arrange_1_0_split -> scene_pred_final_1_scene_accuracy_arrange_1_0_split_0
I1024 20:35:26.956217 14846 net.cpp:342] scene_pred_final_1_scene_accuracy_arrange_1_0_split -> scene_pred_final_1_scene_accuracy_arrange_1_0_split_1
I1024 20:35:26.956224 14846 net.cpp:113] Setting up scene_pred_final_1_scene_accuracy_arrange_1_0_split
I1024 20:35:26.956231 14846 net.cpp:120] Top shape: 1 5 (5)
I1024 20:35:26.956238 14846 net.cpp:120] Top shape: 1 5 (5)
I1024 20:35:26.956243 14846 layer_factory.hpp:74] Creating layer scene_loss_arrange_1
I1024 20:35:26.956266 14846 net.cpp:84] Creating Layer scene_loss_arrange_1
I1024 20:35:26.956275 14846 net.cpp:384] scene_loss_arrange_1 <- scene_out1_Belief_Propagation_Recurrent_Neural_Network_Scene1_0_split_2
I1024 20:35:26.956282 14846 net.cpp:384] scene_loss_arrange_1 <- label_frame_data_frame_1_split_0
I1024 20:35:26.956290 14846 net.cpp:342] scene_loss_arrange_1 -> scene_pred_all_1
I1024 20:35:26.956298 14846 net.cpp:342] scene_loss_arrange_1 -> scene_label_all_1
I1024 20:35:26.956306 14846 net.cpp:113] Setting up scene_loss_arrange_1
I1024 20:35:26.956336 14846 net.cpp:120] Top shape: 1 5 (5)
I1024 20:35:26.956344 14846 net.cpp:120] Top shape: 1 1 (1)
I1024 20:35:26.956351 14846 layer_factory.hpp:74] Creating layer silence_layer
I1024 20:35:26.956374 14846 net.cpp:84] Creating Layer silence_layer
I1024 20:35:26.956382 14846 net.cpp:384] silence_layer <- label_frame_data_frame_1_split_1
I1024 20:35:26.956389 14846 net.cpp:384] silence_layer <- concat_all1
I1024 20:35:26.956396 14846 net.cpp:384] silence_layer <- scene_pred_final_1_scene_accuracy_arrange_1_0_split_0
…
