…
I0922 13:37:07.637184 15092 net.cpp:261] The NetState phase (0) differed from the phase (1) specified by a rule in layer accuracy_pose
I0922 13:37:07.638805 15092 net.cpp:42] Initializing net from parameters: 
name: "CaffeNet"
force_backward: true
state {
  phase: TRAIN
}
layer {
  name: "data_action"
  type: "Data"
  top: "data_action"
  top: "label_action"
  include {
    phase: TRAIN
  }
  transform_param {
    mirror: false
    crop_size: 227
    mean_file: "imagenet_mean.binaryproto"
  }
  data_param {
    source: "/cs/vml2/zhiweid/CVPR16_NEW/bp-rnn/experiments/0419_context/CAD_train_lmdb_0419_context"
    batch_size: 70
    backend: LMDB
  }
}
layer {
  name: "conv1_action"
  type: "Convolution"
  bottom: "data_action"
  top: "conv1_action"
  param {
    lr_mult: 0
    decay_mult: 0
  }
  param {
    lr_mult: 0
    decay_mult: 0
  }
  convolution_param {
    num_output: 96
    kernel_size: 11
    stride: 4
    weight_filler {
      type: "gaussian"
      std: 0.01
    }
    bias_filler {
      type: "constant"
      value: 0
    }
  }
}
layer {
  name: "relu1_action"
  type: "ReLU"
  bottom: "conv1_action"
  top: "conv1_action"
}
layer {
  name: "pool1_action"
  type: "Pooling"
  bottom: "conv1_action"
  top: "pool1_action"
  pooling_param {
    pool: MAX
    kernel_size: 3
    stride: 2
  }
}
layer {
  name: "norm1_action"
  type: "LRN"
  bottom: "pool1_action"
  top: "norm1_action"
  lrn_param {
    local_size: 5
    alpha: 0.0001
    beta: 0.75
  }
}
layer {
  name: "conv2_action"
  type: "Convolution"
  bottom: "norm1_action"
  top: "conv2_action"
  param {
    lr_mult: 0
    decay_mult: 0
  }
  param {
    lr_mult: 0
    decay_mult: 0
  }
  convolution_param {
    num_output: 256
    pad: 2
    kernel_size: 5
    group: 2
    weight_filler {
      type: "gaussian"
      std: 0.01
    }
    bias_filler {
      type: "constant"
      value: 1
    }
  }
}
layer {
  name: "relu2_action"
  type: "ReLU"
  bottom: "conv2_action"
  top: "conv2_action"
}
layer {
  name: "pool2_action"
  type: "Pooling"
  bottom: "conv2_action"
  top: "pool2_action"
  pooling_param {
    pool: MAX
    kernel_size: 3
    stride: 2
  }
}
layer {
  name: "norm2_action"
  type: "LRN"
  bottom: "pool2_action"
  top: "norm2_action"
  lrn_param {
    local_size: 5
    alpha: 0.0001
    beta: 0.75
  }
}
layer {
  name: "conv3_action"
  type: "Convolution"
  bottom: "norm2_action"
  top: "conv3_action"
  param {
    lr_mult: 0
    decay_mult: 0
  }
  param {
    lr_mult: 0
    decay_mult: 0
  }
  convolution_param {
    num_output: 384
    pad: 1
    kernel_size: 3
    weight_filler {
      type: "gaussian"
      std: 0.01
    }
    bias_filler {
      type: "constant"
      value: 0
    }
  }
}
layer {
  name: "relu3_action"
  type: "ReLU"
  bottom: "conv3_action"
  top: "conv3_action"
}
layer {
  name: "conv4_action"
  type: "Convolution"
  bottom: "conv3_action"
  top: "conv4_action"
  param {
    lr_mult: 0
    decay_mult: 0
  }
  param {
    lr_mult: 0
    decay_mult: 0
  }
  convolution_param {
    num_output: 384
    pad: 1
    kernel_size: 3
    group: 2
    weight_filler {
      type: "gaussian"
      std: 0.01
    }
    bias_filler {
      type: "constant"
      value: 1
    }
  }
}
layer {
  name: "relu4_action"
  type: "ReLU"
  bottom: "conv4_action"
  top: "conv4_action"
}
layer {
  name: "conv5_action"
  type: "Convolution"
  bottom: "conv4_action"
  top: "conv5_action"
  param {
    lr_mult: 0
    decay_mult: 0
  }
  param {
    lr_mult: 0
    decay_mult: 0
  }
  convolution_param {
    num_output: 256
    pad: 1
    kernel_size: 3
    group: 2
    weight_filler {
      type: "gaussian"
      std: 0.01
    }
    bias_filler {
      type: "constant"
      value: 1
    }
  }
}
layer {
  name: "relu5_action"
  type: "ReLU"
  bottom: "conv5_action"
  top: "conv5_action"
}
layer {
  name: "pool5_action"
  type: "Pooling"
  bottom: "conv5_action"
  top: "pool5_action"
  pooling_param {
    pool: MAX
    kernel_size: 3
    stride: 2
  }
}
layer {
  name: "fc6_action"
  type: "InnerProduct"
  bottom: "pool5_action"
  top: "fc6_action"
  param {
    lr_mult: 0
    decay_mult: 0
  }
  param {
    lr_mult: 0
    decay_mult: 0
  }
  inner_product_param {
    num_output: 4096
    weight_filler {
      type: "gaussian"
      std: 0.005
    }
    bias_filler {
      type: "constant"
      value: 1
    }
  }
}
layer {
  name: "relu6_action"
  type: "ReLU"
  bottom: "fc6_action"
  top: "fc6_action"
}
layer {
  name: "drop6_action"
  type: "Dropout"
  bottom: "fc6_action"
  top: "fc6_action"
  dropout_param {
    dropout_ratio: 0.5
  }
}
layer {
  name: "fc7_action"
  type: "InnerProduct"
  bottom: "fc6_action"
  top: "fc7_action"
  param {
    lr_mult: 0
    decay_mult: 0
  }
  param {
    lr_mult: 0
    decay_mult: 0
  }
  inner_product_param {
    num_output: 4096
    weight_filler {
      type: "gaussian"
      std: 0.005
    }
    bias_filler {
      type: "constant"
      value: 1
    }
  }
}
layer {
  name: "relu7_action"
  type: "ReLU"
  bottom: "fc7_action"
  top: "fc7_action"
}
layer {
  name: "drop7_action"
  type: "Dropout"
  bottom: "fc7_action"
  top: "fc7_action"
  dropout_param {
    dropout_ratio: 0.5
  }
}
layer {
  name: "fc8_CAD_action"
  type: "InnerProduct"
  bottom: "fc7_action"
  top: "fc8_CAD_action_unnorm"
  param {
    lr_mult: 0
    decay_mult: 0
  }
  param {
    lr_mult: 0
    decay_mult: 0
  }
  inner_product_param {
    num_output: 7
    weight_filler {
      type: "gaussian"
      std: 0.01
    }
    bias_filler {
      type: "constant"
      value: 1
    }
  }
}
layer {
  name: "prob_action_cad"
  type: "Softmax"
  bottom: "fc8_CAD_action_unnorm"
  top: "fc8_CAD_action"
}
layer {
  name: "data_pose"
  type: "Data"
  top: "data_pose"
  top: "label_pose"
  include {
    phase: TRAIN
  }
  transform_param {
    mirror: true
    crop_size: 227
    mean_file: "imagenet_mean.binaryproto"
  }
  data_param {
    source: "/cs/vml2/zhiweid/CVPR16_NEW/bp-rnn/experiments/0419_context/CAD_train_lmdb_0419_context"
    batch_size: 70
    backend: LMDB
  }
}
layer {
  name: "conv1_pose"
  type: "Convolution"
  bottom: "data_pose"
  top: "conv1_pose"
  param {
    lr_mult: 0
    decay_mult: 0
  }
  param {
    lr_mult: 0
    decay_mult: 0
  }
  convolution_param {
    num_output: 96
    kernel_size: 11
    stride: 4
    weight_filler {
      type: "gaussian"
      std: 0.01
    }
    bias_filler {
      type: "constant"
      value: 0
    }
  }
}
layer {
  name: "relu1_pose"
  type: "ReLU"
  bottom: "conv1_pose"
  top: "conv1_pose"
}
layer {
  name: "pool1_pose"
  type: "Pooling"
  bottom: "conv1_pose"
  top: "pool1_pose"
  pooling_param {
    pool: MAX
    kernel_size: 3
    stride: 2
  }
}
layer {
  name: "norm1_pose"
  type: "LRN"
  bottom: "pool1_pose"
  top: "norm1_pose"
  lrn_param {
    local_size: 5
    alpha: 0.0001
    beta: 0.75
  }
}
layer {
  name: "conv2_pose"
  type: "Convolution"
  bottom: "norm1_pose"
  top: "conv2_pose"
  param {
    lr_mult: 0
    decay_mult: 0
  }
  param {
    lr_mult: 0
    decay_mult: 0
  }
  convolution_param {
    num_output: 256
    pad: 2
    kernel_size: 5
    group: 2
    weight_filler {
      type: "gaussian"
      std: 0.01
    }
    bias_filler {
      type: "constant"
      value: 1
    }
  }
}
layer {
  name: "relu2_pose"
  type: "ReLU"
  bottom: "conv2_pose"
  top: "conv2_pose"
}
layer {
  name: "pool2_pose"
  type: "Pooling"
  bottom: "conv2_pose"
  top: "pool2_pose"
  pooling_param {
    pool: MAX
    kernel_size: 3
    stride: 2
  }
}
layer {
  name: "norm2_pose"
  type: "LRN"
  bottom: "pool2_pose"
  top: "norm2_pose"
  lrn_param {
    local_size: 5
    alpha: 0.0001
    beta: 0.75
  }
}
layer {
  name: "conv3_pose"
  type: "Convolution"
  bottom: "norm2_pose"
  top: "conv3_pose"
  param {
    lr_mult: 0
    decay_mult: 0
  }
  param {
    lr_mult: 0
    decay_mult: 0
  }
  convolution_param {
    num_output: 384
    pad: 1
    kernel_size: 3
    weight_filler {
      type: "gaussian"
      std: 0.01
    }
    bias_filler {
      type: "constant"
      value: 0
    }
  }
}
layer {
  name: "relu3_pose"
  type: "ReLU"
  bottom: "conv3_pose"
  top: "conv3_pose"
}
layer {
  name: "conv4_pose"
  type: "Convolution"
  bottom: "conv3_pose"
  top: "conv4_pose"
  param {
    lr_mult: 0
    decay_mult: 0
  }
  param {
    lr_mult: 0
    decay_mult: 0
  }
  convolution_param {
    num_output: 384
    pad: 1
    kernel_size: 3
    group: 2
    weight_filler {
      type: "gaussian"
      std: 0.01
    }
    bias_filler {
      type: "constant"
      value: 1
    }
  }
}
layer {
  name: "relu4_pose"
  type: "ReLU"
  bottom: "conv4_pose"
  top: "conv4_pose"
}
layer {
  name: "conv5_pose"
  type: "Convolution"
  bottom: "conv4_pose"
  top: "conv5_pose"
  param {
    lr_mult: 0
    decay_mult: 0
  }
  param {
    lr_mult: 0
    decay_mult: 0
  }
  convolution_param {
    num_output: 256
    pad: 1
    kernel_size: 3
    group: 2
    weight_filler {
      type: "gaussian"
      std: 0.01
    }
    bias_filler {
      type: "constant"
      value: 1
    }
  }
}
layer {
  name: "relu5_pose"
  type: "ReLU"
  bottom: "conv5_pose"
  top: "conv5_pose"
}
layer {
  name: "pool5_pose"
  type: "Pooling"
  bottom: "conv5_pose"
  top: "pool5_pose"
  pooling_param {
    pool: MAX
    kernel_size: 3
    stride: 2
  }
}
layer {
  name: "fc6_pose"
  type: "InnerProduct"
  bottom: "pool5_pose"
  top: "fc6_pose"
  param {
    lr_mult: 0
    decay_mult: 0
  }
  param {
    lr_mult: 0
    decay_mult: 0
  }
  inner_product_param {
    num_output: 4096
    weight_filler {
      type: "gaussian"
      std: 0.005
    }
    bias_filler {
      type: "constant"
      value: 1
    }
  }
}
layer {
  name: "relu6_pose"
  type: "ReLU"
  bottom: "fc6_pose"
  top: "fc6_pose"
}
layer {
  name: "drop6_pose"
  type: "Dropout"
  bottom: "fc6_pose"
  top: "fc6_pose"
  dropout_param {
    dropout_ratio: 0.5
  }
}
layer {
  name: "fc7_pose"
  type: "InnerProduct"
  bottom: "fc6_pose"
  top: "fc7_pose"
  param {
    lr_mult: 0
    decay_mult: 0
  }
  param {
    lr_mult: 0
    decay_mult: 0
  }
  inner_product_param {
    num_output: 4096
    weight_filler {
      type: "gaussian"
      std: 0.005
    }
    bias_filler {
      type: "constant"
      value: 1
    }
  }
}
layer {
  name: "relu7_pose"
  type: "ReLU"
  bottom: "fc7_pose"
  top: "fc7_pose"
}
layer {
  name: "drop7_pose"
  type: "Dropout"
  bottom: "fc7_pose"
  top: "fc7_pose"
  dropout_param {
    dropout_ratio: 0.4
  }
}
layer {
  name: "fc8_CAD_pose"
  type: "InnerProduct"
  bottom: "fc7_pose"
  top: "fc8_CAD_pose"
  param {
    lr_mult: 0
    decay_mult: 0
  }
  param {
    lr_mult: 0
    decay_mult: 0
  }
  inner_product_param {
    num_output: 8
    bias_term: true
    weight_filler {
      type: "gaussian"
      std: 0.01
    }
  }
}
layer {
  name: "data_frame"
  type: "Data"
  top: "data_frame"
  top: "label_frame"
  include {
    phase: TRAIN
  }
  transform_param {
    mirror: true
    crop_size: 227
    mean_file: "imagenet_mean.binaryproto"
  }
  data_param {
    source: "/cs/vml2/zhiweid/CVPR16_NEW/bp-rnn/experiments/0419_context/CAD_train_lmdb_0419_frame_context"
    batch_size: 5
    backend: LMDB
  }
}
layer {
  name: "conv1_frame"
  type: "Convolution"
  bottom: "data_frame"
  top: "conv1_frame"
  param {
    lr_mult: 0
    decay_mult: 0
  }
  param {
    lr_mult: 0
    decay_mult: 0
  }
  convolution_param {
    num_output: 96
    kernel_size: 11
    stride: 4
    weight_filler {
      type: "gaussian"
      std: 0.01
    }
    bias_filler {
      type: "constant"
      value: 0
    }
  }
}
layer {
  name: "relu1_frame"
  type: "ReLU"
  bottom: "conv1_frame"
  top: "conv1_frame"
}
layer {
  name: "pool1_frame"
  type: "Pooling"
  bottom: "conv1_frame"
  top: "pool1_frame"
  pooling_param {
    pool: MAX
    kernel_size: 3
    stride: 2
  }
}
layer {
  name: "norm1_frame"
  type: "LRN"
  bottom: "pool1_frame"
  top: "norm1_frame"
  lrn_param {
    local_size: 5
    alpha: 0.0001
    beta: 0.75
  }
}
layer {
  name: "conv2_frame"
  type: "Convolution"
  bottom: "norm1_frame"
  top: "conv2_frame"
  param {
    lr_mult: 0
    decay_mult: 0
  }
  param {
    lr_mult: 0
    decay_mult: 0
  }
  convolution_param {
    num_output: 256
    pad: 2
    kernel_size: 5
    group: 2
    weight_filler {
      type: "gaussian"
      std: 0.01
    }
    bias_filler {
      type: "constant"
      value: 1
    }
  }
}
layer {
  name: "relu2_frame"
  type: "ReLU"
  bottom: "conv2_frame"
  top: "conv2_frame"
}
layer {
  name: "pool2_frame"
  type: "Pooling"
  bottom: "conv2_frame"
  top: "pool2_frame"
  pooling_param {
    pool: MAX
    kernel_size: 3
    stride: 2
  }
}
layer {
  name: "norm2_frame"
  type: "LRN"
  bottom: "pool2_frame"
  top: "norm2_frame"
  lrn_param {
    local_size: 5
    alpha: 0.0001
    beta: 0.75
  }
}
layer {
  name: "conv3_frame"
  type: "Convolution"
  bottom: "norm2_frame"
  top: "conv3_frame"
  param {
    lr_mult: 0
    decay_mult: 0
  }
  param {
    lr_mult: 0
    decay_mult: 0
  }
  convolution_param {
    num_output: 384
    pad: 1
    kernel_size: 3
    weight_filler {
      type: "gaussian"
      std: 0.01
    }
    bias_filler {
      type: "constant"
      value: 0
    }
  }
}
layer {
  name: "relu3_frame"
  type: "ReLU"
  bottom: "conv3_frame"
  top: "conv3_frame"
}
layer {
  name: "conv4_frame"
  type: "Convolution"
  bottom: "conv3_frame"
  top: "conv4_frame"
  param {
    lr_mult: 0
    decay_mult: 0
  }
  param {
    lr_mult: 0
    decay_mult: 0
  }
  convolution_param {
    num_output: 384
    pad: 1
    kernel_size: 3
    group: 2
    weight_filler {
      type: "gaussian"
      std: 0.01
    }
    bias_filler {
      type: "constant"
      value: 1
    }
  }
}
layer {
  name: "relu4_frame"
  type: "ReLU"
  bottom: "conv4_frame"
  top: "conv4_frame"
}
layer {
  name: "conv5_frame"
  type: "Convolution"
  bottom: "conv4_frame"
  top: "conv5_frame"
  param {
    lr_mult: 0
    decay_mult: 0
  }
  param {
    lr_mult: 0
    decay_mult: 0
  }
  convolution_param {
    num_output: 256
    pad: 1
    kernel_size: 3
    group: 2
    weight_filler {
      type: "gaussian"
      std: 0.01
    }
    bias_filler {
      type: "constant"
      value: 1
    }
  }
}
layer {
  name: "relu5_frame"
  type: "ReLU"
  bottom: "conv5_frame"
  top: "conv5_frame"
}
layer {
  name: "pool5_frame"
  type: "Pooling"
  bottom: "conv5_frame"
  top: "pool5_frame"
  pooling_param {
    pool: MAX
    kernel_size: 3
    stride: 2
  }
}
layer {
  name: "fc6_frame"
  type: "InnerProduct"
  bottom: "pool5_frame"
  top: "fc6_frame"
  param {
    lr_mult: 0
    decay_mult: 0
  }
  param {
    lr_mult: 0
    decay_mult: 0
  }
  inner_product_param {
    num_output: 4096
    weight_filler {
      type: "gaussian"
      std: 0.005
    }
    bias_filler {
      type: "constant"
      value: 1
    }
  }
}
layer {
  name: "relu6_frame"
  type: "ReLU"
  bottom: "fc6_frame"
  top: "fc6_frame"
}
layer {
  name: "drop6_frame"
  type: "Dropout"
  bottom: "fc6_frame"
  top: "fc6_frame"
  dropout_param {
    dropout_ratio: 0.5
  }
}
layer {
  name: "fc7_frame"
  type: "InnerProduct"
  bottom: "fc6_frame"
  top: "fc7_frame"
  param {
    lr_mult: 0
    decay_mult: 0
  }
  param {
    lr_mult: 0
    decay_mult: 0
  }
  inner_product_param {
    num_output: 4096
    weight_filler {
      type: "gaussian"
      std: 0.005
    }
    bias_filler {
      type: "constant"
      value: 1
    }
  }
}
layer {
  name: "relu7_frame"
  type: "ReLU"
  bottom: "fc7_frame"
  top: "fc7_frame"
}
layer {
  name: "drop7_frame"
  type: "Dropout"
  bottom: "fc7_frame"
  top: "fc7_frame"
  dropout_param {
    dropout_ratio: 0.5
  }
}
layer {
  name: "fc8_CAD_frame"
  type: "InnerProduct"
  bottom: "fc7_frame"
  top: "fc8_CAD_frame"
  param {
    lr_mult: 0
    decay_mult: 0
  }
  inner_product_param {
    num_output: 5
    bias_term: true
    weight_filler {
      type: "gaussian"
      std: 0.01
    }
  }
}
layer {
  name: "prob_frame"
  type: "Softmax"
  bottom: "fc8_CAD_frame"
  top: "fc8_CAD_frame_prob"
}
layer {
  name: "prob_action"
  type: "Softmax"
  bottom: "fc8_CAD_action"
  top: "fc8_CAD_prob"
}
layer {
  name: "prob_pose"
  type: "Softmax"
  bottom: "fc8_CAD_pose"
  top: "fc8_CAD_pose_prob"
}
layer {
  name: "concatenation_a_p"
  type: "Concat"
  bottom: "fc8_CAD_prob"
  bottom: "fc8_CAD_pose_prob"
  top: "concat_action_pose"
  concat_param {
    concat_dim: 1
  }
}
layer {
  name: "fc9"
  type: "InnerProduct"
  bottom: "concat_action_pose"
  top: "fc9_unnorm"
  param {
    lr_mult: 10
    decay_mult: 10
  }
  param {
    lr_mult: 20
    decay_mult: 0
  }
  inner_product_param {
    num_output: 40
    weight_filler {
      type: "gaussian"
      std: 0.005
    }
    bias_filler {
      type: "constant"
      value: 1
    }
  }
}
layer {
  name: "prob_action_pose"
  type: "Softmax"
  bottom: "fc9_unnorm"
  top: "fc9"
}
layer {
  name: "Data_arrange_layer_filter"
  type: "Python"
  bottom: "fc8_CAD_action"
  bottom: "label_action"
  bottom: "fc9"
  top: "fc9_filtered"
  python_param {
    module: "Data_arrange"
    layer: "Data_Arrange_Layer"
  }
}
layer {
  name: "concatenation_s_a_p"
  type: "Concat"
  bottom: "fc8_CAD_frame_prob"
  bottom: "fc9_filtered"
  top: "concat_all"
  concat_param {
    concat_dim: 1
  }
}
layer {
  name: "Data_arrange_layer_init_message"
  type: "Python"
  bottom: "concat_all"
  bottom: "label_action"
  top: "Initial_Messages"
  python_param {
    module: "Initialize_Message"
    layer: "Initial_Message"
  }
}
layer {
  name: "Belief_Propagation_Recurrent_Neural_Network"
  type: "BP_RNN"
  bottom: "Initial_Messages"
  bottom: "concat_all"
  bottom: "label_action"
  bottom: "fc8_CAD_frame"
  bottom: "concat_all"
  top: "action_pred"
  top: "scene_pred"
  param {
    lr_mult: 10
    decay_mult: 10
  }
  param {
    lr_mult: 20
    decay_mult: 0
  }
  bp_recurrent_param {
    num_output: 1000
    weight_filler {
      type: "uniform"
      min: -0.08
      max: 0.08
    }
    bias_filler {
      type: "constant"
      value: 0
    }
    num_iteration: 6
    num_frame: 0
    num_people: 14
    scene_class: 5
    action_class: 7
  }
}
layer {
  name: "Data_arrange_layer_filter_mean"
  type: "Python"
  bottom: "action_pred"
  bottom: "label_action"
  top: "action_pred_clean"
  top: "label_action_clean"
  python_param {
    module: "Data_Arrange_Loss_Action"
    layer: "Data_Arrange_Layer"
  }
}
layer {
  name: "Data_arrange_layer_accu"
  type: "Python"
  bottom: "action_pred_clean"
  bottom: "label_action"
  top: "action_pred_final"
  top: "label_action_accu"
  python_param {
    module: "Data_Arrange_Accuracy_Action"
    layer: "Data_Arrange_Layer"
  }
}
layer {
  name: "scene_accuracy_arrange"
  type: "Python"
  bottom: "scene_pred"
  top: "scene_pred_final"
  python_param {
    module: "Data_Arrange_Accuracy_Scene"
    layer: "Data_Arrange_Layer"
  }
}
layer {
  name: "scene_loss_arrange"
  type: "Python"
  bottom: "scene_pred"
  bottom: "label_frame"
  bottom: "fc8_CAD_frame"
  top: "scene_pred_all"
  top: "scene_label_all"
  python_param {
    module: "Data_Arrange_Loss_Scene"
    layer: "Data_Arrange_Layer"
  }
}
layer {
  name: "silence_layer"
  type: "Python"
  bottom: "scene_pred_final"
  bottom: "label_frame"
  bottom: "label_action_accu"
  bottom: "scene_pred_all"
  bottom: "action_pred_clean"
  bottom: "action_pred"
  bottom: "action_pred_final"
  python_param {
    module: "Silence"
    layer: "Silence_Layer"
  }
}
layer {
  name: "loss_scene"
  type: "SoftmaxWithLoss"
  bottom: "scene_pred_all"
  bottom: "scene_label_all"
  top: "loss_scene"
}
layer {
  name: "loss_action"
  type: "SoftmaxWithLoss"
  bottom: "action_pred_clean"
  bottom: "label_action_clean"
  top: "loss_action"
}
layer {
  name: "loss_pose"
  type: "SoftmaxWithLoss"
  bottom: "fc8_CAD_pose"
  bottom: "label_pose"
  top: "loss_pose"
}
I0922 13:37:07.639642 15092 layer_factory.hpp:74] Creating layer data_action
I0922 13:37:07.639677 15092 net.cpp:84] Creating Layer data_action
I0922 13:37:07.639693 15092 net.cpp:342] data_action -> data_action
I0922 13:37:07.639745 15092 net.cpp:342] data_action -> label_action
I0922 13:37:07.639763 15092 net.cpp:113] Setting up data_action
I0922 13:37:07.647549 15092 db.cpp:34] Opened lmdb /cs/vml2/zhiweid/CVPR16_NEW/bp-rnn/experiments/0419_context/CAD_train_lmdb_0419_context
I0922 13:37:07.648178 15092 data_layer.cpp:67] output data size: 70,3,227,227
I0922 13:37:07.648205 15092 data_transformer.cpp:22] Loading mean file from: imagenet_mean.binaryproto
I0922 13:37:07.662607 15092 net.cpp:120] Top shape: 70 3 227 227 (10821090)
I0922 13:37:07.662626 15092 net.cpp:120] Top shape: 70 (70)
I0922 13:37:07.662633 15092 layer_factory.hpp:74] Creating layer label_action_data_action_1_split
I0922 13:37:07.662645 15092 net.cpp:84] Creating Layer label_action_data_action_1_split
I0922 13:37:07.662650 15092 net.cpp:384] label_action_data_action_1_split <- label_action
I0922 13:37:07.662662 15092 net.cpp:342] label_action_data_action_1_split -> label_action_data_action_1_split_0
I0922 13:37:07.662674 15092 net.cpp:342] label_action_data_action_1_split -> label_action_data_action_1_split_1
I0922 13:37:07.662683 15092 net.cpp:342] label_action_data_action_1_split -> label_action_data_action_1_split_2
I0922 13:37:07.662689 15092 net.cpp:342] label_action_data_action_1_split -> label_action_data_action_1_split_3
I0922 13:37:07.662695 15092 net.cpp:342] label_action_data_action_1_split -> label_action_data_action_1_split_4
I0922 13:37:07.662701 15092 net.cpp:113] Setting up label_action_data_action_1_split
I0922 13:37:07.662710 15092 net.cpp:120] Top shape: 70 (70)
I0922 13:37:07.662715 15092 net.cpp:120] Top shape: 70 (70)
I0922 13:37:07.662720 15092 net.cpp:120] Top shape: 70 (70)
I0922 13:37:07.662725 15092 net.cpp:120] Top shape: 70 (70)
I0922 13:37:07.662730 15092 net.cpp:120] Top shape: 70 (70)
I0922 13:37:07.662734 15092 layer_factory.hpp:74] Creating layer conv1_action
I0922 13:37:07.662745 15092 net.cpp:84] Creating Layer conv1_action
I0922 13:37:07.662750 15092 net.cpp:384] conv1_action <- data_action
I0922 13:37:07.662756 15092 net.cpp:342] conv1_action -> conv1_action
I0922 13:37:07.662765 15092 net.cpp:113] Setting up conv1_action
I0922 13:37:07.663269 15092 net.cpp:120] Top shape: 70 96 55 55 (20328000)
I0922 13:37:07.663291 15092 layer_factory.hpp:74] Creating layer relu1_action
I0922 13:37:07.663301 15092 net.cpp:84] Creating Layer relu1_action
I0922 13:37:07.663307 15092 net.cpp:384] relu1_action <- conv1_action
I0922 13:37:07.663314 15092 net.cpp:331] relu1_action -> conv1_action (in-place)
I0922 13:37:07.663322 15092 net.cpp:113] Setting up relu1_action
I0922 13:37:07.663328 15092 net.cpp:120] Top shape: 70 96 55 55 (20328000)
I0922 13:37:07.663332 15092 layer_factory.hpp:74] Creating layer pool1_action
I0922 13:37:07.663342 15092 net.cpp:84] Creating Layer pool1_action
I0922 13:37:07.663347 15092 net.cpp:384] pool1_action <- conv1_action
I0922 13:37:07.663355 15092 net.cpp:342] pool1_action -> pool1_action
I0922 13:37:07.663367 15092 net.cpp:113] Setting up pool1_action
I0922 13:37:07.663391 15092 net.cpp:120] Top shape: 70 96 27 27 (4898880)
I0922 13:37:07.663398 15092 layer_factory.hpp:74] Creating layer norm1_action
I0922 13:37:07.663410 15092 net.cpp:84] Creating Layer norm1_action
I0922 13:37:07.663417 15092 net.cpp:384] norm1_action <- pool1_action
I0922 13:37:07.663430 15092 net.cpp:342] norm1_action -> norm1_action
I0922 13:37:07.663461 15092 net.cpp:113] Setting up norm1_action
I0922 13:37:07.663482 15092 net.cpp:120] Top shape: 70 96 27 27 (4898880)
I0922 13:37:07.663489 15092 layer_factory.hpp:74] Creating layer conv2_action
I0922 13:37:07.663497 15092 net.cpp:84] Creating Layer conv2_action
I0922 13:37:07.663502 15092 net.cpp:384] conv2_action <- norm1_action
I0922 13:37:07.663508 15092 net.cpp:342] conv2_action -> conv2_action
I0922 13:37:07.663516 15092 net.cpp:113] Setting up conv2_action
I0922 13:37:07.667682 15092 net.cpp:120] Top shape: 70 256 27 27 (13063680)
I0922 13:37:07.667696 15092 layer_factory.hpp:74] Creating layer relu2_action
I0922 13:37:07.667704 15092 net.cpp:84] Creating Layer relu2_action
I0922 13:37:07.667708 15092 net.cpp:384] relu2_action <- conv2_action
I0922 13:37:07.667713 15092 net.cpp:331] relu2_action -> conv2_action (in-place)
I0922 13:37:07.667721 15092 net.cpp:113] Setting up relu2_action
I0922 13:37:07.667726 15092 net.cpp:120] Top shape: 70 256 27 27 (13063680)
I0922 13:37:07.667729 15092 layer_factory.hpp:74] Creating layer pool2_action
I0922 13:37:07.667738 15092 net.cpp:84] Creating Layer pool2_action
I0922 13:37:07.667742 15092 net.cpp:384] pool2_action <- conv2_action
I0922 13:37:07.667749 15092 net.cpp:342] pool2_action -> pool2_action
I0922 13:37:07.667757 15092 net.cpp:113] Setting up pool2_action
I0922 13:37:07.667764 15092 net.cpp:120] Top shape: 70 256 13 13 (3028480)
I0922 13:37:07.667768 15092 layer_factory.hpp:74] Creating layer norm2_action
I0922 13:37:07.667775 15092 net.cpp:84] Creating Layer norm2_action
I0922 13:37:07.667780 15092 net.cpp:384] norm2_action <- pool2_action
I0922 13:37:07.667788 15092 net.cpp:342] norm2_action -> norm2_action
I0922 13:37:07.667793 15092 net.cpp:113] Setting up norm2_action
I0922 13:37:07.667800 15092 net.cpp:120] Top shape: 70 256 13 13 (3028480)
I0922 13:37:07.667804 15092 layer_factory.hpp:74] Creating layer conv3_action
I0922 13:37:07.667814 15092 net.cpp:84] Creating Layer conv3_action
I0922 13:37:07.667819 15092 net.cpp:384] conv3_action <- norm2_action
I0922 13:37:07.667827 15092 net.cpp:342] conv3_action -> conv3_action
I0922 13:37:07.667834 15092 net.cpp:113] Setting up conv3_action
I0922 13:37:07.680438 15092 net.cpp:120] Top shape: 70 384 13 13 (4542720)
I0922 13:37:07.680466 15092 layer_factory.hpp:74] Creating layer relu3_action
I0922 13:37:07.680495 15092 net.cpp:84] Creating Layer relu3_action
I0922 13:37:07.680500 15092 net.cpp:384] relu3_action <- conv3_action
I0922 13:37:07.680510 15092 net.cpp:331] relu3_action -> conv3_action (in-place)
I0922 13:37:07.680518 15092 net.cpp:113] Setting up relu3_action
I0922 13:37:07.680526 15092 net.cpp:120] Top shape: 70 384 13 13 (4542720)
I0922 13:37:07.680529 15092 layer_factory.hpp:74] Creating layer conv4_action
I0922 13:37:07.680538 15092 net.cpp:84] Creating Layer conv4_action
I0922 13:37:07.680542 15092 net.cpp:384] conv4_action <- conv3_action
I0922 13:37:07.680553 15092 net.cpp:342] conv4_action -> conv4_action
I0922 13:37:07.680562 15092 net.cpp:113] Setting up conv4_action
I0922 13:37:07.689813 15092 net.cpp:120] Top shape: 70 384 13 13 (4542720)
I0922 13:37:07.689841 15092 layer_factory.hpp:74] Creating layer relu4_action
I0922 13:37:07.689851 15092 net.cpp:84] Creating Layer relu4_action
I0922 13:37:07.689857 15092 net.cpp:384] relu4_action <- conv4_action
I0922 13:37:07.689865 15092 net.cpp:331] relu4_action -> conv4_action (in-place)
I0922 13:37:07.689874 15092 net.cpp:113] Setting up relu4_action
I0922 13:37:07.689880 15092 net.cpp:120] Top shape: 70 384 13 13 (4542720)
I0922 13:37:07.689884 15092 layer_factory.hpp:74] Creating layer conv5_action
I0922 13:37:07.689894 15092 net.cpp:84] Creating Layer conv5_action
I0922 13:37:07.689900 15092 net.cpp:384] conv5_action <- conv4_action
I0922 13:37:07.689906 15092 net.cpp:342] conv5_action -> conv5_action
I0922 13:37:07.689914 15092 net.cpp:113] Setting up conv5_action
I0922 13:37:07.696125 15092 net.cpp:120] Top shape: 70 256 13 13 (3028480)
I0922 13:37:07.696159 15092 layer_factory.hpp:74] Creating layer relu5_action
I0922 13:37:07.696190 15092 net.cpp:84] Creating Layer relu5_action
I0922 13:37:07.696197 15092 net.cpp:384] relu5_action <- conv5_action
I0922 13:37:07.696203 15092 net.cpp:331] relu5_action -> conv5_action (in-place)
I0922 13:37:07.696213 15092 net.cpp:113] Setting up relu5_action
I0922 13:37:07.696218 15092 net.cpp:120] Top shape: 70 256 13 13 (3028480)
I0922 13:37:07.696223 15092 layer_factory.hpp:74] Creating layer pool5_action
I0922 13:37:07.696234 15092 net.cpp:84] Creating Layer pool5_action
I0922 13:37:07.696238 15092 net.cpp:384] pool5_action <- conv5_action
I0922 13:37:07.696245 15092 net.cpp:342] pool5_action -> pool5_action
I0922 13:37:07.696254 15092 net.cpp:113] Setting up pool5_action
I0922 13:37:07.696264 15092 net.cpp:120] Top shape: 70 256 6 6 (645120)
I0922 13:37:07.696269 15092 layer_factory.hpp:74] Creating layer fc6_action
I0922 13:37:07.696280 15092 net.cpp:84] Creating Layer fc6_action
I0922 13:37:07.696285 15092 net.cpp:384] fc6_action <- pool5_action
I0922 13:37:07.696290 15092 net.cpp:342] fc6_action -> fc6_action
I0922 13:37:07.696303 15092 net.cpp:113] Setting up fc6_action
I0922 13:37:08.179697 15092 net.cpp:120] Top shape: 70 4096 (286720)
I0922 13:37:08.179728 15092 layer_factory.hpp:74] Creating layer relu6_action
I0922 13:37:08.179739 15092 net.cpp:84] Creating Layer relu6_action
I0922 13:37:08.179744 15092 net.cpp:384] relu6_action <- fc6_action
I0922 13:37:08.179751 15092 net.cpp:331] relu6_action -> fc6_action (in-place)
I0922 13:37:08.179759 15092 net.cpp:113] Setting up relu6_action
I0922 13:37:08.179765 15092 net.cpp:120] Top shape: 70 4096 (286720)
I0922 13:37:08.179769 15092 layer_factory.hpp:74] Creating layer drop6_action
I0922 13:37:08.179781 15092 net.cpp:84] Creating Layer drop6_action
I0922 13:37:08.179785 15092 net.cpp:384] drop6_action <- fc6_action
I0922 13:37:08.179790 15092 net.cpp:331] drop6_action -> fc6_action (in-place)
I0922 13:37:08.179797 15092 net.cpp:113] Setting up drop6_action
I0922 13:37:08.179807 15092 net.cpp:120] Top shape: 70 4096 (286720)
I0922 13:37:08.179811 15092 layer_factory.hpp:74] Creating layer fc7_action
I0922 13:37:08.179819 15092 net.cpp:84] Creating Layer fc7_action
I0922 13:37:08.179823 15092 net.cpp:384] fc7_action <- fc6_action
I0922 13:37:08.179834 15092 net.cpp:342] fc7_action -> fc7_action
I0922 13:37:08.179842 15092 net.cpp:113] Setting up fc7_action
I0922 13:37:08.394384 15092 net.cpp:120] Top shape: 70 4096 (286720)
I0922 13:37:08.394413 15092 layer_factory.hpp:74] Creating layer relu7_action
I0922 13:37:08.394423 15092 net.cpp:84] Creating Layer relu7_action
I0922 13:37:08.394428 15092 net.cpp:384] relu7_action <- fc7_action
I0922 13:37:08.394436 15092 net.cpp:331] relu7_action -> fc7_action (in-place)
I0922 13:37:08.394444 15092 net.cpp:113] Setting up relu7_action
I0922 13:37:08.394450 15092 net.cpp:120] Top shape: 70 4096 (286720)
I0922 13:37:08.394454 15092 layer_factory.hpp:74] Creating layer drop7_action
I0922 13:37:08.394461 15092 net.cpp:84] Creating Layer drop7_action
I0922 13:37:08.394464 15092 net.cpp:384] drop7_action <- fc7_action
I0922 13:37:08.394471 15092 net.cpp:331] drop7_action -> fc7_action (in-place)
I0922 13:37:08.394481 15092 net.cpp:113] Setting up drop7_action
I0922 13:37:08.394490 15092 net.cpp:120] Top shape: 70 4096 (286720)
I0922 13:37:08.394493 15092 layer_factory.hpp:74] Creating layer fc8_CAD_action
I0922 13:37:08.394501 15092 net.cpp:84] Creating Layer fc8_CAD_action
I0922 13:37:08.394505 15092 net.cpp:384] fc8_CAD_action <- fc7_action
I0922 13:37:08.394510 15092 net.cpp:342] fc8_CAD_action -> fc8_CAD_action_unnorm
I0922 13:37:08.394518 15092 net.cpp:113] Setting up fc8_CAD_action
I0922 13:37:08.394908 15092 net.cpp:120] Top shape: 70 7 (490)
I0922 13:37:08.394917 15092 layer_factory.hpp:74] Creating layer prob_action_cad
I0922 13:37:08.394927 15092 net.cpp:84] Creating Layer prob_action_cad
I0922 13:37:08.394930 15092 net.cpp:384] prob_action_cad <- fc8_CAD_action_unnorm
I0922 13:37:08.394937 15092 net.cpp:342] prob_action_cad -> fc8_CAD_action
I0922 13:37:08.394968 15092 net.cpp:113] Setting up prob_action_cad
I0922 13:37:08.394978 15092 net.cpp:120] Top shape: 70 7 (490)
I0922 13:37:08.394981 15092 layer_factory.hpp:74] Creating layer fc8_CAD_action_prob_action_cad_0_split
I0922 13:37:08.394989 15092 net.cpp:84] Creating Layer fc8_CAD_action_prob_action_cad_0_split
I0922 13:37:08.394991 15092 net.cpp:384] fc8_CAD_action_prob_action_cad_0_split <- fc8_CAD_action
I0922 13:37:08.394997 15092 net.cpp:342] fc8_CAD_action_prob_action_cad_0_split -> fc8_CAD_action_prob_action_cad_0_split_0
I0922 13:37:08.395004 15092 net.cpp:342] fc8_CAD_action_prob_action_cad_0_split -> fc8_CAD_action_prob_action_cad_0_split_1
I0922 13:37:08.395009 15092 net.cpp:113] Setting up fc8_CAD_action_prob_action_cad_0_split
I0922 13:37:08.395015 15092 net.cpp:120] Top shape: 70 7 (490)
I0922 13:37:08.395020 15092 net.cpp:120] Top shape: 70 7 (490)
I0922 13:37:08.395025 15092 layer_factory.hpp:74] Creating layer data_pose
I0922 13:37:08.395035 15092 net.cpp:84] Creating Layer data_pose
I0922 13:37:08.395042 15092 net.cpp:342] data_pose -> data_pose
I0922 13:37:08.395051 15092 net.cpp:342] data_pose -> label_pose
I0922 13:37:08.395057 15092 net.cpp:113] Setting up data_pose
I0922 13:37:08.421738 15092 db.cpp:34] Opened lmdb /cs/vml2/zhiweid/CVPR16_NEW/bp-rnn/experiments/0419_context/CAD_train_lmdb_0419_context
I0922 13:37:08.422356 15092 data_layer.cpp:67] output data size: 70,3,227,227
I0922 13:37:08.422374 15092 data_transformer.cpp:22] Loading mean file from: imagenet_mean.binaryproto
I0922 13:37:08.434226 15092 net.cpp:120] Top shape: 70 3 227 227 (10821090)
I0922 13:37:08.434247 15092 net.cpp:120] Top shape: 70 (70)
I0922 13:37:08.434257 15092 layer_factory.hpp:74] Creating layer conv1_pose
I0922 13:37:08.434273 15092 net.cpp:84] Creating Layer conv1_pose
I0922 13:37:08.434283 15092 net.cpp:384] conv1_pose <- data_pose
I0922 13:37:08.434296 15092 net.cpp:342] conv1_pose -> conv1_pose
I0922 13:37:08.434311 15092 net.cpp:113] Setting up conv1_pose
I0922 13:37:08.435128 15092 net.cpp:120] Top shape: 70 96 55 55 (20328000)
I0922 13:37:08.435150 15092 layer_factory.hpp:74] Creating layer relu1_pose
I0922 13:37:08.435161 15092 net.cpp:84] Creating Layer relu1_pose
I0922 13:37:08.435168 15092 net.cpp:384] relu1_pose <- conv1_pose
I0922 13:37:08.435178 15092 net.cpp:331] relu1_pose -> conv1_pose (in-place)
I0922 13:37:08.435189 15092 net.cpp:113] Setting up relu1_pose
I0922 13:37:08.435199 15092 net.cpp:120] Top shape: 70 96 55 55 (20328000)
I0922 13:37:08.435206 15092 layer_factory.hpp:74] Creating layer pool1_pose
I0922 13:37:08.435217 15092 net.cpp:84] Creating Layer pool1_pose
I0922 13:37:08.435225 15092 net.cpp:384] pool1_pose <- conv1_pose
I0922 13:37:08.435235 15092 net.cpp:342] pool1_pose -> pool1_pose
I0922 13:37:08.435245 15092 net.cpp:113] Setting up pool1_pose
I0922 13:37:08.435259 15092 net.cpp:120] Top shape: 70 96 27 27 (4898880)
I0922 13:37:08.435267 15092 layer_factory.hpp:74] Creating layer norm1_pose
I0922 13:37:08.435277 15092 net.cpp:84] Creating Layer norm1_pose
I0922 13:37:08.435284 15092 net.cpp:384] norm1_pose <- pool1_pose
I0922 13:37:08.435294 15092 net.cpp:342] norm1_pose -> norm1_pose
I0922 13:37:08.435305 15092 net.cpp:113] Setting up norm1_pose
I0922 13:37:08.435317 15092 net.cpp:120] Top shape: 70 96 27 27 (4898880)
I0922 13:37:08.435324 15092 layer_factory.hpp:74] Creating layer conv2_pose
I0922 13:37:08.435335 15092 net.cpp:84] Creating Layer conv2_pose
I0922 13:37:08.435343 15092 net.cpp:384] conv2_pose <- norm1_pose
I0922 13:37:08.435358 15092 net.cpp:342] conv2_pose -> conv2_pose
I0922 13:37:08.435369 15092 net.cpp:113] Setting up conv2_pose
I0922 13:37:08.441687 15092 net.cpp:120] Top shape: 70 256 27 27 (13063680)
I0922 13:37:08.441709 15092 layer_factory.hpp:74] Creating layer relu2_pose
I0922 13:37:08.441723 15092 net.cpp:84] Creating Layer relu2_pose
I0922 13:37:08.441730 15092 net.cpp:384] relu2_pose <- conv2_pose
I0922 13:37:08.441736 15092 net.cpp:331] relu2_pose -> conv2_pose (in-place)
I0922 13:37:08.441748 15092 net.cpp:113] Setting up relu2_pose
I0922 13:37:08.441776 15092 net.cpp:120] Top shape: 70 256 27 27 (13063680)
I0922 13:37:08.441781 15092 layer_factory.hpp:74] Creating layer pool2_pose
I0922 13:37:08.441788 15092 net.cpp:84] Creating Layer pool2_pose
I0922 13:37:08.441792 15092 net.cpp:384] pool2_pose <- conv2_pose
I0922 13:37:08.441800 15092 net.cpp:342] pool2_pose -> pool2_pose
I0922 13:37:08.441808 15092 net.cpp:113] Setting up pool2_pose
I0922 13:37:08.441817 15092 net.cpp:120] Top shape: 70 256 13 13 (3028480)
I0922 13:37:08.441822 15092 layer_factory.hpp:74] Creating layer norm2_pose
I0922 13:37:08.441828 15092 net.cpp:84] Creating Layer norm2_pose
I0922 13:37:08.441831 15092 net.cpp:384] norm2_pose <- pool2_pose
I0922 13:37:08.441839 15092 net.cpp:342] norm2_pose -> norm2_pose
I0922 13:37:08.441845 15092 net.cpp:113] Setting up norm2_pose
I0922 13:37:08.441853 15092 net.cpp:120] Top shape: 70 256 13 13 (3028480)
I0922 13:37:08.441856 15092 layer_factory.hpp:74] Creating layer conv3_pose
I0922 13:37:08.441864 15092 net.cpp:84] Creating Layer conv3_pose
I0922 13:37:08.441869 15092 net.cpp:384] conv3_pose <- norm2_pose
I0922 13:37:08.441876 15092 net.cpp:342] conv3_pose -> conv3_pose
I0922 13:37:08.441884 15092 net.cpp:113] Setting up conv3_pose
I0922 13:37:08.454217 15092 net.cpp:120] Top shape: 70 384 13 13 (4542720)
I0922 13:37:08.454246 15092 layer_factory.hpp:74] Creating layer relu3_pose
I0922 13:37:08.454258 15092 net.cpp:84] Creating Layer relu3_pose
I0922 13:37:08.454264 15092 net.cpp:384] relu3_pose <- conv3_pose
I0922 13:37:08.454272 15092 net.cpp:331] relu3_pose -> conv3_pose (in-place)
I0922 13:37:08.454280 15092 net.cpp:113] Setting up relu3_pose
I0922 13:37:08.454287 15092 net.cpp:120] Top shape: 70 384 13 13 (4542720)
I0922 13:37:08.454290 15092 layer_factory.hpp:74] Creating layer conv4_pose
I0922 13:37:08.454301 15092 net.cpp:84] Creating Layer conv4_pose
I0922 13:37:08.454305 15092 net.cpp:384] conv4_pose <- conv3_pose
I0922 13:37:08.454313 15092 net.cpp:342] conv4_pose -> conv4_pose
I0922 13:37:08.454325 15092 net.cpp:113] Setting up conv4_pose
I0922 13:37:08.463553 15092 net.cpp:120] Top shape: 70 384 13 13 (4542720)
I0922 13:37:08.463629 15092 layer_factory.hpp:74] Creating layer relu4_pose
I0922 13:37:08.463639 15092 net.cpp:84] Creating Layer relu4_pose
I0922 13:37:08.463645 15092 net.cpp:384] relu4_pose <- conv4_pose
I0922 13:37:08.463659 15092 net.cpp:331] relu4_pose -> conv4_pose (in-place)
I0922 13:37:08.463667 15092 net.cpp:113] Setting up relu4_pose
I0922 13:37:08.463673 15092 net.cpp:120] Top shape: 70 384 13 13 (4542720)
I0922 13:37:08.463677 15092 layer_factory.hpp:74] Creating layer conv5_pose
I0922 13:37:08.463688 15092 net.cpp:84] Creating Layer conv5_pose
I0922 13:37:08.463692 15092 net.cpp:384] conv5_pose <- conv4_pose
I0922 13:37:08.463699 15092 net.cpp:342] conv5_pose -> conv5_pose
I0922 13:37:08.463706 15092 net.cpp:113] Setting up conv5_pose
I0922 13:37:08.469856 15092 net.cpp:120] Top shape: 70 256 13 13 (3028480)
I0922 13:37:08.469882 15092 layer_factory.hpp:74] Creating layer relu5_pose
I0922 13:37:08.469895 15092 net.cpp:84] Creating Layer relu5_pose
I0922 13:37:08.469902 15092 net.cpp:384] relu5_pose <- conv5_pose
I0922 13:37:08.469908 15092 net.cpp:331] relu5_pose -> conv5_pose (in-place)
I0922 13:37:08.469916 15092 net.cpp:113] Setting up relu5_pose
I0922 13:37:08.469923 15092 net.cpp:120] Top shape: 70 256 13 13 (3028480)
I0922 13:37:08.469926 15092 layer_factory.hpp:74] Creating layer pool5_pose
I0922 13:37:08.469933 15092 net.cpp:84] Creating Layer pool5_pose
I0922 13:37:08.469938 15092 net.cpp:384] pool5_pose <- conv5_pose
I0922 13:37:08.469945 15092 net.cpp:342] pool5_pose -> pool5_pose
I0922 13:37:08.469954 15092 net.cpp:113] Setting up pool5_pose
I0922 13:37:08.469961 15092 net.cpp:120] Top shape: 70 256 6 6 (645120)
I0922 13:37:08.469966 15092 layer_factory.hpp:74] Creating layer fc6_pose
I0922 13:37:08.469974 15092 net.cpp:84] Creating Layer fc6_pose
I0922 13:37:08.469979 15092 net.cpp:384] fc6_pose <- pool5_pose
I0922 13:37:08.469985 15092 net.cpp:342] fc6_pose -> fc6_pose
I0922 13:37:08.469996 15092 net.cpp:113] Setting up fc6_pose
I0922 13:37:08.955329 15092 net.cpp:120] Top shape: 70 4096 (286720)
I0922 13:37:08.955360 15092 layer_factory.hpp:74] Creating layer relu6_pose
I0922 13:37:08.955371 15092 net.cpp:84] Creating Layer relu6_pose
I0922 13:37:08.955376 15092 net.cpp:384] relu6_pose <- fc6_pose
I0922 13:37:08.955385 15092 net.cpp:331] relu6_pose -> fc6_pose (in-place)
I0922 13:37:08.955394 15092 net.cpp:113] Setting up relu6_pose
I0922 13:37:08.955400 15092 net.cpp:120] Top shape: 70 4096 (286720)
I0922 13:37:08.955404 15092 layer_factory.hpp:74] Creating layer drop6_pose
I0922 13:37:08.955411 15092 net.cpp:84] Creating Layer drop6_pose
I0922 13:37:08.955415 15092 net.cpp:384] drop6_pose <- fc6_pose
I0922 13:37:08.955420 15092 net.cpp:331] drop6_pose -> fc6_pose (in-place)
I0922 13:37:08.955426 15092 net.cpp:113] Setting up drop6_pose
I0922 13:37:08.955433 15092 net.cpp:120] Top shape: 70 4096 (286720)
I0922 13:37:08.955437 15092 layer_factory.hpp:74] Creating layer fc7_pose
I0922 13:37:08.955446 15092 net.cpp:84] Creating Layer fc7_pose
I0922 13:37:08.955449 15092 net.cpp:384] fc7_pose <- fc6_pose
I0922 13:37:08.955458 15092 net.cpp:342] fc7_pose -> fc7_pose
I0922 13:37:08.955466 15092 net.cpp:113] Setting up fc7_pose
I0922 13:37:09.169715 15092 net.cpp:120] Top shape: 70 4096 (286720)
I0922 13:37:09.169744 15092 layer_factory.hpp:74] Creating layer relu7_pose
I0922 13:37:09.169754 15092 net.cpp:84] Creating Layer relu7_pose
I0922 13:37:09.169760 15092 net.cpp:384] relu7_pose <- fc7_pose
I0922 13:37:09.169770 15092 net.cpp:331] relu7_pose -> fc7_pose (in-place)
I0922 13:37:09.169778 15092 net.cpp:113] Setting up relu7_pose
I0922 13:37:09.169783 15092 net.cpp:120] Top shape: 70 4096 (286720)
I0922 13:37:09.169787 15092 layer_factory.hpp:74] Creating layer drop7_pose
I0922 13:37:09.169795 15092 net.cpp:84] Creating Layer drop7_pose
I0922 13:37:09.169800 15092 net.cpp:384] drop7_pose <- fc7_pose
I0922 13:37:09.169805 15092 net.cpp:331] drop7_pose -> fc7_pose (in-place)
I0922 13:37:09.169811 15092 net.cpp:113] Setting up drop7_pose
I0922 13:37:09.169816 15092 net.cpp:120] Top shape: 70 4096 (286720)
I0922 13:37:09.169821 15092 layer_factory.hpp:74] Creating layer fc8_CAD_pose
I0922 13:37:09.169829 15092 net.cpp:84] Creating Layer fc8_CAD_pose
I0922 13:37:09.169833 15092 net.cpp:384] fc8_CAD_pose <- fc7_pose
I0922 13:37:09.169839 15092 net.cpp:342] fc8_CAD_pose -> fc8_CAD_pose
I0922 13:37:09.169847 15092 net.cpp:113] Setting up fc8_CAD_pose
I0922 13:37:09.170286 15092 net.cpp:120] Top shape: 70 8 (560)
I0922 13:37:09.170295 15092 layer_factory.hpp:74] Creating layer fc8_CAD_pose_fc8_CAD_pose_0_split
I0922 13:37:09.170302 15092 net.cpp:84] Creating Layer fc8_CAD_pose_fc8_CAD_pose_0_split
I0922 13:37:09.170306 15092 net.cpp:384] fc8_CAD_pose_fc8_CAD_pose_0_split <- fc8_CAD_pose
I0922 13:37:09.170313 15092 net.cpp:342] fc8_CAD_pose_fc8_CAD_pose_0_split -> fc8_CAD_pose_fc8_CAD_pose_0_split_0
I0922 13:37:09.170321 15092 net.cpp:342] fc8_CAD_pose_fc8_CAD_pose_0_split -> fc8_CAD_pose_fc8_CAD_pose_0_split_1
I0922 13:37:09.170327 15092 net.cpp:113] Setting up fc8_CAD_pose_fc8_CAD_pose_0_split
I0922 13:37:09.170333 15092 net.cpp:120] Top shape: 70 8 (560)
I0922 13:37:09.170338 15092 net.cpp:120] Top shape: 70 8 (560)
I0922 13:37:09.170342 15092 layer_factory.hpp:74] Creating layer data_frame
I0922 13:37:09.170352 15092 net.cpp:84] Creating Layer data_frame
I0922 13:37:09.170359 15092 net.cpp:342] data_frame -> data_frame
I0922 13:37:09.170368 15092 net.cpp:342] data_frame -> label_frame
I0922 13:37:09.170382 15092 net.cpp:113] Setting up data_frame
I0922 13:37:09.176517 15092 db.cpp:34] Opened lmdb /cs/vml2/zhiweid/CVPR16_NEW/bp-rnn/experiments/0419_context/CAD_train_lmdb_0419_frame_context
I0922 13:37:09.176996 15092 data_layer.cpp:67] output data size: 5,3,227,227
I0922 13:37:09.177011 15092 data_transformer.cpp:22] Loading mean file from: imagenet_mean.binaryproto
I0922 13:37:09.179652 15092 net.cpp:120] Top shape: 5 3 227 227 (772935)
I0922 13:37:09.179666 15092 net.cpp:120] Top shape: 5 (5)
I0922 13:37:09.179675 15092 layer_factory.hpp:74] Creating layer label_frame_data_frame_1_split
I0922 13:37:09.179705 15092 net.cpp:84] Creating Layer label_frame_data_frame_1_split
I0922 13:37:09.179711 15092 net.cpp:384] label_frame_data_frame_1_split <- label_frame
I0922 13:37:09.179719 15092 net.cpp:342] label_frame_data_frame_1_split -> label_frame_data_frame_1_split_0
I0922 13:37:09.179729 15092 net.cpp:342] label_frame_data_frame_1_split -> label_frame_data_frame_1_split_1
I0922 13:37:09.179736 15092 net.cpp:113] Setting up label_frame_data_frame_1_split
I0922 13:37:09.179744 15092 net.cpp:120] Top shape: 5 (5)
I0922 13:37:09.179750 15092 net.cpp:120] Top shape: 5 (5)
I0922 13:37:09.179755 15092 layer_factory.hpp:74] Creating layer conv1_frame
I0922 13:37:09.179765 15092 net.cpp:84] Creating Layer conv1_frame
I0922 13:37:09.179771 15092 net.cpp:384] conv1_frame <- data_frame
I0922 13:37:09.179779 15092 net.cpp:342] conv1_frame -> conv1_frame
I0922 13:37:09.179787 15092 net.cpp:113] Setting up conv1_frame
I0922 13:37:09.180328 15092 net.cpp:120] Top shape: 5 96 55 55 (1452000)
I0922 13:37:09.180346 15092 layer_factory.hpp:74] Creating layer relu1_frame
I0922 13:37:09.180353 15092 net.cpp:84] Creating Layer relu1_frame
I0922 13:37:09.180358 15092 net.cpp:384] relu1_frame <- conv1_frame
I0922 13:37:09.180366 15092 net.cpp:331] relu1_frame -> conv1_frame (in-place)
I0922 13:37:09.180372 15092 net.cpp:113] Setting up relu1_frame
I0922 13:37:09.180379 15092 net.cpp:120] Top shape: 5 96 55 55 (1452000)
I0922 13:37:09.180383 15092 layer_factory.hpp:74] Creating layer pool1_frame
I0922 13:37:09.180392 15092 net.cpp:84] Creating Layer pool1_frame
I0922 13:37:09.180397 15092 net.cpp:384] pool1_frame <- conv1_frame
I0922 13:37:09.180403 15092 net.cpp:342] pool1_frame -> pool1_frame
I0922 13:37:09.180411 15092 net.cpp:113] Setting up pool1_frame
I0922 13:37:09.180421 15092 net.cpp:120] Top shape: 5 96 27 27 (349920)
I0922 13:37:09.180429 15092 layer_factory.hpp:74] Creating layer norm1_frame
I0922 13:37:09.180438 15092 net.cpp:84] Creating Layer norm1_frame
I0922 13:37:09.180443 15092 net.cpp:384] norm1_frame <- pool1_frame
I0922 13:37:09.180449 15092 net.cpp:342] norm1_frame -> norm1_frame
I0922 13:37:09.180456 15092 net.cpp:113] Setting up norm1_frame
I0922 13:37:09.180465 15092 net.cpp:120] Top shape: 5 96 27 27 (349920)
I0922 13:37:09.180469 15092 layer_factory.hpp:74] Creating layer conv2_frame
I0922 13:37:09.180491 15092 net.cpp:84] Creating Layer conv2_frame
I0922 13:37:09.180502 15092 net.cpp:384] conv2_frame <- norm1_frame
I0922 13:37:09.180511 15092 net.cpp:342] conv2_frame -> conv2_frame
I0922 13:37:09.180521 15092 net.cpp:113] Setting up conv2_frame
I0922 13:37:09.185667 15092 net.cpp:120] Top shape: 5 256 27 27 (933120)
I0922 13:37:09.185683 15092 layer_factory.hpp:74] Creating layer relu2_frame
I0922 13:37:09.185693 15092 net.cpp:84] Creating Layer relu2_frame
I0922 13:37:09.185699 15092 net.cpp:384] relu2_frame <- conv2_frame
I0922 13:37:09.185706 15092 net.cpp:331] relu2_frame -> conv2_frame (in-place)
I0922 13:37:09.185714 15092 net.cpp:113] Setting up relu2_frame
I0922 13:37:09.185721 15092 net.cpp:120] Top shape: 5 256 27 27 (933120)
I0922 13:37:09.185726 15092 layer_factory.hpp:74] Creating layer pool2_frame
I0922 13:37:09.185736 15092 net.cpp:84] Creating Layer pool2_frame
I0922 13:37:09.185741 15092 net.cpp:384] pool2_frame <- conv2_frame
I0922 13:37:09.185750 15092 net.cpp:342] pool2_frame -> pool2_frame
I0922 13:37:09.185757 15092 net.cpp:113] Setting up pool2_frame
I0922 13:37:09.185767 15092 net.cpp:120] Top shape: 5 256 13 13 (216320)
I0922 13:37:09.185772 15092 layer_factory.hpp:74] Creating layer norm2_frame
I0922 13:37:09.185780 15092 net.cpp:84] Creating Layer norm2_frame
I0922 13:37:09.185784 15092 net.cpp:384] norm2_frame <- pool2_frame
I0922 13:37:09.185793 15092 net.cpp:342] norm2_frame -> norm2_frame
I0922 13:37:09.185801 15092 net.cpp:113] Setting up norm2_frame
I0922 13:37:09.185809 15092 net.cpp:120] Top shape: 5 256 13 13 (216320)
I0922 13:37:09.185814 15092 layer_factory.hpp:74] Creating layer conv3_frame
I0922 13:37:09.185845 15092 net.cpp:84] Creating Layer conv3_frame
I0922 13:37:09.185852 15092 net.cpp:384] conv3_frame <- norm2_frame
I0922 13:37:09.185859 15092 net.cpp:342] conv3_frame -> conv3_frame
I0922 13:37:09.185868 15092 net.cpp:113] Setting up conv3_frame
I0922 13:37:09.198952 15092 net.cpp:120] Top shape: 5 384 13 13 (324480)
I0922 13:37:09.198966 15092 layer_factory.hpp:74] Creating layer relu3_frame
I0922 13:37:09.198972 15092 net.cpp:84] Creating Layer relu3_frame
I0922 13:37:09.198976 15092 net.cpp:384] relu3_frame <- conv3_frame
I0922 13:37:09.198982 15092 net.cpp:331] relu3_frame -> conv3_frame (in-place)
I0922 13:37:09.198988 15092 net.cpp:113] Setting up relu3_frame
I0922 13:37:09.198993 15092 net.cpp:120] Top shape: 5 384 13 13 (324480)
I0922 13:37:09.198997 15092 layer_factory.hpp:74] Creating layer conv4_frame
I0922 13:37:09.199007 15092 net.cpp:84] Creating Layer conv4_frame
I0922 13:37:09.199012 15092 net.cpp:384] conv4_frame <- conv3_frame
I0922 13:37:09.199019 15092 net.cpp:342] conv4_frame -> conv4_frame
I0922 13:37:09.199026 15092 net.cpp:113] Setting up conv4_frame
I0922 13:37:09.207725 15092 net.cpp:120] Top shape: 5 384 13 13 (324480)
I0922 13:37:09.207738 15092 layer_factory.hpp:74] Creating layer relu4_frame
I0922 13:37:09.207746 15092 net.cpp:84] Creating Layer relu4_frame
I0922 13:37:09.207751 15092 net.cpp:384] relu4_frame <- conv4_frame
I0922 13:37:09.207757 15092 net.cpp:331] relu4_frame -> conv4_frame (in-place)
I0922 13:37:09.207764 15092 net.cpp:113] Setting up relu4_frame
I0922 13:37:09.207770 15092 net.cpp:120] Top shape: 5 384 13 13 (324480)
I0922 13:37:09.207773 15092 layer_factory.hpp:74] Creating layer conv5_frame
I0922 13:37:09.207790 15092 net.cpp:84] Creating Layer conv5_frame
I0922 13:37:09.207794 15092 net.cpp:384] conv5_frame <- conv4_frame
I0922 13:37:09.207803 15092 net.cpp:342] conv5_frame -> conv5_frame
I0922 13:37:09.207809 15092 net.cpp:113] Setting up conv5_frame
I0922 13:37:09.213677 15092 net.cpp:120] Top shape: 5 256 13 13 (216320)
I0922 13:37:09.213688 15092 layer_factory.hpp:74] Creating layer relu5_frame
I0922 13:37:09.213696 15092 net.cpp:84] Creating Layer relu5_frame
I0922 13:37:09.213699 15092 net.cpp:384] relu5_frame <- conv5_frame
I0922 13:37:09.213704 15092 net.cpp:331] relu5_frame -> conv5_frame (in-place)
I0922 13:37:09.213711 15092 net.cpp:113] Setting up relu5_frame
I0922 13:37:09.213716 15092 net.cpp:120] Top shape: 5 256 13 13 (216320)
I0922 13:37:09.213719 15092 layer_factory.hpp:74] Creating layer pool5_frame
I0922 13:37:09.213726 15092 net.cpp:84] Creating Layer pool5_frame
I0922 13:37:09.213729 15092 net.cpp:384] pool5_frame <- conv5_frame
I0922 13:37:09.213737 15092 net.cpp:342] pool5_frame -> pool5_frame
I0922 13:37:09.213742 15092 net.cpp:113] Setting up pool5_frame
I0922 13:37:09.213750 15092 net.cpp:120] Top shape: 5 256 6 6 (46080)
I0922 13:37:09.213754 15092 layer_factory.hpp:74] Creating layer fc6_frame
I0922 13:37:09.213764 15092 net.cpp:84] Creating Layer fc6_frame
I0922 13:37:09.213768 15092 net.cpp:384] fc6_frame <- pool5_frame
I0922 13:37:09.213774 15092 net.cpp:342] fc6_frame -> fc6_frame
I0922 13:37:09.213781 15092 net.cpp:113] Setting up fc6_frame
I0922 13:37:09.694823 15092 net.cpp:120] Top shape: 5 4096 (20480)
I0922 13:37:09.694852 15092 layer_factory.hpp:74] Creating layer relu6_frame
I0922 13:37:09.694862 15092 net.cpp:84] Creating Layer relu6_frame
I0922 13:37:09.694869 15092 net.cpp:384] relu6_frame <- fc6_frame
I0922 13:37:09.694876 15092 net.cpp:331] relu6_frame -> fc6_frame (in-place)
I0922 13:37:09.694885 15092 net.cpp:113] Setting up relu6_frame
I0922 13:37:09.694891 15092 net.cpp:120] Top shape: 5 4096 (20480)
I0922 13:37:09.694895 15092 layer_factory.hpp:74] Creating layer drop6_frame
I0922 13:37:09.694902 15092 net.cpp:84] Creating Layer drop6_frame
I0922 13:37:09.694906 15092 net.cpp:384] drop6_frame <- fc6_frame
I0922 13:37:09.694913 15092 net.cpp:331] drop6_frame -> fc6_frame (in-place)
I0922 13:37:09.694919 15092 net.cpp:113] Setting up drop6_frame
I0922 13:37:09.694931 15092 net.cpp:120] Top shape: 5 4096 (20480)
I0922 13:37:09.694954 15092 layer_factory.hpp:74] Creating layer fc7_frame
I0922 13:37:09.694963 15092 net.cpp:84] Creating Layer fc7_frame
I0922 13:37:09.694967 15092 net.cpp:384] fc7_frame <- fc6_frame
I0922 13:37:09.694973 15092 net.cpp:342] fc7_frame -> fc7_frame
I0922 13:37:09.694983 15092 net.cpp:113] Setting up fc7_frame
I0922 13:37:09.909029 15092 net.cpp:120] Top shape: 5 4096 (20480)
I0922 13:37:09.909059 15092 layer_factory.hpp:74] Creating layer relu7_frame
I0922 13:37:09.909071 15092 net.cpp:84] Creating Layer relu7_frame
I0922 13:37:09.909077 15092 net.cpp:384] relu7_frame <- fc7_frame
I0922 13:37:09.909085 15092 net.cpp:331] relu7_frame -> fc7_frame (in-place)
I0922 13:37:09.909095 15092 net.cpp:113] Setting up relu7_frame
I0922 13:37:09.909099 15092 net.cpp:120] Top shape: 5 4096 (20480)
I0922 13:37:09.909103 15092 layer_factory.hpp:74] Creating layer drop7_frame
I0922 13:37:09.909111 15092 net.cpp:84] Creating Layer drop7_frame
I0922 13:37:09.909116 15092 net.cpp:384] drop7_frame <- fc7_frame
I0922 13:37:09.909121 15092 net.cpp:331] drop7_frame -> fc7_frame (in-place)
I0922 13:37:09.909127 15092 net.cpp:113] Setting up drop7_frame
I0922 13:37:09.909134 15092 net.cpp:120] Top shape: 5 4096 (20480)
I0922 13:37:09.909138 15092 layer_factory.hpp:74] Creating layer fc8_CAD_frame
I0922 13:37:09.909147 15092 net.cpp:84] Creating Layer fc8_CAD_frame
I0922 13:37:09.909150 15092 net.cpp:384] fc8_CAD_frame <- fc7_frame
I0922 13:37:09.909157 15092 net.cpp:342] fc8_CAD_frame -> fc8_CAD_frame
I0922 13:37:09.909164 15092 net.cpp:113] Setting up fc8_CAD_frame
I0922 13:37:09.909446 15092 net.cpp:120] Top shape: 5 5 (25)
I0922 13:37:09.909456 15092 layer_factory.hpp:74] Creating layer fc8_CAD_frame_fc8_CAD_frame_0_split
I0922 13:37:09.909462 15092 net.cpp:84] Creating Layer fc8_CAD_frame_fc8_CAD_frame_0_split
I0922 13:37:09.909466 15092 net.cpp:384] fc8_CAD_frame_fc8_CAD_frame_0_split <- fc8_CAD_frame
I0922 13:37:09.909473 15092 net.cpp:342] fc8_CAD_frame_fc8_CAD_frame_0_split -> fc8_CAD_frame_fc8_CAD_frame_0_split_0
I0922 13:37:09.909485 15092 net.cpp:342] fc8_CAD_frame_fc8_CAD_frame_0_split -> fc8_CAD_frame_fc8_CAD_frame_0_split_1
I0922 13:37:09.909492 15092 net.cpp:342] fc8_CAD_frame_fc8_CAD_frame_0_split -> fc8_CAD_frame_fc8_CAD_frame_0_split_2
I0922 13:37:09.909498 15092 net.cpp:113] Setting up fc8_CAD_frame_fc8_CAD_frame_0_split
I0922 13:37:09.909505 15092 net.cpp:120] Top shape: 5 5 (25)
I0922 13:37:09.909510 15092 net.cpp:120] Top shape: 5 5 (25)
I0922 13:37:09.909515 15092 net.cpp:120] Top shape: 5 5 (25)
I0922 13:37:09.909518 15092 layer_factory.hpp:74] Creating layer prob_frame
I0922 13:37:09.909524 15092 net.cpp:84] Creating Layer prob_frame
I0922 13:37:09.909528 15092 net.cpp:384] prob_frame <- fc8_CAD_frame_fc8_CAD_frame_0_split_0
I0922 13:37:09.909535 15092 net.cpp:342] prob_frame -> fc8_CAD_frame_prob
I0922 13:37:09.909543 15092 net.cpp:113] Setting up prob_frame
I0922 13:37:09.909549 15092 net.cpp:120] Top shape: 5 5 (25)
I0922 13:37:09.909554 15092 layer_factory.hpp:74] Creating layer prob_action
I0922 13:37:09.909559 15092 net.cpp:84] Creating Layer prob_action
I0922 13:37:09.909562 15092 net.cpp:384] prob_action <- fc8_CAD_action_prob_action_cad_0_split_0
I0922 13:37:09.909569 15092 net.cpp:342] prob_action -> fc8_CAD_prob
I0922 13:37:09.909575 15092 net.cpp:113] Setting up prob_action
I0922 13:37:09.909581 15092 net.cpp:120] Top shape: 70 7 (490)
I0922 13:37:09.909585 15092 layer_factory.hpp:74] Creating layer prob_pose
I0922 13:37:09.909590 15092 net.cpp:84] Creating Layer prob_pose
I0922 13:37:09.909595 15092 net.cpp:384] prob_pose <- fc8_CAD_pose_fc8_CAD_pose_0_split_0
I0922 13:37:09.909600 15092 net.cpp:342] prob_pose -> fc8_CAD_pose_prob
I0922 13:37:09.909606 15092 net.cpp:113] Setting up prob_pose
I0922 13:37:09.909613 15092 net.cpp:120] Top shape: 70 8 (560)
I0922 13:37:09.909617 15092 layer_factory.hpp:74] Creating layer concatenation_a_p
I0922 13:37:09.909629 15092 net.cpp:84] Creating Layer concatenation_a_p
I0922 13:37:09.909638 15092 net.cpp:384] concatenation_a_p <- fc8_CAD_prob
I0922 13:37:09.909662 15092 net.cpp:384] concatenation_a_p <- fc8_CAD_pose_prob
I0922 13:37:09.909670 15092 net.cpp:342] concatenation_a_p -> concat_action_pose
I0922 13:37:09.909679 15092 net.cpp:113] Setting up concatenation_a_p
I0922 13:37:09.909687 15092 net.cpp:120] Top shape: 70 15 (1050)
I0922 13:37:09.909690 15092 layer_factory.hpp:74] Creating layer fc9
I0922 13:37:09.909698 15092 net.cpp:84] Creating Layer fc9
I0922 13:37:09.909701 15092 net.cpp:384] fc9 <- concat_action_pose
I0922 13:37:09.909709 15092 net.cpp:342] fc9 -> fc9_unnorm
I0922 13:37:09.909725 15092 net.cpp:113] Setting up fc9
I0922 13:37:09.909746 15092 net.cpp:120] Top shape: 70 40 (2800)
I0922 13:37:09.909754 15092 layer_factory.hpp:74] Creating layer prob_action_pose
I0922 13:37:09.909760 15092 net.cpp:84] Creating Layer prob_action_pose
I0922 13:37:09.909765 15092 net.cpp:384] prob_action_pose <- fc9_unnorm
I0922 13:37:09.909770 15092 net.cpp:342] prob_action_pose -> fc9
I0922 13:37:09.909775 15092 net.cpp:113] Setting up prob_action_pose
I0922 13:37:09.909782 15092 net.cpp:120] Top shape: 70 40 (2800)
I0922 13:37:09.909786 15092 layer_factory.hpp:74] Creating layer Data_arrange_layer_filter
I0922 13:37:12.902657 15092 net.cpp:84] Creating Layer Data_arrange_layer_filter
I0922 13:37:12.902684 15092 net.cpp:384] Data_arrange_layer_filter <- fc8_CAD_action_prob_action_cad_0_split_1
I0922 13:37:12.902693 15092 net.cpp:384] Data_arrange_layer_filter <- label_action_data_action_1_split_0
I0922 13:37:12.902699 15092 net.cpp:384] Data_arrange_layer_filter <- fc9
I0922 13:37:12.902708 15092 net.cpp:342] Data_arrange_layer_filter -> fc9_filtered
I0922 13:37:12.902716 15092 net.cpp:113] Setting up Data_arrange_layer_filter
I0922 13:37:12.902776 15092 net.cpp:120] Top shape: 5 98 (490)
I0922 13:37:12.902784 15092 layer_factory.hpp:74] Creating layer concatenation_s_a_p
I0922 13:37:12.902793 15092 net.cpp:84] Creating Layer concatenation_s_a_p
I0922 13:37:12.902799 15092 net.cpp:384] concatenation_s_a_p <- fc8_CAD_frame_prob
I0922 13:37:12.902806 15092 net.cpp:384] concatenation_s_a_p <- fc9_filtered
I0922 13:37:12.902812 15092 net.cpp:342] concatenation_s_a_p -> concat_all
I0922 13:37:12.902820 15092 net.cpp:113] Setting up concatenation_s_a_p
I0922 13:37:12.902828 15092 net.cpp:120] Top shape: 5 103 (515)
I0922 13:37:12.902832 15092 layer_factory.hpp:74] Creating layer concat_all_concatenation_s_a_p_0_split
I0922 13:37:12.902839 15092 net.cpp:84] Creating Layer concat_all_concatenation_s_a_p_0_split
I0922 13:37:12.902843 15092 net.cpp:384] concat_all_concatenation_s_a_p_0_split <- concat_all
I0922 13:37:12.902849 15092 net.cpp:342] concat_all_concatenation_s_a_p_0_split -> concat_all_concatenation_s_a_p_0_split_0
I0922 13:37:12.902856 15092 net.cpp:342] concat_all_concatenation_s_a_p_0_split -> concat_all_concatenation_s_a_p_0_split_1
I0922 13:37:12.902864 15092 net.cpp:342] concat_all_concatenation_s_a_p_0_split -> concat_all_concatenation_s_a_p_0_split_2
I0922 13:37:12.902870 15092 net.cpp:113] Setting up concat_all_concatenation_s_a_p_0_split
I0922 13:37:12.902878 15092 net.cpp:120] Top shape: 5 103 (515)
I0922 13:37:12.902883 15092 net.cpp:120] Top shape: 5 103 (515)
I0922 13:37:12.902887 15092 net.cpp:120] Top shape: 5 103 (515)
I0922 13:37:12.902891 15092 layer_factory.hpp:74] Creating layer Data_arrange_layer_init_message
I0922 13:37:12.904651 15092 net.cpp:84] Creating Layer Data_arrange_layer_init_message
I0922 13:37:12.904661 15092 net.cpp:384] Data_arrange_layer_init_message <- concat_all_concatenation_s_a_p_0_split_0
I0922 13:37:12.904669 15092 net.cpp:384] Data_arrange_layer_init_message <- label_action_data_action_1_split_1
I0922 13:37:12.904675 15092 net.cpp:342] Data_arrange_layer_init_message -> Initial_Messages
I0922 13:37:12.904681 15092 net.cpp:113] Setting up Data_arrange_layer_init_message
I0922 13:37:12.904716 15092 net.cpp:120] Top shape: 5 1545 (7725)
I0922 13:37:12.904723 15092 layer_factory.hpp:74] Creating layer Belief_Propagation_Recurrent_Neural_Network
I0922 13:37:12.904742 15092 net.cpp:84] Creating Layer Belief_Propagation_Recurrent_Neural_Network
I0922 13:37:12.904768 15092 net.cpp:384] Belief_Propagation_Recurrent_Neural_Network <- Initial_Messages
I0922 13:37:12.904775 15092 net.cpp:384] Belief_Propagation_Recurrent_Neural_Network <- concat_all_concatenation_s_a_p_0_split_1
…
I0922 13:37:12.904825 15092 BP_recurrent_layer.cpp:30] Initializing BP_recurrent layer: assuming input messages need 6 iterations for 5 batches
I0922 13:37:12.906882 15092 net.cpp:42] Initializing net from parameters: 
input: "MessageIn0"
input: "Initial_Messages"
input: "label_action"
input: "fc8_context"
input: "concat_all"
force_backward: true
input_shape {
  dim: 5
  dim: 1545
}
input_shape {
  dim: 5
  dim: 103
}
input_shape {
  dim: 70
}
input_shape {
  dim: 5
  dim: 5
}
input_shape {
  dim: 5
  dim: 103
}
layer {
  name: "Belief_Propagation_Recurrent_Neural_Network_slice_action_frame_0"
  type: "Slice"
  bottom: "concat_all"
  top: "scene_score_normalized0"
  top: "cur_action_score_normalized_reshaped0"
  slice_param {
    slice_point: 5
  }
}
layer {
  name: "Belief_Propagation_Recurrent_Neural_Network_ArrangeMessageIn1"
  type: "Python"
  bottom: "Initial_Messages"
  bottom: "label_action"
  top: "S_A_MessageIn1"
  top: "A_S_MessageIn1"
  top: "A_A_MessageIn1"
  python_param {
    module: "Message_In"
    layer: "Message_In"
  }
}
layer {
  name: "Belief_Propagation_Recurrent_Neural_Network_S_A_Message1"
  type: "InnerProduct"
  bottom: "S_A_MessageIn1"
  top: "S_A_MessageOut1"
  param {
    name: "W_hh_11"
    lr_mult: 10
    decay_mult: 10
  }
  param {
    lr_mult: 20
    decay_mult: 0
  }
  inner_product_param {
    num_output: 7
    bias_term: true
    weight_filler {
      type: "uniform"
      min: -0.08
      max: 0.08
    }
    bias_filler {
      type: "constant"
      value: 0
    }
    axis: 1
  }
}
layer {
  name: "Belief_Propagation_Recurrent_Neural_Network_A_S_Message1"
  type: "InnerProduct"
  bottom: "A_S_MessageIn1"
  top: "A_S_MessageOut1"
  param {
    name: "W_hh_21"
    lr_mult: 10
    decay_mult: 10
  }
  param {
    lr_mult: 20
    decay_mult: 0
  }
  inner_product_param {
    num_output: 5
    bias_term: true
    weight_filler {
      type: "uniform"
      min: -0.08
      max: 0.08
    }
    bias_filler {
      type: "constant"
      value: 0
    }
    axis: 1
  }
}
layer {
  name: "Belief_Propagation_Recurrent_Neural_Network_A_A_Message1"
  type: "InnerProduct"
  bottom: "A_A_MessageIn1"
  top: "A_A_MessageOut1"
  param {
    name: "W_hh_31"
    lr_mult: 10
    decay_mult: 10
  }
  param {
    lr_mult: 20
    decay_mult: 0
  }
  inner_product_param {
    num_output: 7
    bias_term: true
    weight_filler {
      type: "uniform"
      min: -0.08
      max: 0.08
    }
    bias_filler {
      type: "constant"
      value: 0
    }
    axis: 1
  }
}
layer {
  name: "Belief_Propagation_Recurrent_Neural_Network_Normalize_Scene_to_ActionM1"
  type: "Softmax"
  bottom: "S_A_MessageOut1"
  top: "S_A_MessageOut_normalized1"
}
layer {
  name: "Belief_Propagation_Recurrent_Neural_Network_Normalize_Action_to_SceneM1"
  type: "Softmax"
  bottom: "A_S_MessageOut1"
  top: "A_S_MessageOut_normalized1"
}
layer {
  name: "Belief_Propagation_Recurrent_Neural_Network_Normalize_Action_to_ActionM1"
  type: "Softmax"
  bottom: "A_A_MessageOut1"
  top: "A_A_MessageOut_normalized1"
}
layer {
  name: "Belief_Propagation_Recurrent_Neural_Network_ArrangeMessageOut1"
  type: "Python"
  bottom: "concat_all"
  bottom: "S_A_MessageOut_normalized1"
  bottom: "A_S_MessageOut_normalized1"
  bottom: "A_A_MessageOut_normalized1"
  bottom: "cur_action_score_normalized_reshaped0"
  bottom: "scene_score_normalized0"
  bottom: "label_action"
  top: "MessageIn1"
  top: "Message_11"
  top: "Message_21"
  python_param {
    module: "Message_Out"
    layer: "Message_Out"
  }
}
layer {
  name: "Belief_Propagation_Recurrent_Neural_Network_LB_scene1"
  type: "InnerProduct"
  bottom: "Message_11"
  top: "scene_score1"
  param {
    name: "W_ho_1"
    lr_mult: 10
    decay_mult: 10
  }
  param {
    lr_mult: 20
    decay_mult: 0
  }
  inner_product_param {
    num_output: 5
    bias_term: true
    weight_filler {
      type: "uniform"
      min: -0.08
      max: 0.08
    }
    bias_filler {
      type: "constant"
      value: 0
    }
    axis: 1
  }
}
layer {
  name: "Belief_Propagation_Recurrent_Neural_Network_Normalize_Scene_Pred1"
  type: "Softmax"
  bottom: "scene_score1"
  top: "scene_score_normalized1"
  softmax_param {
    axis: 1
  }
}
layer {
  name: "Belief_Propagation_Recurrent_Neural_Network_python_scene_block_prop1"
  type: "Python"
  bottom: "scene_score_normalized1"
  top: "scene_score_normalized_blocked1"
  python_param {
    module: "block_prop"
    layer: "block_prop"
  }
}
layer {
  name: "Belief_Propagation_Recurrent_Neural_Network_weight_scene_prev1"
  type: "EliwiseProduct"
  bottom: "scene_score_normalized_blocked1"
  top: "scene_score_normalized_weighted1"
  param {
    lr_mult: 10
    decay_mult: 10
  }
  eliwise_product_param {
    weight_filler {
      type: "uniform"
      min: -0.08
      max: 0.08
    }
  }
}
layer {
  name: "Belief_Propagation_Recurrent_Neural_Network_LB_action1"
  type: "InnerProduct"
  bottom: "Message_21"
  top: "cur_action_score1"
  param {
    name: "W_ho_2"
    lr_mult: 10
    decay_mult: 10
  }
  param {
    lr_mult: 20
    decay_mult: 0
  }
  inner_product_param {
    num_output: 7
    bias_term: true
    weight_filler {
      type: "uniform"
      min: -0.08
      max: 0.08
    }
    bias_filler {
      type: "constant"
      value: 0
    }
    axis: 2
  }
}
layer {
  name: "Belief_Propagation_Recurrent_Neural_Network_python_action_block_prop1"
  type: "Python"
  bottom: "cur_action_score1"
  top: "cur_action_score_blocked1"
  python_param {
    module: "block_prop"
    layer: "block_prop"
  }
}
layer {
  name: "Belief_Propagation_Recurrent_Neural_Network_weight_action_prev11"
  type: "EliwiseProduct"
  bottom: "cur_action_score_blocked1"
  top: "cur_action_score_weighted11"
  param {
    lr_mult: 10
    decay_mult: 10
  }
  eliwise_product_param {
    weight_filler {
      type: "uniform"
      min: -0.08
      max: 0.08
    }
  }
}
layer {
  name: "Belief_Propagation_Recurrent_Neural_Network_weight_action_prev21"
  type: "EliwiseProduct"
  bottom: "cur_action_score_blocked1"
  top: "cur_action_score_weighted21"
  param {
    lr_mult: 10
    decay_mult: 10
  }
  eliwise_product_param {
    weight_filler {
      type: "uniform"
      min: -0.08
      max: 0.08
    }
  }
}
layer {
  name: "Belief_Propagation_Recurrent_Neural_Network_Normalize_Action_Pred1"
  type: "Softmax"
  bottom: "cur_action_score1"
  top: "cur_action_score_normalized1"
  softmax_param {
    axis: 2
  }
}
layer {
  name: "Belief_Propagation_Recurrent_Neural_Network_python_filter1"
  type: "Python"
  bottom: "cur_action_score_normalized1"
  bottom: "label_action"
  top: "cur_action_score_normalized_reshaped1"
  python_param {
    module: "filter_action"
    layer: "filter_action"
  }
}
layer {
  name: "Belief_Propagation_Recurrent_Neural_Network_python_reshape11"
  type: "Python"
  bottom: "cur_action_score1"
  top: "cur_action_score_reshaped1"
  python_param {
    module: "Message_Reshape1"
    layer: "Message_Reshape1"
  }
}
layer {
  name: "Belief_Propagation_Recurrent_Neural_Network_python_checkdiff1"
  type: "Python"
  bottom: "cur_action_score_reshaped1"
  top: "cur_action_score_reshaped_checked1"
  python_param {
    module: "check_diff"
    layer: "check_diff"
  }
}
layer {
  name: "Belief_Propagation_Recurrent_Neural_Network_graphical_edge2"
  type: "Python"
  bottom: "concat_all"
  bottom: "MessageIn1"
  bottom: "label_action"
  top: "gate_input2"
  python_param {
    module: "graphical_edge"
    layer: "graphical_edge"
  }
}
layer {
  name: "Belief_Propagation_Recurrent_Neural_Network_gate_compute2"
  type: "InnerProduct"
  bottom: "gate_input2"
  top: "gates2"
  param {
    name: "W_gh_1"
    lr_mult: 10
    decay_mult: 10
  }
  param {
    lr_mult: 20
    decay_mult: 0
  }
  inner_product_param {
    num_output: 1
    bias_term: true
    weight_filler {
      type: "uniform"
      min: -0.08
      max: 0.08
    }
    bias_filler {
      type: "constant"
      value: 0
    }
    axis: 1
  }
}
layer {
  name: "Belief_Propagation_Recurrent_Neural_Network_structured_gate2"
  type: "Python"
  bottom: "gates2"
  bottom: "MessageIn1"
  bottom: "label_action"
  top: "gated_MessageIn1"
  python_param {
    module: "structured_gate"
    layer: "structured_gate"
  }
}
layer {
  name: "Belief_Propagation_Recurrent_Neural_Network_ArrangeMessageIn2"
  type: "Python"
  bottom: "MessageIn1"
  bottom: "label_action"
  bottom: "scene_score_normalized_blocked1"
  bottom: "cur_action_score_blocked1"
  bottom: "cur_action_score_blocked1"
  top: "S_A_MessageIn2"
  top: "A_S_MessageIn2"
  top: "A_A_MessageIn2"
  python_param {
    module: "Message_In"
    layer: "Message_In"
  }
}
layer {
  name: "Belief_Propagation_Recurrent_Neural_Network_S_A_Message2"
  type: "InnerProduct"
  bottom: "S_A_MessageIn2"
  top: "S_A_MessageOut2"
  param {
    name: "W_hh_1"
    lr_mult: 10
    decay_mult: 10
  }
  param {
    lr_mult: 20
    decay_mult: 0
  }
  inner_product_param {
    num_output: 7
    bias_term: true
    weight_filler {
      type: "uniform"
      min: -0.08
      max: 0.08
    }
    bias_filler {
      type: "constant"
      value: 0
    }
    axis: 1
  }
}
layer {
  name: "Belief_Propagation_Recurrent_Neural_Network_A_S_Message2"
  type: "InnerProduct"
  bottom: "A_S_MessageIn2"
  top: "A_S_MessageOut2"
  param {
    name: "W_hh_2"
    lr_mult: 10
    decay_mult: 10
  }
  param {
    lr_mult: 20
    decay_mult: 0
  }
  inner_product_param {
    num_output: 5
    bias_term: true
    weight_filler {
      type: "uniform"
      min: -0.08
      max: 0.08
    }
    bias_filler {
      type: "constant"
      value: 0
    }
    axis: 1
  }
}
layer {
  name: "Belief_Propagation_Recurrent_Neural_Network_A_A_Message2"
  type: "InnerProduct"
  bottom: "A_A_MessageIn2"
  top: "A_A_MessageOut2"
  param {
    name: "W_hh_3"
    lr_mult: 10
    decay_mult: 10
  }
  param {
    lr_mult: 20
    decay_mult: 0
  }
  inner_product_param {
    num_output: 7
    bias_term: true
    weight_filler {
      type: "uniform"
      min: -0.08
      max: 0.08
    }
    bias_filler {
      type: "constant"
      value: 0
    }
    axis: 1
  }
}
layer {
  name: "Belief_Propagation_Recurrent_Neural_Network_Normalize_Scene_to_ActionM2"
  type: "Softmax"
  bottom: "S_A_MessageOut2"
  top: "S_A_MessageOut_normalized2"
}
layer {
  name: "Belief_Propagation_Recurrent_Neural_Network_Normalize_Action_to_SceneM2"
  type: "Softmax"
  bottom: "A_S_MessageOut2"
  top: "A_S_MessageOut_normalized2"
}
layer {
  name: "Belief_Propagation_Recurrent_Neural_Network_Normalize_Action_to_ActionM2"
  type: "Softmax"
  bottom: "A_A_MessageOut2"
  top: "A_A_MessageOut_normalized2"
}
layer {
  name: "Belief_Propagation_Recurrent_Neural_Network_ArrangeMessageOut2"
  type: "Python"
  bottom: "concat_all"
  bottom: "S_A_MessageOut_normalized2"
  bottom: "A_S_MessageOut_normalized2"
  bottom: "A_A_MessageOut_normalized2"
  bottom: "cur_action_score_normalized_reshaped1"
  bottom: "scene_score_normalized1"
  bottom: "label_action"
  top: "MessageIn2"
  top: "Message_12"
  top: "Message_22"
  python_param {
    module: "Message_Out"
    layer: "Message_Out"
  }
}
layer {
  name: "Belief_Propagation_Recurrent_Neural_Network_LB_scene2"
  type: "InnerProduct"
  bottom: "Message_12"
  top: "scene_score2"
  param {
    name: "W_ho_1"
    lr_mult: 10
    decay_mult: 10
  }
  param {
    lr_mult: 20
    decay_mult: 0
  }
  inner_product_param {
    num_output: 5
    bias_term: true
    weight_filler {
      type: "uniform"
      min: -0.08
      max: 0.08
    }
    bias_filler {
      type: "constant"
      value: 0
    }
    axis: 1
  }
}
layer {
  name: "Belief_Propagation_Recurrent_Neural_Network_Normalize_Scene_Pred2"
  type: "Softmax"
  bottom: "scene_score2"
  top: "scene_score_normalized2"
  softmax_param {
    axis: 1
  }
}
layer {
  name: "Belief_Propagation_Recurrent_Neural_Network_python_scene_block_prop2"
  type: "Python"
  bottom: "scene_score_normalized2"
  top: "scene_score_normalized_blocked2"
  python_param {
    module: "block_prop"
    layer: "block_prop"
  }
}
layer {
  name: "Belief_Propagation_Recurrent_Neural_Network_weight_scene_prev2"
  type: "EliwiseProduct"
  bottom: "scene_score_normalized_blocked2"
  top: "scene_score_normalized_weighted2"
  param {
    lr_mult: 10
    decay_mult: 10
  }
  eliwise_product_param {
    weight_filler {
      type: "uniform"
      min: -0.08
      max: 0.08
    }
  }
}
layer {
  name: "Belief_Propagation_Recurrent_Neural_Network_LB_action2"
  type: "InnerProduct"
  bottom: "Message_22"
  top: "cur_action_score2"
  param {
    name: "W_ho_2"
    lr_mult: 10
    decay_mult: 10
  }
  param {
    lr_mult: 20
    decay_mult: 0
  }
  inner_product_param {
    num_output: 7
    bias_term: true
    weight_filler {
      type: "uniform"
      min: -0.08
      max: 0.08
    }
    bias_filler {
      type: "constant"
      value: 0
    }
    axis: 2
  }
}
layer {
  name: "Belief_Propagation_Recurrent_Neural_Network_python_action_block_prop2"
  type: "Python"
  bottom: "cur_action_score2"
  top: "cur_action_score_blocked2"
  python_param {
    module: "block_prop"
    layer: "block_prop"
  }
}
layer {
  name: "Belief_Propagation_Recurrent_Neural_Network_weight_action_prev12"
  type: "EliwiseProduct"
  bottom: "cur_action_score_blocked2"
  top: "cur_action_score_weighted12"
  param {
    lr_mult: 10
    decay_mult: 10
  }
  eliwise_product_param {
    weight_filler {
      type: "uniform"
      min: -0.08
      max: 0.08
    }
  }
}
layer {
  name: "Belief_Propagation_Recurrent_Neural_Network_weight_action_prev22"
  type: "EliwiseProduct"
  bottom: "cur_action_score_blocked2"
  top: "cur_action_score_weighted22"
  param {
    lr_mult: 10
    decay_mult: 10
  }
  eliwise_product_param {
    weight_filler {
      type: "uniform"
      min: -0.08
      max: 0.08
    }
  }
}
layer {
  name: "Belief_Propagation_Recurrent_Neural_Network_Normalize_Action_Pred2"
  type: "Softmax"
  bottom: "cur_action_score2"
  top: "cur_action_score_normalized2"
  softmax_param {
    axis: 2
  }
}
layer {
  name: "Belief_Propagation_Recurrent_Neural_Network_python_filter2"
  type: "Python"
  bottom: "cur_action_score_normalized2"
  bottom: "label_action"
  top: "cur_action_score_normalized_reshaped2"
  python_param {
    module: "filter_action"
    layer: "filter_action"
  }
}
layer {
  name: "Belief_Propagation_Recurrent_Neural_Network_python_reshape12"
  type: "Python"
  bottom: "cur_action_score2"
  top: "cur_action_score_reshaped2"
  python_param {
    module: "Message_Reshape1"
    layer: "Message_Reshape1"
  }
}
layer {
  name: "Belief_Propagation_Recurrent_Neural_Network_python_checkdiff2"
  type: "Python"
  bottom: "cur_action_score_reshaped2"
  top: "cur_action_score_reshaped_checked2"
  python_param {
    module: "check_diff"
    layer: "check_diff"
  }
}
layer {
  name: "Belief_Propagation_Recurrent_Neural_Network_graphical_edge3"
  type: "Python"
  bottom: "concat_all"
  bottom: "MessageIn2"
  bottom: "label_action"
  top: "gate_input3"
  python_param {
    module: "graphical_edge"
    layer: "graphical_edge"
  }
}
layer {
  name: "Belief_Propagation_Recurrent_Neural_Network_gate_compute3"
  type: "InnerProduct"
  bottom: "gate_input3"
  top: "gates3"
  param {
    name: "W_gh_1"
    lr_mult: 10
    decay_mult: 10
  }
  param {
    lr_mult: 20
    decay_mult: 0
  }
  inner_product_param {
    num_output: 1
    bias_term: true
    weight_filler {
      type: "uniform"
      min: -0.08
      max: 0.08
    }
    bias_filler {
      type: "constant"
      value: 0
    }
    axis: 1
  }
}
layer {
  name: "Belief_Propagation_Recurrent_Neural_Network_structured_gate3"
  type: "Python"
  bottom: "gates3"
  bottom: "MessageIn2"
  bottom: "label_action"
  top: "gated_MessageIn2"
  python_param {
    module: "structured_gate"
    layer: "structured_gate"
  }
}
layer {
  name: "Belief_Propagation_Recurrent_Neural_Network_ArrangeMessageIn3"
  type: "Python"
  bottom: "MessageIn2"
  bottom: "label_action"
  bottom: "scene_score_normalized_blocked2"
  bottom: "cur_action_score_blocked2"
  bottom: "cur_action_score_blocked2"
  top: "S_A_MessageIn3"
  top: "A_S_MessageIn3"
  top: "A_A_MessageIn3"
  python_param {
    module: "Message_In"
    layer: "Message_In"
  }
}
layer {
  name: "Belief_Propagation_Recurrent_Neural_Network_S_A_Message3"
  type: "InnerProduct"
  bottom: "S_A_MessageIn3"
  top: "S_A_MessageOut3"
  param {
    name: "W_hh_1"
    lr_mult: 10
    decay_mult: 10
  }
  param {
    lr_mult: 20
    decay_mult: 0
  }
  inner_product_param {
    num_output: 7
    bias_term: true
    weight_filler {
      type: "uniform"
      min: -0.08
      max: 0.08
    }
    bias_filler {
      type: "constant"
      value: 0
    }
    axis: 1
  }
}
layer {
  name: "Belief_Propagation_Recurrent_Neural_Network_A_S_Message3"
  type: "InnerProduct"
  bottom: "A_S_MessageIn3"
  top: "A_S_MessageOut3"
  param {
    name: "W_hh_2"
    lr_mult: 10
    decay_mult: 10
  }
  param {
    lr_mult: 20
    decay_mult: 0
  }
  inner_product_param {
    num_output: 5
    bias_term: true
    weight_filler {
      type: "uniform"
      min: -0.08
      max: 0.08
    }
    bias_filler {
      type: "constant"
      value: 0
    }
    axis: 1
  }
}
layer {
  name: "Belief_Propagation_Recurrent_Neural_Network_A_A_Message3"
  type: "InnerProduct"
  bottom: "A_A_MessageIn3"
  top: "A_A_MessageOut3"
  param {
    name: "W_hh_3"
    lr_mult: 10
    decay_mult: 10
  }
  param {
    lr_mult: 20
    decay_mult: 0
  }
  inner_product_param {
    num_output: 7
    bias_term: true
    weight_filler {
      type: "uniform"
      min: -0.08
      max: 0.08
    }
    bias_filler {
      type: "constant"
      value: 0
    }
    axis: 1
  }
}
layer {
  name: "Belief_Propagation_Recurrent_Neural_Network_Normalize_Scene_to_ActionM3"
  type: "Softmax"
  bottom: "S_A_MessageOut3"
  top: "S_A_MessageOut_normalized3"
}
layer {
  name: "Belief_Propagation_Recurrent_Neural_Network_Normalize_Action_to_SceneM3"
  type: "Softmax"
  bottom: "A_S_MessageOut3"
  top: "A_S_MessageOut_normalized3"
}
layer {
  name: "Belief_Propagation_Recurrent_Neural_Network_Normalize_Action_to_ActionM3"
  type: "Softmax"
  bottom: "A_A_MessageOut3"
  top: "A_A_MessageOut_normalized3"
}
layer {
  name: "Belief_Propagation_Recurrent_Neural_Network_ArrangeMessageOut3"
  type: "Python"
  bottom: "concat_all"
  bottom: "S_A_MessageOut_normalized3"
  bottom: "A_S_MessageOut_normalized3"
  bottom: "A_A_MessageOut_normalized3"
  bottom: "cur_action_score_normalized_reshaped2"
  bottom: "scene_score_normalized2"
  bottom: "label_action"
  top: "MessageIn3"
  top: "Message_13"
  top: "Message_23"
  python_param {
    module: "Message_Out"
    layer: "Message_Out"
  }
}
layer {
  name: "Belief_Propagation_Recurrent_Neural_Network_LB_scene3"
  type: "InnerProduct"
  bottom: "Message_13"
  top: "scene_score3"
  param {
    name: "W_ho_1"
    lr_mult: 10
    decay_mult: 10
  }
  param {
    lr_mult: 20
    decay_mult: 0
  }
  inner_product_param {
    num_output: 5
    bias_term: true
    weight_filler {
      type: "uniform"
      min: -0.08
      max: 0.08
    }
    bias_filler {
      type: "constant"
      value: 0
    }
    axis: 1
  }
}
layer {
  name: "Belief_Propagation_Recurrent_Neural_Network_Normalize_Scene_Pred3"
  type: "Softmax"
  bottom: "scene_score3"
  top: "scene_score_normalized3"
  softmax_param {
    axis: 1
  }
}
layer {
  name: "Belief_Propagation_Recurrent_Neural_Network_python_scene_block_prop3"
  type: "Python"
  bottom: "scene_score_normalized3"
  top: "scene_score_normalized_blocked3"
  python_param {
    module: "block_prop"
    layer: "block_prop"
  }
}
layer {
  name: "Belief_Propagation_Recurrent_Neural_Network_weight_scene_prev3"
  type: "EliwiseProduct"
  bottom: "scene_score_normalized_blocked3"
  top: "scene_score_normalized_weighted3"
  param {
    lr_mult: 10
    decay_mult: 10
  }
  eliwise_product_param {
    weight_filler {
      type: "uniform"
      min: -0.08
      max: 0.08
    }
  }
}
layer {
  name: "Belief_Propagation_Recurrent_Neural_Network_LB_action3"
  type: "InnerProduct"
  bottom: "Message_23"
  top: "cur_action_score3"
  param {
    name: "W_ho_2"
    lr_mult: 10
    decay_mult: 10
  }
  param {
    lr_mult: 20
    decay_mult: 0
  }
  inner_product_param {
    num_output: 7
    bias_term: true
    weight_filler {
      type: "uniform"
      min: -0.08
      max: 0.08
    }
    bias_filler {
      type: "constant"
      value: 0
    }
    axis: 2
  }
}
layer {
  name: "Belief_Propagation_Recurrent_Neural_Network_python_action_block_prop3"
  type: "Python"
  bottom: "cur_action_score3"
  top: "cur_action_score_blocked3"
  python_param {
    module: "block_prop"
    layer: "block_prop"
  }
}
layer {
  name: "Belief_Propagation_Recurrent_Neural_Network_weight_action_prev13"
  type: "EliwiseProduct"
  bottom: "cur_action_score_blocked3"
  top: "cur_action_score_weighted13"
  param {
    lr_mult: 10
    decay_mult: 10
  }
  eliwise_product_param {
    weight_filler {
      type: "uniform"
      min: -0.08
      max: 0.08
    }
  }
}
layer {
  name: "Belief_Propagation_Recurrent_Neural_Network_weight_action_prev23"
  type: "EliwiseProduct"
  bottom: "cur_action_score_blocked3"
  top: "cur_action_score_weighted23"
  param {
    lr_mult: 10
    decay_mult: 10
  }
  eliwise_product_param {
    weight_filler {
      type: "uniform"
      min: -0.08
      max: 0.08
    }
  }
}
layer {
  name: "Belief_Propagation_Recurrent_Neural_Network_Normalize_Action_Pred3"
  type: "Softmax"
  bottom: "cur_action_score3"
  top: "cur_action_score_normalized3"
  softmax_param {
    axis: 2
  }
}
layer {
  name: "Belief_Propagation_Recurrent_Neural_Network_python_filter3"
  type: "Python"
  bottom: "cur_action_score_normalized3"
  bottom: "label_action"
  top: "cur_action_score_normalized_reshaped3"
  python_param {
    module: "filter_action"
    layer: "filter_action"
  }
}
layer {
  name: "Belief_Propagation_Recurrent_Neural_Network_python_reshape13"
  type: "Python"
  bottom: "cur_action_score3"
  top: "cur_action_score_reshaped3"
  python_param {
    module: "Message_Reshape1"
    layer: "Message_Reshape1"
  }
}
layer {
  name: "Belief_Propagation_Recurrent_Neural_Network_python_checkdiff3"
  type: "Python"
  bottom: "cur_action_score_reshaped3"
  top: "cur_action_score_reshaped_checked3"
  python_param {
    module: "check_diff"
    layer: "check_diff"
  }
}
layer {
  name: "Belief_Propagation_Recurrent_Neural_Network_graphical_edge4"
  type: "Python"
  bottom: "concat_all"
  bottom: "MessageIn3"
  bottom: "label_action"
  top: "gate_input4"
  python_param {
    module: "graphical_edge"
    layer: "graphical_edge"
  }
}
layer {
  name: "Belief_Propagation_Recurrent_Neural_Network_gate_compute4"
  type: "InnerProduct"
  bottom: "gate_input4"
  top: "gates4"
  param {
    name: "W_gh_1"
    lr_mult: 10
    decay_mult: 10
  }
  param {
    lr_mult: 20
    decay_mult: 0
  }
  inner_product_param {
    num_output: 1
    bias_term: true
    weight_filler {
      type: "uniform"
      min: -0.08
      max: 0.08
    }
    bias_filler {
      type: "constant"
      value: 0
    }
    axis: 1
  }
}
layer {
  name: "Belief_Propagation_Recurrent_Neural_Network_structured_gate4"
  type: "Python"
  bottom: "gates4"
  bottom: "MessageIn3"
  bottom: "label_action"
  top: "gated_MessageIn3"
  python_param {
    module: "structured_gate"
    layer: "structured_gate"
  }
}
layer {
  name: "Belief_Propagation_Recurrent_Neural_Network_ArrangeMessageIn4"
  type: "Python"
  bottom: "MessageIn3"
  bottom: "label_action"
  bottom: "scene_score_normalized_blocked3"
  bottom: "cur_action_score_blocked3"
  bottom: "cur_action_score_blocked3"
  top: "S_A_MessageIn4"
  top: "A_S_MessageIn4"
  top: "A_A_MessageIn4"
  python_param {
    module: "Message_In"
    layer: "Message_In"
  }
}
layer {
  name: "Belief_Propagation_Recurrent_Neural_Network_S_A_Message4"
  type: "InnerProduct"
  bottom: "S_A_MessageIn4"
  top: "S_A_MessageOut4"
  param {
    name: "W_hh_1"
    lr_mult: 10
    decay_mult: 10
  }
  param {
    lr_mult: 20
    decay_mult: 0
  }
  inner_product_param {
    num_output: 7
    bias_term: true
    weight_filler {
      type: "uniform"
      min: -0.08
      max: 0.08
    }
    bias_filler {
      type: "constant"
      value: 0
    }
    axis: 1
  }
}
layer {
  name: "Belief_Propagation_Recurrent_Neural_Network_A_S_Message4"
  type: "InnerProduct"
  bottom: "A_S_MessageIn4"
  top: "A_S_MessageOut4"
  param {
    name: "W_hh_2"
    lr_mult: 10
    decay_mult: 10
  }
  param {
    lr_mult: 20
    decay_mult: 0
  }
  inner_product_param {
    num_output: 5
    bias_term: true
    weight_filler {
      type: "uniform"
      min: -0.08
      max: 0.08
    }
    bias_filler {
      type: "constant"
      value: 0
    }
    axis: 1
  }
}
layer {
  name: "Belief_Propagation_Recurrent_Neural_Network_A_A_Message4"
  type: "InnerProduct"
  bottom: "A_A_MessageIn4"
  top: "A_A_MessageOut4"
  param {
    name: "W_hh_3"
    lr_mult: 10
    decay_mult: 10
  }
  param {
    lr_mult: 20
    decay_mult: 0
  }
  inner_product_param {
    num_output: 7
    bias_term: true
    weight_filler {
      type: "uniform"
      min: -0.08
      max: 0.08
    }
    bias_filler {
      type: "constant"
      value: 0
    }
    axis: 1
  }
}
layer {
  name: "Belief_Propagation_Recurrent_Neural_Network_Normalize_Scene_to_ActionM4"
  type: "Softmax"
  bottom: "S_A_MessageOut4"
  top: "S_A_MessageOut_normalized4"
}
layer {
  name: "Belief_Propagation_Recurrent_Neural_Network_Normalize_Action_to_SceneM4"
  type: "Softmax"
  bottom: "A_S_MessageOut4"
  top: "A_S_MessageOut_normalized4"
}
layer {
  name: "Belief_Propagation_Recurrent_Neural_Network_Normalize_Action_to_ActionM4"
  type: "Softmax"
  bottom: "A_A_MessageOut4"
  top: "A_A_MessageOut_normalized4"
}
layer {
  name: "Belief_Propagation_Recurrent_Neural_Network_ArrangeMessageOut4"
  type: "Python"
  bottom: "concat_all"
  bottom: "S_A_MessageOut_normalized4"
  bottom: "A_S_MessageOut_normalized4"
  bottom: "A_A_MessageOut_normalized4"
  bottom: "cur_action_score_normalized_reshaped3"
  bottom: "scene_score_normalized3"
  bottom: "label_action"
  top: "MessageIn4"
  top: "Message_14"
  top: "Message_24"
  python_param {
    module: "Message_Out"
    layer: "Message_Out"
  }
}
layer {
  name: "Belief_Propagation_Recurrent_Neural_Network_LB_scene4"
  type: "InnerProduct"
  bottom: "Message_14"
  top: "scene_score4"
  param {
    name: "W_ho_1"
    lr_mult: 10
    decay_mult: 10
  }
  param {
    lr_mult: 20
    decay_mult: 0
  }
  inner_product_param {
    num_output: 5
    bias_term: true
    weight_filler {
      type: "uniform"
      min: -0.08
      max: 0.08
    }
    bias_filler {
      type: "constant"
      value: 0
    }
    axis: 1
  }
}
layer {
  name: "Belief_Propagation_Recurrent_Neural_Network_Normalize_Scene_Pred4"
  type: "Softmax"
  bottom: "scene_score4"
  top: "scene_score_normalized4"
  softmax_param {
    axis: 1
  }
}
layer {
  name: "Belief_Propagation_Recurrent_Neural_Network_python_scene_block_prop4"
  type: "Python"
  bottom: "scene_score_normalized4"
  top: "scene_score_normalized_blocked4"
  python_param {
    module: "block_prop"
    layer: "block_prop"
  }
}
layer {
  name: "Belief_Propagation_Recurrent_Neural_Network_weight_scene_prev4"
  type: "EliwiseProduct"
  bottom: "scene_score_normalized_blocked4"
  top: "scene_score_normalized_weighted4"
  param {
    lr_mult: 10
    decay_mult: 10
  }
  eliwise_product_param {
    weight_filler {
      type: "uniform"
      min: -0.08
      max: 0.08
    }
  }
}
layer {
  name: "Belief_Propagation_Recurrent_Neural_Network_LB_action4"
  type: "InnerProduct"
  bottom: "Message_24"
  top: "cur_action_score4"
  param {
    name: "W_ho_2"
    lr_mult: 10
    decay_mult: 10
  }
  param {
    lr_mult: 20
    decay_mult: 0
  }
  inner_product_param {
    num_output: 7
    bias_term: true
    weight_filler {
      type: "uniform"
      min: -0.08
      max: 0.08
    }
    bias_filler {
      type: "constant"
      value: 0
    }
    axis: 2
  }
}
layer {
  name: "Belief_Propagation_Recurrent_Neural_Network_python_action_block_prop4"
  type: "Python"
  bottom: "cur_action_score4"
  top: "cur_action_score_blocked4"
  python_param {
    module: "block_prop"
    layer: "block_prop"
  }
}
layer {
  name: "Belief_Propagation_Recurrent_Neural_Network_weight_action_prev14"
  type: "EliwiseProduct"
  bottom: "cur_action_score_blocked4"
  top: "cur_action_score_weighted14"
  param {
    lr_mult: 10
    decay_mult: 10
  }
  eliwise_product_param {
    weight_filler {
      type: "uniform"
      min: -0.08
      max: 0.08
    }
  }
}
layer {
  name: "Belief_Propagation_Recurrent_Neural_Network_weight_action_prev24"
  type: "EliwiseProduct"
  bottom: "cur_action_score_blocked4"
  top: "cur_action_score_weighted24"
  param {
    lr_mult: 10
    decay_mult: 10
  }
  eliwise_product_param {
    weight_filler {
      type: "uniform"
      min: -0.08
      max: 0.08
    }
  }
}
layer {
  name: "Belief_Propagation_Recurrent_Neural_Network_Normalize_Action_Pred4"
  type: "Softmax"
  bottom: "cur_action_score4"
  top: "cur_action_score_normalized4"
  softmax_param {
    axis: 2
  }
}
layer {
  name: "Belief_Propagation_Recurrent_Neural_Network_python_filter4"
  type: "Python"
  bottom: "cur_action_score_normalized4"
  bottom: "label_action"
  top: "cur_action_score_normalized_reshaped4"
  python_param {
    module: "filter_action"
    layer: "filter_action"
  }
}
layer {
  name: "Belief_Propagation_Recurrent_Neural_Network_python_reshape14"
  type: "Python"
  bottom: "cur_action_score4"
  top: "cur_action_score_reshaped4"
  python_param {
    module: "Message_Reshape1"
    layer: "Message_Reshape1"
  }
}
layer {
  name: "Belief_Propagation_Recurrent_Neural_Network_python_checkdiff4"
  type: "Python"
  bottom: "cur_action_score_reshaped4"
  top: "cur_action_score_reshaped_checked4"
  python_param {
    module: "check_diff"
    layer: "check_diff"
  }
}
layer {
  name: "Belief_Propagation_Recurrent_Neural_Network_graphical_edge5"
  type: "Python"
  bottom: "concat_all"
  bottom: "MessageIn4"
  bottom: "label_ac
I0922 13:37:12.907902 15092 net.cpp:344] Input 0 -> MessageIn0
I0922 13:37:12.907915 15092 net.cpp:344] Input 1 -> Initial_Messages
I0922 13:37:12.907922 15092 net.cpp:344] Input 2 -> label_action
I0922 13:37:12.907928 15092 net.cpp:344] Input 3 -> fc8_context
I0922 13:37:12.907934 15092 net.cpp:344] Input 4 -> concat_all
I0922 13:37:12.907960 15092 layer_factory.hpp:74] Creating layer label_action_input_2_split
…
I0922 13:37:12.908186 15092 net.cpp:342] label_action_input_2_split -> label_action_input_2_split_23
I0922 13:37:12.908195 15092 net.cpp:342] label_action_input_2_split -> label_action_input_2_split_24
I0922 13:37:12.908203 15092 net.cpp:342] label_action_input_2_split -> label_action_input_2_split_25
I0922 13:37:12.908211 15092 net.cpp:342] label_action_input_2_split -> label_action_input_2_split_26
I0922 13:37:12.908220 15092 net.cpp:342] label_action_input_2_split -> label_action_input_2_split_27
I0922 13:37:12.908228 15092 net.cpp:113] Setting up label_action_input_2_split
I0922 13:37:12.908243 15092 net.cpp:120] Top shape: 70 (70)
I0922 13:37:12.908251 15092 net.cpp:120] Top shape: 70 (70)
I0922 13:37:12.908255 15092 net.cpp:120] Top shape: 70 (70)
I0922 13:37:12.908259 15092 net.cpp:120] Top shape: 70 (70)
I0922 13:37:12.908264 15092 net.cpp:120] Top shape: 70 (70)
I0922 13:37:12.908269 15092 net.cpp:120] Top shape: 70 (70)
I0922 13:37:12.908274 15092 net.cpp:120] Top shape: 70 (70)
I0922 13:37:12.908278 15092 net.cpp:120] Top shape: 70 (70)
I0922 13:37:12.908283 15092 net.cpp:120] Top shape: 70 (70)
I0922 13:37:12.908288 15092 net.cpp:120] Top shape: 70 (70)
I0922 13:37:12.908293 15092 net.cpp:120] Top shape: 70 (70)
I0922 13:37:12.908298 15092 net.cpp:120] Top shape: 70 (70)
I0922 13:37:12.908303 15092 net.cpp:120] Top shape: 70 (70)
I0922 13:37:12.908308 15092 net.cpp:120] Top shape: 70 (70)
I0922 13:37:12.908311 15092 net.cpp:120] Top shape: 70 (70)
I0922 13:37:12.908316 15092 net.cpp:120] Top shape: 70 (70)
I0922 13:37:12.908321 15092 net.cpp:120] Top shape: 70 (70)
I0922 13:37:12.908325 15092 net.cpp:120] Top shape: 70 (70)
I0922 13:37:12.908330 15092 net.cpp:120] Top shape: 70 (70)
I0922 13:37:12.908335 15092 net.cpp:120] Top shape: 70 (70)
I0922 13:37:12.908339 15092 net.cpp:120] Top shape: 70 (70)
I0922 13:37:12.908344 15092 net.cpp:120] Top shape: 70 (70)
I0922 13:37:12.908349 15092 net.cpp:120] Top shape: 70 (70)
I0922 13:37:12.908354 15092 net.cpp:120] Top shape: 70 (70)
I0922 13:37:12.908359 15092 net.cpp:120] Top shape: 70 (70)
I0922 13:37:12.908363 15092 net.cpp:120] Top shape: 70 (70)
I0922 13:37:12.908367 15092 net.cpp:120] Top shape: 70 (70)
I0922 13:37:12.908372 15092 net.cpp:120] Top shape: 70 (70)
I0922 13:37:12.908376 15092 layer_factory.hpp:74] Creating layer concat_all_input_4_split
I0922 13:37:12.908383 15092 net.cpp:84] Creating Layer concat_all_input_4_split
I0922 13:37:12.908388 15092 net.cpp:384] concat_all_input_4_split <- concat_all
I0922 13:37:12.908396 15092 net.cpp:342] concat_all_input_4_split -> concat_all_input_4_split_0
I0922 13:37:12.908404 15092 net.cpp:342] concat_all_input_4_split -> concat_all_input_4_split_1
…
I0922 13:37:12.908459 15092 net.cpp:342] concat_all_input_4_split -> concat_all_input_4_split_7
I0922 13:37:12.908466 15092 net.cpp:342] concat_all_input_4_split -> concat_all_input_4_split_8
I0922 13:37:12.908473 15092 net.cpp:342] concat_all_input_4_split -> concat_all_input_4_split_9
I0922 13:37:12.908485 15092 net.cpp:342] concat_all_input_4_split -> concat_all_input_4_split_10
I0922 13:37:12.908493 15092 net.cpp:342] concat_all_input_4_split -> concat_all_input_4_split_11
I0922 13:37:12.908499 15092 net.cpp:113] Setting up concat_all_input_4_split
I0922 13:37:12.908511 15092 net.cpp:120] Top shape: 5 103 (515)
I0922 13:37:12.908517 15092 net.cpp:120] Top shape: 5 103 (515)
I0922 13:37:12.908522 15092 net.cpp:120] Top shape: 5 103 (515)
I0922 13:37:12.908526 15092 net.cpp:120] Top shape: 5 103 (515)
I0922 13:37:12.908531 15092 net.cpp:120] Top shape: 5 103 (515)
I0922 13:37:12.908536 15092 net.cpp:120] Top shape: 5 103 (515)
I0922 13:37:12.908540 15092 net.cpp:120] Top shape: 5 103 (515)
I0922 13:37:12.908545 15092 net.cpp:120] Top shape: 5 103 (515)
I0922 13:37:12.908550 15092 net.cpp:120] Top shape: 5 103 (515)
I0922 13:37:12.908555 15092 net.cpp:120] Top shape: 5 103 (515)
I0922 13:37:12.908560 15092 net.cpp:120] Top shape: 5 103 (515)
I0922 13:37:12.908563 15092 net.cpp:120] Top shape: 5 103 (515)
I0922 13:37:12.908568 15092 layer_factory.hpp:74] Creating layer Belief_Propagation_Recurrent_Neural_Network_slice_action_frame_0
I0922 13:37:12.908576 15092 net.cpp:84] Creating Layer Belief_Propagation_Recurrent_Neural_Network_slice_action_frame_0
I0922 13:37:12.908581 15092 net.cpp:384] Belief_Propagation_Recurrent_Neural_Network_slice_action_frame_0 <- concat_all_input_4_split_0
I0922 13:37:12.908588 15092 net.cpp:342] Belief_Propagation_Recurrent_Neural_Network_slice_action_frame_0 -> scene_score_normalized0
I0922 13:37:12.908598 15092 net.cpp:342] Belief_Propagation_Recurrent_Neural_Network_slice_action_frame_0 -> cur_action_score_normalized_reshaped0
I0922 13:37:12.908606 15092 net.cpp:113] Setting up Belief_Propagation_Recurrent_Neural_Network_slice_action_frame_0
I0922 13:37:12.908617 15092 net.cpp:120] Top shape: 5 5 (25)
I0922 13:37:12.908622 15092 net.cpp:120] Top shape: 5 98 (490)
I0922 13:37:12.908625 15092 layer_factory.hpp:74] Creating layer Belief_Propagation_Recurrent_Neural_Network_ArrangeMessageIn1
I0922 13:37:12.910578 15092 net.cpp:84] Creating Layer Belief_Propagation_Recurrent_Neural_Network_ArrangeMessageIn1
I0922 13:37:12.910593 15092 net.cpp:384] Belief_Propagation_Recurrent_Neural_Network_ArrangeMessageIn1 <- Initial_Messages
I0922 13:37:12.910604 15092 net.cpp:384] Belief_Propagation_Recurrent_Neural_Network_ArrangeMessageIn1 <- label_action_input_2_split_0
I0922 13:37:12.910616 15092 net.cpp:342] Belief_Propagation_Recurrent_Neural_Network_ArrangeMessageIn1 -> S_A_MessageIn1
I0922 13:37:12.910630 15092 net.cpp:342] Belief_Propagation_Recurrent_Neural_Network_ArrangeMessageIn1 -> A_S_MessageIn1
I0922 13:37:12.910642 15092 net.cpp:342] Belief_Propagation_Recurrent_Neural_Network_ArrangeMessageIn1 -> A_A_MessageIn1
I0922 13:37:12.910653 15092 net.cpp:113] Setting up Belief_Propagation_Recurrent_Neural_Network_ArrangeMessageIn1
I0922 13:37:12.910725 15092 net.cpp:120] Top shape: 70 5 (350)
I0922 13:37:12.910740 15092 net.cpp:120] Top shape: 70 7 (490)
I0922 13:37:12.910749 15092 net.cpp:120] Top shape: 980 7 (6860)
I0922 13:37:12.910758 15092 layer_factory.hpp:74] Creating layer Belief_Propagation_Recurrent_Neural_Network_S_A_Message1
I0922 13:37:12.910770 15092 net.cpp:84] Creating Layer Belief_Propagation_Recurrent_Neural_Network_S_A_Message1
I0922 13:37:12.910778 15092 net.cpp:384] Belief_Propagation_Recurrent_Neural_Network_S_A_Message1 <- S_A_MessageIn1
I0922 13:37:12.910795 15092 net.cpp:342] Belief_Propagation_Recurrent_Neural_Network_S_A_Message1 -> S_A_MessageOut1
I0922 13:37:12.910825 15092 net.cpp:113] Setting up Belief_Propagation_Recurrent_Neural_Network_S_A_Message1
I0922 13:37:12.910861 15092 net.cpp:120] Top shape: 70 7 (490)
I0922 13:37:12.910881 15092 layer_factory.hpp:74] Creating layer Belief_Propagation_Recurrent_Neural_Network_A_S_Message1
I0922 13:37:12.910893 15092 net.cpp:84] Creating Layer Belief_Propagation_Recurrent_Neural_Network_A_S_Message1
I0922 13:37:12.910902 15092 net.cpp:384] Belief_Propagation_Recurrent_Neural_Network_A_S_Message1 <- A_S_MessageIn1
I0922 13:37:12.910913 15092 net.cpp:342] Belief_Propagation_Recurrent_Neural_Network_A_S_Message1 -> A_S_MessageOut1
I0922 13:37:12.910925 15092 net.cpp:113] Setting up Belief_Propagation_Recurrent_Neural_Network_A_S_Message1
I0922 13:37:12.910943 15092 net.cpp:120] Top shape: 70 5 (350)
I0922 13:37:12.910955 15092 layer_factory.hpp:74] Creating layer Belief_Propagation_Recurrent_Neural_Network_A_A_Message1
I0922 13:37:12.910966 15092 net.cpp:84] Creating Layer Belief_Propagation_Recurrent_Neural_Network_A_A_Message1
I0922 13:37:12.910974 15092 net.cpp:384] Belief_Propagation_Recurrent_Neural_Network_A_A_Message1 <- A_A_MessageIn1
I0922 13:37:12.910985 15092 net.cpp:342] Belief_Propagation_Recurrent_Neural_Network_A_A_Message1 -> A_A_MessageOut1
I0922 13:37:12.910996 15092 net.cpp:113] Setting up Belief_Propagation_Recurrent_Neural_Network_A_A_Message1
I0922 13:37:12.911015 15092 net.cpp:120] Top shape: 980 7 (6860)
I0922 13:37:12.911028 15092 layer_factory.hpp:74] Creating layer Belief_Propagation_Recurrent_Neural_Network_Normalize_Scene_to_ActionM1
I0922 13:37:12.911039 15092 net.cpp:84] Creating Layer Belief_Propagation_Recurrent_Neural_Network_Normalize_Scene_to_ActionM1
I0922 13:37:12.911046 15092 net.cpp:384] Belief_Propagation_Recurrent_Neural_Network_Normalize_Scene_to_ActionM1 <- S_A_MessageOut1
I0922 13:37:12.911056 15092 net.cpp:342] Belief_Propagation_Recurrent_Neural_Network_Normalize_Scene_to_ActionM1 -> S_A_MessageOut_normalized1
I0922 13:37:12.911067 15092 net.cpp:113] Setting up Belief_Propagation_Recurrent_Neural_Network_Normalize_Scene_to_ActionM1
I0922 13:37:12.911079 15092 net.cpp:120] Top shape: 70 7 (490)
I0922 13:37:12.911087 15092 layer_factory.hpp:74] Creating layer Belief_Propagation_Recurrent_Neural_Network_Normalize_Action_to_SceneM1
I0922 13:37:12.911097 15092 net.cpp:84] Creating Layer Belief_Propagation_Recurrent_Neural_Network_Normalize_Action_to_SceneM1
I0922 13:37:12.911104 15092 net.cpp:384] Belief_Propagation_Recurrent_Neural_Network_Normalize_Action_to_SceneM1 <- A_S_MessageOut1
I0922 13:37:12.911114 15092 net.cpp:342] Belief_Propagation_Recurrent_Neural_Network_Normalize_Action_to_SceneM1 -> A_S_MessageOut_normalized1
I0922 13:37:12.911124 15092 net.cpp:113] Setting up Belief_Propagation_Recurrent_Neural_Network_Normalize_Action_to_SceneM1
I0922 13:37:12.911136 15092 net.cpp:120] Top shape: 70 5 (350)
I0922 13:37:12.911144 15092 layer_factory.hpp:74] Creating layer Belief_Propagation_Recurrent_Neural_Network_Normalize_Action_to_ActionM1
I0922 13:37:12.911152 15092 net.cpp:84] Creating Layer Belief_Propagation_Recurrent_Neural_Network_Normalize_Action_to_ActionM1
I0922 13:37:12.911159 15092 net.cpp:384] Belief_Propagation_Recurrent_Neural_Network_Normalize_Action_to_ActionM1 <- A_A_MessageOut1
I0922 13:37:12.911172 15092 net.cpp:342] Belief_Propagation_Recurrent_Neural_Network_Normalize_Action_to_ActionM1 -> A_A_MessageOut_normalized1
I0922 13:37:12.911183 15092 net.cpp:113] Setting up Belief_Propagation_Recurrent_Neural_Network_Normalize_Action_to_ActionM1
I0922 13:37:12.911195 15092 net.cpp:120] Top shape: 980 7 (6860)
I0922 13:37:12.911202 15092 layer_factory.hpp:74] Creating layer Belief_Propagation_Recurrent_Neural_Network_ArrangeMessageOut1
I0922 13:37:12.913156 15092 net.cpp:84] Creating Layer Belief_Propagation_Recurrent_Neural_Network_ArrangeMessageOut1
I0922 13:37:12.913172 15092 net.cpp:384] Belief_Propagation_Recurrent_Neural_Network_ArrangeMessageOut1 <- concat_all_input_4_split_1
I0922 13:37:12.913187 15092 net.cpp:384] Belief_Propagation_Recurrent_Neural_Network_ArrangeMessageOut1 <- S_A_MessageOut_normalized1
…
I0922 13:37:12.913246 15092 net.cpp:384] Belief_Propagation_Recurrent_Neural_Network_ArrangeMessageOut1 <- label_action_input_2_split_1
I0922 13:37:12.913257 15092 net.cpp:342] Belief_Propagation_Recurrent_Neural_Network_ArrangeMessageOut1 -> MessageIn1
I0922 13:37:12.913272 15092 net.cpp:342] Belief_Propagation_Recurrent_Neural_Network_ArrangeMessageOut1 -> Message_11
I0922 13:37:12.913285 15092 net.cpp:342] Belief_Propagation_Recurrent_Neural_Network_ArrangeMessageOut1 -> Message_21
I0922 13:37:12.913297 15092 net.cpp:113] Setting up Belief_Propagation_Recurrent_Neural_Network_ArrangeMessageOut1
I0922 13:37:12.913367 15092 net.cpp:120] Top shape: 5 1545 (7725)
I0922 13:37:12.913380 15092 net.cpp:120] Top shape: 5 75 (375)
I0922 13:37:12.913389 15092 net.cpp:120] Top shape: 5 14 105 (7350)
I0922 13:37:12.913398 15092 layer_factory.hpp:74] Creating layer MessageIn1_Belief_Propagation_Recurrent_Neural_Network_ArrangeMessageOut1_0_split
I0922 13:37:12.913408 15092 net.cpp:84] Creating Layer MessageIn1_Belief_Propagation_Recurrent_Neural_Network_ArrangeMessageOut1_0_split
I0922 13:37:12.913415 15092 net.cpp:384] MessageIn1_Belief_Propagation_Recurrent_Neural_Network_ArrangeMessageOut1_0_split <- MessageIn1
I0922 13:37:12.913426 15092 net.cpp:342] MessageIn1_Belief_Propagation_Recurrent_Neural_Network_ArrangeMessageOut1_0_split -> MessageIn1_Belief_Propagation_Recurrent_Neural_Network_ArrangeMessageOut1_0_split_0
I0922 13:37:12.913439 15092 net.cpp:342] MessageIn1_Belief_Propagation_Recurrent_Neural_Network_ArrangeMessageOut1_0_split -> MessageIn1_Belief_Propagation_Recurrent_Neural_Network_ArrangeMessageOut1_0_split_1
I0922 13:37:12.913451 15092 net.cpp:342] MessageIn1_Belief_Propagation_Recurrent_Neural_Network_ArrangeMessageOut1_0_split -> MessageIn1_Belief_Propagation_Recurrent_Neural_Network_ArrangeMessageOut1_0_split_2
I0922 13:37:12.913463 15092 net.cpp:113] Setting up MessageIn1_Belief_Propagation_Recurrent_Neural_Network_ArrangeMessageOut1_0_split
I0922 13:37:12.913475 15092 net.cpp:120] Top shape: 5 1545 (7725)
I0922 13:37:12.913494 15092 net.cpp:120] Top shape: 5 1545 (7725)
I0922 13:37:12.913503 15092 net.cpp:120] Top shape: 5 1545 (7725)
I0922 13:37:12.913511 15092 layer_factory.hpp:74] Creating layer Belief_Propagation_Recurrent_Neural_Network_LB_scene1
I0922 13:37:12.913522 15092 net.cpp:84] Creating Layer Belief_Propagation_Recurrent_Neural_Network_LB_scene1
I0922 13:37:12.913529 15092 net.cpp:384] Belief_Propagation_Recurrent_Neural_Network_LB_scene1 <- Message_11
I0922 13:37:12.913542 15092 net.cpp:342] Belief_Propagation_Recurrent_Neural_Network_LB_scene1 -> scene_score1
I0922 13:37:12.913554 15092 net.cpp:113] Setting up Belief_Propagation_Recurrent_Neural_Network_LB_scene1
I0922 13:37:12.913580 15092 net.cpp:120] Top shape: 5 5 (25)
I0922 13:37:12.913593 15092 layer_factory.hpp:74] Creating layer scene_score1_Belief_Propagation_Recurrent_Neural_Network_LB_scene1_0_split
I0922 13:37:12.913602 15092 net.cpp:84] Creating Layer scene_score1_Belief_Propagation_Recurrent_Neural_Network_LB_scene1_0_split
I0922 13:37:12.913609 15092 net.cpp:384] scene_score1_Belief_Propagation_Recurrent_Neural_Network_LB_scene1_0_split <- scene_score1
I0922 13:37:12.913619 15092 net.cpp:342] scene_score1_Belief_Propagation_Recurrent_Neural_Network_LB_scene1_0_split -> scene_score1_Belief_Propagation_Recurrent_Neural_Network_LB_scene1_0_split_0
I0922 13:37:12.913636 15092 net.cpp:342] scene_score1_Belief_Propagation_Recurrent_Neural_Network_LB_scene1_0_split -> scene_score1_Belief_Propagation_Recurrent_Neural_Network_LB_scene1_0_split_1
I0922 13:37:12.913667 15092 net.cpp:113] Setting up scene_score1_Belief_Propagation_Recurrent_Neural_Network_LB_scene1_0_split
I0922 13:37:12.913681 15092 net.cpp:120] Top shape: 5 5 (25)
I0922 13:37:12.913689 15092 net.cpp:120] Top shape: 5 5 (25)
I0922 13:37:12.913697 15092 layer_factory.hpp:74] Creating layer Belief_Propagation_Recurrent_Neural_Network_Normalize_Scene_Pred1
I0922 13:37:12.913707 15092 net.cpp:84] Creating Layer Belief_Propagation_Recurrent_Neural_Network_Normalize_Scene_Pred1
I0922 13:37:12.913713 15092 net.cpp:384] Belief_Propagation_Recurrent_Neural_Network_Normalize_Scene_Pred1 <- scene_score1_Belief_Propagation_Recurrent_Neural_Network_LB_scene1_0_split_0
I0922 13:37:12.913723 15092 net.cpp:342] Belief_Propagation_Recurrent_Neural_Network_Normalize_Scene_Pred1 -> scene_score_normalized1
I0922 13:37:12.913738 15092 net.cpp:113] Setting up Belief_Propagation_Recurrent_Neural_Network_Normalize_Scene_Pred1
I0922 13:37:12.913750 15092 net.cpp:120] Top shape: 5 5 (25)
I0922 13:37:12.913758 15092 layer_factory.hpp:74] Creating layer scene_score_normalized1_Belief_Propagation_Recurrent_Neural_Network_Normalize_Scene_Pred1_0_split
I0922 13:37:12.913766 15092 net.cpp:84] Creating Layer scene_score_normalized1_Belief_Propagation_Recurrent_Neural_Network_Normalize_Scene_Pred1_0_split
I0922 13:37:12.913774 15092 net.cpp:384] scene_score_normalized1_Belief_Propagation_Recurrent_Neural_Network_Normalize_Scene_Pred1_0_split <- scene_score_normalized1
I0922 13:37:12.913782 15092 net.cpp:342] scene_score_normalized1_Belief_Propagation_Recurrent_Neural_Network_Normalize_Scene_Pred1_0_split -> scene_score_normalized1_Belief_Propagation_Recurrent_Neural_Network_Normalize_Scene_Pred1_0_split_0
I0922 13:37:12.913794 15092 net.cpp:342] scene_score_normalized1_Belief_Propagation_Recurrent_Neural_Network_Normalize_Scene_Pred1_0_split -> scene_score_normalized1_Belief_Propagation_Recurrent_Neural_Network_Normalize_Scene_Pred1_0_split_1
I0922 13:37:12.913805 15092 net.cpp:113] Setting up scene_score_normalized1_Belief_Propagation_Recurrent_Neural_Network_Normalize_Scene_Pred1_0_split
I0922 13:37:12.913816 15092 net.cpp:120] Top shape: 5 5 (25)
I0922 13:37:12.913825 15092 net.cpp:120] Top shape: 5 5 (25)
I0922 13:37:12.913831 15092 layer_factory.hpp:74] Creating layer Belief_Propagation_Recurrent_Neural_Network_python_scene_block_prop1
I0922 13:37:12.915841 15092 net.cpp:84] Creating Layer Belief_Propagation_Recurrent_Neural_Network_python_scene_block_prop1
I0922 13:37:12.915858 15092 net.cpp:384] Belief_Propagation_Recurrent_Neural_Network_python_scene_block_prop1 <- scene_score_normalized1_Belief_Propagation_Recurrent_Neural_Network_Normalize_Scene_Pred1_0_split_0
I0922 13:37:12.915871 15092 net.cpp:342] Belief_Propagation_Recurrent_Neural_Network_python_scene_block_prop1 -> scene_score_normalized_blocked1
I0922 13:37:12.915884 15092 net.cpp:113] Setting up Belief_Propagation_Recurrent_Neural_Network_python_scene_block_prop1
I0922 13:37:12.915925 15092 net.cpp:120] Top shape: 5 5 (25)
I0922 13:37:12.915935 15092 layer_factory.hpp:74] Creating layer scene_score_normalized_blocked1_Belief_Propagation_Recurrent_Neural_Network_python_scene_block_prop1_0_split
I0922 13:37:12.915946 15092 net.cpp:84] Creating Layer scene_score_normalized_blocked1_Belief_Propagation_Recurrent_Neural_Network_python_scene_block_prop1_0_split
I0922 13:37:12.915954 15092 net.cpp:384] scene_score_normalized_blocked1_Belief_Propagation_Recurrent_Neural_Network_python_scene_block_prop1_0_split <- scene_score_normalized_blocked1
I0922 13:37:12.915964 15092 net.cpp:342] scene_score_normalized_blocked1_Belief_Propagation_Recurrent_Neural_Network_python_scene_block_prop1_0_split -> scene_score_normalized_blocked1_Belief_Propagation_Recurrent_Neural_Network_python_scene_block_prop1_0_split_0
I0922 13:37:12.915977 15092 net.cpp:342] scene_score_normalized_blocked1_Belief_Propagation_Recurrent_Neural_Network_python_scene_block_prop1_0_split -> scene_score_normalized_blocked1_Belief_Propagation_Recurrent_Neural_Network_python_scene_block_prop1_0_split_1
I0922 13:37:12.916008 15092 net.cpp:113] Setting up scene_score_normalized_blocked1_Belief_Propagation_Recurrent_Neural_Network_python_scene_block_prop1_0_split
I0922 13:37:12.916020 15092 net.cpp:120] Top shape: 5 5 (25)
I0922 13:37:12.916029 15092 net.cpp:120] Top shape: 5 5 (25)
I0922 13:37:12.916036 15092 layer_factory.hpp:74] Creating layer Belief_Propagation_Recurrent_Neural_Network_weight_scene_prev1
I0922 13:37:12.916049 15092 net.cpp:84] Creating Layer Belief_Propagation_Recurrent_Neural_Network_weight_scene_prev1
I0922 13:37:12.916056 15092 net.cpp:384] Belief_Propagation_Recurrent_Neural_Network_weight_scene_prev1 <- scene_score_normalized_blocked1_Belief_Propagation_Recurrent_Neural_Network_python_scene_block_prop1_0_split_0
I0922 13:37:12.916067 15092 net.cpp:342] Belief_Propagation_Recurrent_Neural_Network_weight_scene_prev1 -> scene_score_normalized_weighted1
I0922 13:37:12.916080 15092 net.cpp:113] Setting up Belief_Propagation_Recurrent_Neural_Network_weight_scene_prev1
I0922 13:37:12.916100 15092 net.cpp:120] Top shape: 5 5 (25)
I0922 13:37:12.916115 15092 layer_factory.hpp:74] Creating layer Belief_Propagation_Recurrent_Neural_Network_LB_action1
I0922 13:37:12.916126 15092 net.cpp:84] Creating Layer Belief_Propagation_Recurrent_Neural_Network_LB_action1
I0922 13:37:12.916133 15092 net.cpp:384] Belief_Propagation_Recurrent_Neural_Network_LB_action1 <- Message_21
I0922 13:37:12.916146 15092 net.cpp:342] Belief_Propagation_Recurrent_Neural_Network_LB_action1 -> cur_action_score1
I0922 13:37:12.916157 15092 net.cpp:113] Setting up Belief_Propagation_Recurrent_Neural_Network_LB_action1
I0922 13:37:12.916185 15092 net.cpp:120] Top shape: 5 14 7 (490)
I0922 13:37:12.916198 15092 layer_factory.hpp:74] Creating layer cur_action_score1_Belief_Propagation_Recurrent_Neural_Network_LB_action1_0_split
I0922 13:37:12.916206 15092 net.cpp:84] Creating Layer cur_action_score1_Belief_Propagation_Recurrent_Neural_Network_LB_action1_0_split
I0922 13:37:12.916214 15092 net.cpp:384] cur_action_score1_Belief_Propagation_Recurrent_Neural_Network_LB_action1_0_split <- cur_action_score1
I0922 13:37:12.916224 15092 net.cpp:342] cur_action_score1_Belief_Propagation_Recurrent_Neural_Network_LB_action1_0_split -> cur_action_score1_Belief_Propagation_Recurrent_Neural_Network_LB_action1_0_split_0
I0922 13:37:12.916240 15092 net.cpp:342] cur_action_score1_Belief_Propagation_Recurrent_Neural_Network_LB_action1_0_split -> cur_action_score1_Belief_Propagation_Recurrent_Neural_Network_LB_action1_0_split_1
I0922 13:37:12.916254 15092 net.cpp:342] cur_action_score1_Belief_Propagation_Recurrent_Neural_Network_LB_action1_0_split -> cur_action_score1_Belief_Propagation_Recurrent_Neural_Network_LB_action1_0_split_2
I0922 13:37:12.916265 15092 net.cpp:113] Setting up cur_action_score1_Belief_Propagation_Recurrent_Neural_Network_LB_action1_0_split
I0922 13:37:12.916276 15092 net.cpp:120] Top shape: 5 14 7 (490)
I0922 13:37:12.916285 15092 net.cpp:120] Top shape: 5 14 7 (490)
I0922 13:37:12.916295 15092 net.cpp:120] Top shape: 5 14 7 (490)
I0922 13:37:12.916301 15092 layer_factory.hpp:74] Creating layer Belief_Propagation_Recurrent_Neural_Network_python_action_block_prop1
I0922 13:37:12.916339 15092 net.cpp:84] Creating Layer Belief_Propagation_Recurrent_Neural_Network_python_action_block_prop1
I0922 13:37:12.916352 15092 net.cpp:384] Belief_Propagation_Recurrent_Neural_Network_python_action_block_prop1 <- cur_action_score1_Belief_Propagation_Recurrent_Neural_Network_LB_action1_0_split_0
I0922 13:37:12.916363 15092 net.cpp:342] Belief_Propagation_Recurrent_Neural_Network_python_action_block_prop1 -> cur_action_score_blocked1
I0922 13:37:12.916374 15092 net.cpp:113] Setting up Belief_Propagation_Recurrent_Neural_Network_python_action_block_prop1
I0922 13:37:12.916414 15092 net.cpp:120] Top shape: 5 14 7 (490)
I0922 13:37:12.916425 15092 layer_factory.hpp:74] Creating layer cur_action_score_blocked1_Belief_Propagation_Recurrent_Neural_Network_python_action_block_prop1_0_split
I0922 13:37:12.916451 15092 net.cpp:84] Creating Layer cur_action_score_blocked1_Belief_Propagation_Recurrent_Neural_Network_python_action_block_prop1_0_split
I0922 13:37:12.916460 15092 net.cpp:384] cur_action_score_blocked1_Belief_Propagation_Recurrent_Neural_Network_python_action_block_prop1_0_split <- cur_action_score_blocked1
…
I0922 13:37:12.916512 15092 net.cpp:342] cur_action_score_blocked1_Belief_Propagation_Recurrent_Neural_Network_python_action_block_prop1_0_split -> cur_action_score_blocked1_Belief_Propagation_Recurrent_Neural_Network_python_action_block_prop1_0_split_2
I0922 13:37:12.916525 15092 net.cpp:342] cur_action_score_blocked1_Belief_Propagation_Recurrent_Neural_Network_python_action_block_prop1_0_split -> cur_action_score_blocked1_Belief_Propagation_Recurrent_Neural_Network_python_action_block_prop1_0_split_3
I0922 13:37:12.916537 15092 net.cpp:113] Setting up cur_action_score_blocked1_Belief_Propagation_Recurrent_Neural_Network_python_action_block_prop1_0_split
I0922 13:37:12.916548 15092 net.cpp:120] Top shape: 5 14 7 (490)
I0922 13:37:12.916558 15092 net.cpp:120] Top shape: 5 14 7 (490)
I0922 13:37:12.916565 15092 net.cpp:120] Top shape: 5 14 7 (490)
I0922 13:37:12.916574 15092 net.cpp:120] Top shape: 5 14 7 (490)
I0922 13:37:12.916581 15092 layer_factory.hpp:74] Creating layer Belief_Propagation_Recurrent_Neural_Network_weight_action_prev11
I0922 13:37:12.916591 15092 net.cpp:84] Creating Layer Belief_Propagation_Recurrent_Neural_Network_weight_action_prev11
I0922 13:37:12.916599 15092 net.cpp:384] Belief_Propagation_Recurrent_Neural_Network_weight_action_prev11 <- cur_action_score_blocked1_Belief_Propagation_Recurrent_Neural_Network_python_action_block_prop1_0_split_0
I0922 13:37:12.916613 15092 net.cpp:342] Belief_Propagation_Recurrent_Neural_Network_weight_action_prev11 -> cur_action_score_weighted11
I0922 13:37:12.916626 15092 net.cpp:113] Setting up Belief_Propagation_Recurrent_Neural_Network_weight_action_prev11
I0922 13:37:12.916643 15092 net.cpp:120] Top shape: 5 98 (490)
I0922 13:37:12.916653 15092 layer_factory.hpp:74] Creating layer Belief_Propagation_Recurrent_Neural_Network_weight_action_prev21
I0922 13:37:12.916666 15092 net.cpp:84] Creating Layer Belief_Propagation_Recurrent_Neural_Network_weight_action_prev21
I0922 13:37:12.916676 15092 net.cpp:384] Belief_Propagation_Recurrent_Neural_Network_weight_action_prev21 <- cur_action_score_blocked1_Belief_Propagation_Recurrent_Neural_Network_python_action_block_prop1_0_split_1
I0922 13:37:12.916687 15092 net.cpp:342] Belief_Propagation_Recurrent_Neural_Network_weight_action_prev21 -> cur_action_score_weighted21
I0922 13:37:12.916698 15092 net.cpp:113] Setting up Belief_Propagation_Recurrent_Neural_Network_weight_action_prev21
I0922 13:37:12.916712 15092 net.cpp:120] Top shape: 5 98 (490)
I0922 13:37:12.916723 15092 layer_factory.hpp:74] Creating layer Belief_Propagation_Recurrent_Neural_Network_Normalize_Action_Pred1
I0922 13:37:12.916735 15092 net.cpp:84] Creating Layer Belief_Propagation_Recurrent_Neural_Network_Normalize_Action_Pred1
I0922 13:37:12.916744 15092 net.cpp:384] Belief_Propagation_Recurrent_Neural_Network_Normalize_Action_Pred1 <- cur_action_score1_Belief_Propagation_Recurrent_Neural_Network_LB_action1_0_split_1
I0922 13:37:12.916755 15092 net.cpp:342] Belief_Propagation_Recurrent_Neural_Network_Normalize_Action_Pred1 -> cur_action_score_normalized1
I0922 13:37:12.916766 15092 net.cpp:113] Setting up Belief_Propagation_Recurrent_Neural_Network_Normalize_Action_Pred1
I0922 13:37:12.916795 15092 net.cpp:120] Top shape: 5 14 7 (490)
I0922 13:37:12.916803 15092 layer_factory.hpp:74] Creating layer Belief_Propagation_Recurrent_Neural_Network_python_filter1
I0922 13:37:12.918686 15092 net.cpp:84] Creating Layer Belief_Propagation_Recurrent_Neural_Network_python_filter1
I0922 13:37:12.918704 15092 net.cpp:384] Belief_Propagation_Recurrent_Neural_Network_python_filter1 <- cur_action_score_normalized1
I0922 13:37:12.918715 15092 net.cpp:384] Belief_Propagation_Recurrent_Neural_Network_python_filter1 <- label_action_input_2_split_2
I0922 13:37:12.918727 15092 net.cpp:342] Belief_Propagation_Recurrent_Neural_Network_python_filter1 -> cur_action_score_normalized_reshaped1
I0922 13:37:12.918740 15092 net.cpp:113] Setting up Belief_Propagation_Recurrent_Neural_Network_python_filter1
I0922 13:37:12.918787 15092 net.cpp:120] Top shape: 5 98 (490)
I0922 13:37:12.918799 15092 layer_factory.hpp:74] Creating layer Belief_Propagation_Recurrent_Neural_Network_python_reshape11
I0922 13:37:12.920789 15092 net.cpp:84] Creating Layer Belief_Propagation_Recurrent_Neural_Network_python_reshape11
I0922 13:37:12.920807 15092 net.cpp:384] Belief_Propagation_Recurrent_Neural_Network_python_reshape11 <- cur_action_score1_Belief_Propagation_Recurrent_Neural_Network_LB_action1_0_split_2
I0922 13:37:12.920824 15092 net.cpp:342] Belief_Propagation_Recurrent_Neural_Network_python_reshape11 -> cur_action_score_reshaped1
I0922 13:37:12.920838 15092 net.cpp:113] Setting up Belief_Propagation_Recurrent_Neural_Network_python_reshape11
I0922 13:37:12.920899 15092 net.cpp:120] Top shape: 5 98 (490)
I0922 13:37:12.920914 15092 layer_factory.hpp:74] Creating layer Belief_Propagation_Recurrent_Neural_Network_python_checkdiff1
I0922 13:37:12.922793 15092 net.cpp:84] Creating Layer Belief_Propagation_Recurrent_Neural_Network_python_checkdiff1
I0922 13:37:12.922812 15092 net.cpp:384] Belief_Propagation_Recurrent_Neural_Network_python_checkdiff1 <- cur_action_score_reshaped1
I0922 13:37:12.922827 15092 net.cpp:342] Belief_Propagation_Recurrent_Neural_Network_python_checkdiff1 -> cur_action_score_reshaped_checked1
I0922 13:37:12.922842 15092 net.cpp:113] Setting up Belief_Propagation_Recurrent_Neural_Network_python_checkdiff1
I0922 13:37:12.922895 15092 net.cpp:120] Top shape: 5 98 (490)
I0922 13:37:12.922909 15092 layer_factory.hpp:74] Creating layer Belief_Propagation_Recurrent_Neural_Network_graphical_edge2
I0922 13:37:12.924832 15092 net.cpp:84] Creating Layer Belief_Propagation_Recurrent_Neural_Network_graphical_edge2
I0922 13:37:12.924851 15092 net.cpp:384] Belief_Propagation_Recurrent_Neural_Network_graphical_edge2 <- concat_all_input_4_split_2
I0922 13:37:12.924865 15092 net.cpp:384] Belief_Propagation_Recurrent_Neural_Network_graphical_edge2 <- MessageIn1_Belief_Propagation_Recurrent_Neural_Network_ArrangeMessageOut1_0_split_0
I0922 13:37:12.924876 15092 net.cpp:384] Belief_Propagation_Recurrent_Neural_Network_graphical_edge2 <- label_action_input_2_split_3
I0922 13:37:12.924890 15092 net.cpp:342] Belief_Propagation_Recurrent_Neural_Network_graphical_edge2 -> gate_input2
I0922 13:37:12.924904 15092 net.cpp:113] Setting up Belief_Propagation_Recurrent_Neural_Network_graphical_edge2
I0922 13:37:12.924967 15092 net.cpp:120] Top shape: 910 14 (12740)
I0922 13:37:12.924980 15092 layer_factory.hpp:74] Creating layer Belief_Propagation_Recurrent_Neural_Network_gate_compute2
I0922 13:37:12.924995 15092 net.cpp:84] Creating Layer Belief_Propagation_Recurrent_Neural_Network_gate_compute2
I0922 13:37:12.925004 15092 net.cpp:384] Belief_Propagation_Recurrent_Neural_Network_gate_compute2 <- gate_input2
I0922 13:37:12.925019 15092 net.cpp:342] Belief_Propagation_Recurrent_Neural_Network_gate_compute2 -> gates2
I0922 13:37:12.925034 15092 net.cpp:113] Setting up Belief_Propagation_Recurrent_Neural_Network_gate_compute2
I0922 13:37:12.925058 15092 net.cpp:120] Top shape: 910 1 (910)
I0922 13:37:12.925072 15092 layer_factory.hpp:74] Creating layer Belief_Propagation_Recurrent_Neural_Network_structured_gate2
I0922 13:37:12.927024 15092 net.cpp:84] Creating Layer Belief_Propagation_Recurrent_Neural_Network_structured_gate2
I0922 13:37:12.927062 15092 net.cpp:384] Belief_Propagation_Recurrent_Neural_Network_structured_gate2 <- gates2
I0922 13:37:12.927075 15092 net.cpp:384] Belief_Propagation_Recurrent_Neural_Network_structured_gate2 <- MessageIn1_Belief_Propagation_Recurrent_Neural_Network_ArrangeMessageOut1_0_split_1
I0922 13:37:12.927088 15092 net.cpp:384] Belief_Propagation_Recurrent_Neural_Network_structured_gate2 <- label_action_input_2_split_4
I0922 13:37:12.927100 15092 net.cpp:342] Belief_Propagation_Recurrent_Neural_Network_structured_gate2 -> gated_MessageIn1
I0922 13:37:12.927115 15092 net.cpp:113] Setting up Belief_Propagation_Recurrent_Neural_Network_structured_gate2
I0922 13:37:12.927201 15092 net.cpp:120] Top shape: 5 1545 (7725)
I0922 13:37:12.927217 15092 layer_factory.hpp:74] Creating layer Belief_Propagation_Recurrent_Neural_Network_ArrangeMessageIn2
I0922 13:37:12.927264 15092 net.cpp:84] Creating Layer Belief_Propagation_Recurrent_Neural_Network_ArrangeMessageIn2
I0922 13:37:12.927279 15092 net.cpp:384] Belief_Propagation_Recurrent_Neural_Network_ArrangeMessageIn2 <- MessageIn1_Belief_Propagation_Recurrent_Neural_Network_ArrangeMessageOut1_0_split_2
…
I0922 13:37:12.927325 15092 net.cpp:384] Belief_Propagation_Recurrent_Neural_Network_ArrangeMessageIn2 <- cur_action_score_blocked1_Belief_Propagation_Recurrent_Neural_Network_python_action_block_prop1_0_split_3
I0922 13:37:12.927337 15092 net.cpp:342] Belief_Propagation_Recurrent_Neural_Network_ArrangeMessageIn2 -> S_A_MessageIn2
I0922 13:37:12.927353 15092 net.cpp:342] Belief_Propagation_Recurrent_Neural_Network_ArrangeMessageIn2 -> A_S_MessageIn2
I0922 13:37:12.927368 15092 net.cpp:342] Belief_Propagation_Recurrent_Neural_Network_ArrangeMessageIn2 -> A_A_MessageIn2
I0922 13:37:12.927381 15092 net.cpp:113] Setting up Belief_Propagation_Recurrent_Neural_Network_ArrangeMessageIn2
I0922 13:37:12.927495 15092 net.cpp:120] Top shape: 70 5 (350)
I0922 13:37:12.927570 15092 net.cpp:120] Top shape: 70 7 (490)
I0922 13:37:12.927582 15092 net.cpp:120] Top shape: 980 7 (6860)
I0922 13:37:12.927589 15092 layer_factory.hpp:74] Creating layer Belief_Propagation_Recurrent_Neural_Network_S_A_Message2
I0922 13:37:12.927603 15092 net.cpp:84] Creating Layer Belief_Propagation_Recurrent_Neural_Network_S_A_Message2
I0922 13:37:12.927613 15092 net.cpp:384] Belief_Propagation_Recurrent_Neural_Network_S_A_Message2 <- S_A_MessageIn2
I0922 13:37:12.927628 15092 net.cpp:342] Belief_Propagation_Recurrent_Neural_Network_S_A_Message2 -> S_A_MessageOut2
I0922 13:37:12.927644 15092 net.cpp:113] Setting up Belief_Propagation_Recurrent_Neural_Network_S_A_Message2
I0922 13:37:12.927666 15092 net.cpp:120] Top shape: 70 7 (490)
I0922 13:37:12.927685 15092 layer_factory.hpp:74] Creating layer Belief_Propagation_Recurrent_Neural_Network_A_S_Message2
I0922 13:37:12.927697 15092 net.cpp:84] Creating Layer Belief_Propagation_Recurrent_Neural_Network_A_S_Message2
I0922 13:37:12.927706 15092 net.cpp:384] Belief_Propagation_Recurrent_Neural_Network_A_S_Message2 <- A_S_MessageIn2
I0922 13:37:12.927721 15092 net.cpp:342] Belief_Propagation_Recurrent_Neural_Network_A_S_Message2 -> A_S_MessageOut2
I0922 13:37:12.927733 15092 net.cpp:113] Setting up Belief_Propagation_Recurrent_Neural_Network_A_S_Message2
I0922 13:37:12.927757 15092 net.cpp:120] Top shape: 70 5 (350)
I0922 13:37:12.927772 15092 layer_factory.hpp:74] Creating layer Belief_Propagation_Recurrent_Neural_Network_A_A_Message2
I0922 13:37:12.927805 15092 net.cpp:84] Creating Layer Belief_Propagation_Recurrent_Neural_Network_A_A_Message2
I0922 13:37:12.927815 15092 net.cpp:384] Belief_Propagation_Recurrent_Neural_Network_A_A_Message2 <- A_A_MessageIn2
I0922 13:37:12.927831 15092 net.cpp:342] Belief_Propagation_Recurrent_Neural_Network_A_A_Message2 -> A_A_MessageOut2
I0922 13:37:12.927846 15092 net.cpp:113] Setting up Belief_Propagation_Recurrent_Neural_Network_A_A_Message2
I0922 13:37:12.927875 15092 net.cpp:120] Top shape: 980 7 (6860)
I0922 13:37:12.927889 15092 layer_factory.hpp:74] Creating layer Belief_Propagation_Recurrent_Neural_Network_Normalize_Scene_to_ActionM2
I0922 13:37:12.927903 15092 net.cpp:84] Creating Layer Belief_Propagation_Recurrent_Neural_Network_Normalize_Scene_to_ActionM2
I0922 13:37:12.927912 15092 net.cpp:384] Belief_Propagation_Recurrent_Neural_Network_Normalize_Scene_to_ActionM2 <- S_A_MessageOut2
I0922 13:37:12.927924 15092 net.cpp:342] Belief_Propagation_Recurrent_Neural_Network_Normalize_Scene_to_ActionM2 -> S_A_MessageOut_normalized2
I0922 13:37:12.927937 15092 net.cpp:113] Setting up Belief_Propagation_Recurrent_Neural_Network_Normalize_Scene_to_ActionM2
I0922 13:37:12.927954 15092 net.cpp:120] Top shape: 70 7 (490)
I0922 13:37:12.927963 15092 layer_factory.hpp:74] Creating layer Belief_Propagation_Recurrent_Neural_Network_Normalize_Action_to_SceneM2
I0922 13:37:12.927973 15092 net.cpp:84] Creating Layer Belief_Propagation_Recurrent_Neural_Network_Normalize_Action_to_SceneM2
I0922 13:37:12.927983 15092 net.cpp:384] Belief_Propagation_Recurrent_Neural_Network_Normalize_Action_to_SceneM2 <- A_S_MessageOut2
I0922 13:37:12.927994 15092 net.cpp:342] Belief_Propagation_Recurrent_Neural_Network_Normalize_Action_to_SceneM2 -> A_S_MessageOut_normalized2
I0922 13:37:12.928006 15092 net.cpp:113] Setting up Belief_Propagation_Recurrent_Neural_Network_Normalize_Action_to_SceneM2
I0922 13:37:12.928020 15092 net.cpp:120] Top shape: 70 5 (350)
I0922 13:37:12.928028 15092 layer_factory.hpp:74] Creating layer Belief_Propagation_Recurrent_Neural_Network_Normalize_Action_to_ActionM2
I0922 13:37:12.928041 15092 net.cpp:84] Creating Layer Belief_Propagation_Recurrent_Neural_Network_Normalize_Action_to_ActionM2
I0922 13:37:12.928050 15092 net.cpp:384] Belief_Propagation_Recurrent_Neural_Network_Normalize_Action_to_ActionM2 <- A_A_MessageOut2
I0922 13:37:12.928061 15092 net.cpp:342] Belief_Propagation_Recurrent_Neural_Network_Normalize_Action_to_ActionM2 -> A_A_MessageOut_normalized2
I0922 13:37:12.928073 15092 net.cpp:113] Setting up Belief_Propagation_Recurrent_Neural_Network_Normalize_Action_to_ActionM2
I0922 13:37:12.928089 15092 net.cpp:120] Top shape: 980 7 (6860)
I0922 13:37:12.928098 15092 layer_factory.hpp:74] Creating layer Belief_Propagation_Recurrent_Neural_Network_ArrangeMessageOut2
I0922 13:37:12.928144 15092 net.cpp:84] Creating Layer Belief_Propagation_Recurrent_Neural_Network_ArrangeMessageOut2
I0922 13:37:12.928158 15092 net.cpp:384] Belief_Propagation_Recurrent_Neural_Network_ArrangeMessageOut2 <- concat_all_input_4_split_3
I0922 13:37:12.928169 15092 net.cpp:384] Belief_Propagation_Recurrent_Neural_Network_ArrangeMessageOut2 <- S_A_MessageOut_normalized2
…
I0922 13:37:12.942108 15092 net.cpp:384] Belief_Propagation_Recurrent_Neural_Network_ArrangeMessageOut6 <- label_action_input_2_split_26
I0922 13:37:12.942122 15092 net.cpp:342] Belief_Propagation_Recurrent_Neural_Network_ArrangeMessageOut6 -> MessageIn6
I0922 13:37:12.942131 15092 net.cpp:342] Belief_Propagation_Recurrent_Neural_Network_ArrangeMessageOut6 -> Message_16
I0922 13:37:12.942139 15092 net.cpp:342] Belief_Propagation_Recurrent_Neural_Network_ArrangeMessageOut6 -> Message_26
I0922 13:37:12.942145 15092 net.cpp:113] Setting up Belief_Propagation_Recurrent_Neural_Network_ArrangeMessageOut6
I0922 13:37:12.942185 15092 net.cpp:120] Top shape: 5 1545 (7725)
I0922 13:37:12.942194 15092 net.cpp:120] Top shape: 5 75 (375)
I0922 13:37:12.942199 15092 net.cpp:120] Top shape: 5 14 105 (7350)
I0922 13:37:12.942203 15092 layer_factory.hpp:74] Creating layer Belief_Propagation_Recurrent_Neural_Network_LB_scene6
I0922 13:37:12.942209 15092 net.cpp:84] Creating Layer Belief_Propagation_Recurrent_Neural_Network_LB_scene6
I0922 13:37:12.942214 15092 net.cpp:384] Belief_Propagation_Recurrent_Neural_Network_LB_scene6 <- Message_16
I0922 13:37:12.942222 15092 net.cpp:342] Belief_Propagation_Recurrent_Neural_Network_LB_scene6 -> scene_score6
I0922 13:37:12.942230 15092 net.cpp:113] Setting up Belief_Propagation_Recurrent_Neural_Network_LB_scene6
I0922 13:37:12.942245 15092 net.cpp:120] Top shape: 5 5 (25)
I0922 13:37:12.942250 15092 net.cpp:428] Sharing parameters 'W_ho_1' owned by layer 'Belief_Propagation_Recurrent_Neural_Network_LB_scene1', param index 0
I0922 13:37:12.942255 15092 layer_factory.hpp:74] Creating layer scene_score6_Belief_Propagation_Recurrent_Neural_Network_LB_scene6_0_split
I0922 13:37:12.942260 15092 net.cpp:84] Creating Layer scene_score6_Belief_Propagation_Recurrent_Neural_Network_LB_scene6_0_split
I0922 13:37:12.942265 15092 net.cpp:384] scene_score6_Belief_Propagation_Recurrent_Neural_Network_LB_scene6_0_split <- scene_score6
I0922 13:37:12.942271 15092 net.cpp:342] scene_score6_Belief_Propagation_Recurrent_Neural_Network_LB_scene6_0_split -> scene_score6_Belief_Propagation_Recurrent_Neural_Network_LB_scene6_0_split_0
I0922 13:37:12.942278 15092 net.cpp:342] scene_score6_Belief_Propagation_Recurrent_Neural_Network_LB_scene6_0_split -> scene_score6_Belief_Propagation_Recurrent_Neural_Network_LB_scene6_0_split_1
I0922 13:37:12.942284 15092 net.cpp:113] Setting up scene_score6_Belief_Propagation_Recurrent_Neural_Network_LB_scene6_0_split
I0922 13:37:12.942291 15092 net.cpp:120] Top shape: 5 5 (25)
I0922 13:37:12.942296 15092 net.cpp:120] Top shape: 5 5 (25)
I0922 13:37:12.942299 15092 layer_factory.hpp:74] Creating layer Belief_Propagation_Recurrent_Neural_Network_Normalize_Scene_Pred6
I0922 13:37:12.942304 15092 net.cpp:84] Creating Layer Belief_Propagation_Recurrent_Neural_Network_Normalize_Scene_Pred6
I0922 13:37:12.942308 15092 net.cpp:384] Belief_Propagation_Recurrent_Neural_Network_Normalize_Scene_Pred6 <- scene_score6_Belief_Propagation_Recurrent_Neural_Network_LB_scene6_0_split_0
I0922 13:37:12.942314 15092 net.cpp:342] Belief_Propagation_Recurrent_Neural_Network_Normalize_Scene_Pred6 -> scene_score_normalized6
I0922 13:37:12.942320 15092 net.cpp:113] Setting up Belief_Propagation_Recurrent_Neural_Network_Normalize_Scene_Pred6
I0922 13:37:12.942327 15092 net.cpp:120] Top shape: 5 5 (25)
I0922 13:37:12.942332 15092 layer_factory.hpp:74] Creating layer Belief_Propagation_Recurrent_Neural_Network_LB_action6
I0922 13:37:12.942337 15092 net.cpp:84] Creating Layer Belief_Propagation_Recurrent_Neural_Network_LB_action6
I0922 13:37:12.942342 15092 net.cpp:384] Belief_Propagation_Recurrent_Neural_Network_LB_action6 <- Message_26
I0922 13:37:12.942350 15092 net.cpp:342] Belief_Propagation_Recurrent_Neural_Network_LB_action6 -> cur_action_score6
I0922 13:37:12.942358 15092 net.cpp:113] Setting up Belief_Propagation_Recurrent_Neural_Network_LB_action6
I0922 13:37:12.942374 15092 net.cpp:120] Top shape: 5 14 7 (490)
I0922 13:37:12.942380 15092 net.cpp:428] Sharing parameters 'W_ho_2' owned by layer 'Belief_Propagation_Recurrent_Neural_Network_LB_action1', param index 0
I0922 13:37:12.942395 15092 layer_factory.hpp:74] Creating layer cur_action_score6_Belief_Propagation_Recurrent_Neural_Network_LB_action6_0_split
I0922 13:37:12.942401 15092 net.cpp:84] Creating Layer cur_action_score6_Belief_Propagation_Recurrent_Neural_Network_LB_action6_0_split
I0922 13:37:12.942406 15092 net.cpp:384] cur_action_score6_Belief_Propagation_Recurrent_Neural_Network_LB_action6_0_split <- cur_action_score6
I0922 13:37:12.942411 15092 net.cpp:342] cur_action_score6_Belief_Propagation_Recurrent_Neural_Network_LB_action6_0_split -> cur_action_score6_Belief_Propagation_Recurrent_Neural_Network_LB_action6_0_split_0
I0922 13:37:12.942419 15092 net.cpp:342] cur_action_score6_Belief_Propagation_Recurrent_Neural_Network_LB_action6_0_split -> cur_action_score6_Belief_Propagation_Recurrent_Neural_Network_LB_action6_0_split_1
I0922 13:37:12.942425 15092 net.cpp:113] Setting up cur_action_score6_Belief_Propagation_Recurrent_Neural_Network_LB_action6_0_split
I0922 13:37:12.942430 15092 net.cpp:120] Top shape: 5 14 7 (490)
I0922 13:37:12.942435 15092 net.cpp:120] Top shape: 5 14 7 (490)
I0922 13:37:12.942440 15092 layer_factory.hpp:74] Creating layer Belief_Propagation_Recurrent_Neural_Network_Normalize_Action_Pred6
I0922 13:37:12.942445 15092 net.cpp:84] Creating Layer Belief_Propagation_Recurrent_Neural_Network_Normalize_Action_Pred6
I0922 13:37:12.942448 15092 net.cpp:384] Belief_Propagation_Recurrent_Neural_Network_Normalize_Action_Pred6 <- cur_action_score6_Belief_Propagation_Recurrent_Neural_Network_LB_action6_0_split_0
I0922 13:37:12.942456 15092 net.cpp:342] Belief_Propagation_Recurrent_Neural_Network_Normalize_Action_Pred6 -> cur_action_score_normalized6
I0922 13:37:12.942462 15092 net.cpp:113] Setting up Belief_Propagation_Recurrent_Neural_Network_Normalize_Action_Pred6
I0922 13:37:12.942469 15092 net.cpp:120] Top shape: 5 14 7 (490)
I0922 13:37:12.942473 15092 layer_factory.hpp:74] Creating layer Belief_Propagation_Recurrent_Neural_Network_python_filter6
I0922 13:37:12.942500 15092 net.cpp:84] Creating Layer Belief_Propagation_Recurrent_Neural_Network_python_filter6
I0922 13:37:12.942508 15092 net.cpp:384] Belief_Propagation_Recurrent_Neural_Network_python_filter6 <- cur_action_score_normalized6
I0922 13:37:12.942514 15092 net.cpp:384] Belief_Propagation_Recurrent_Neural_Network_python_filter6 <- label_action_input_2_split_27
I0922 13:37:12.942520 15092 net.cpp:342] Belief_Propagation_Recurrent_Neural_Network_python_filter6 -> cur_action_score_normalized_reshaped6
I0922 13:37:12.942528 15092 net.cpp:113] Setting up Belief_Propagation_Recurrent_Neural_Network_python_filter6
I0922 13:37:12.942555 15092 net.cpp:120] Top shape: 5 98 (490)
I0922 13:37:12.942562 15092 layer_factory.hpp:74] Creating layer Belief_Propagation_Recurrent_Neural_Network_python_reshape16
I0922 13:37:12.942582 15092 net.cpp:84] Creating Layer Belief_Propagation_Recurrent_Neural_Network_python_reshape16
I0922 13:37:12.942589 15092 net.cpp:384] Belief_Propagation_Recurrent_Neural_Network_python_reshape16 <- cur_action_score6_Belief_Propagation_Recurrent_Neural_Network_LB_action6_0_split_1
I0922 13:37:12.942596 15092 net.cpp:342] Belief_Propagation_Recurrent_Neural_Network_python_reshape16 -> cur_action_score_reshaped6
I0922 13:37:12.942602 15092 net.cpp:113] Setting up Belief_Propagation_Recurrent_Neural_Network_python_reshape16
I0922 13:37:12.942628 15092 net.cpp:120] Top shape: 5 98 (490)
I0922 13:37:12.942636 15092 layer_factory.hpp:74] Creating layer Belief_Propagation_Recurrent_Neural_Network_python_checkdiff6
I0922 13:37:12.942654 15092 net.cpp:84] Creating Layer Belief_Propagation_Recurrent_Neural_Network_python_checkdiff6
I0922 13:37:12.942662 15092 net.cpp:384] Belief_Propagation_Recurrent_Neural_Network_python_checkdiff6 <- cur_action_score_reshaped6
I0922 13:37:12.942668 15092 net.cpp:342] Belief_Propagation_Recurrent_Neural_Network_python_checkdiff6 -> cur_action_score_reshaped_checked6
I0922 13:37:12.942675 15092 net.cpp:113] Setting up Belief_Propagation_Recurrent_Neural_Network_python_checkdiff6
I0922 13:37:12.942703 15092 net.cpp:120] Top shape: 5 98 (490)
I0922 13:37:12.942718 15092 layer_factory.hpp:74] Creating layer Belief_Propagation_Recurrent_Neural_Network_output_python_concat_scene
I0922 13:37:12.953745 15092 net.cpp:84] Creating Layer Belief_Propagation_Recurrent_Neural_Network_output_python_concat_scene
I0922 13:37:12.953766 15092 net.cpp:384] Belief_Propagation_Recurrent_Neural_Network_output_python_concat_scene <- scene_score1_Belief_Propagation_Recurrent_Neural_Network_LB_scene1_0_split_1
…
I0922 13:37:12.953812 15092 net.cpp:384] Belief_Propagation_Recurrent_Neural_Network_output_python_concat_scene <- scene_score5_Belief_Propagation_Recurrent_Neural_Network_LB_scene5_0_split_1
I0922 13:37:12.953824 15092 net.cpp:384] Belief_Propagation_Recurrent_Neural_Network_output_python_concat_scene <- scene_score6_Belief_Propagation_Recurrent_Neural_Network_LB_scene6_0_split_1
I0922 13:37:12.953836 15092 net.cpp:342] Belief_Propagation_Recurrent_Neural_Network_output_python_concat_scene -> scene_pred
I0922 13:37:12.953850 15092 net.cpp:113] Setting up Belief_Propagation_Recurrent_Neural_Network_output_python_concat_scene
I0922 13:37:12.953904 15092 net.cpp:120] Top shape: 30 5 (150)
I0922 13:37:12.953919 15092 layer_factory.hpp:74] Creating layer Belief_Propagation_Recurrent_Neural_Network_output_python_concat_action
I0922 13:37:12.953961 15092 net.cpp:84] Creating Layer Belief_Propagation_Recurrent_Neural_Network_output_python_concat_action
I0922 13:37:12.953975 15092 net.cpp:384] Belief_Propagation_Recurrent_Neural_Network_output_python_concat_action <- cur_action_score_reshaped_checked1
I0922 13:37:12.953989 15092 net.cpp:384] Belief_Propagation_Recurrent_Neural_Network_output_python_concat_action <- cur_action_score_reshaped_checked2
I0922 13:37:12.953999 15092 net.cpp:384] Belief_Propagation_Recurrent_Neural_Network_output_python_concat_action <- cur_action_score_reshaped_checked3
I0922 13:37:12.954010 15092 net.cpp:384] Belief_Propagation_Recurrent_Neural_Network_output_python_concat_action <- cur_action_score_reshaped_checked4
I0922 13:37:12.954018 15092 net.cpp:384] Belief_Propagation_Recurrent_Neural_Network_output_python_concat_action <- cur_action_score_reshaped_checked5
I0922 13:37:12.954030 15092 net.cpp:384] Belief_Propagation_Recurrent_Neural_Network_output_python_concat_action <- cur_action_score_reshaped_checked6
I0922 13:37:12.954041 15092 net.cpp:342] Belief_Propagation_Recurrent_Neural_Network_output_python_concat_action -> o_action_forcheck
I0922 13:37:12.954056 15092 net.cpp:113] Setting up Belief_Propagation_Recurrent_Neural_Network_output_python_concat_action
I0922 13:37:12.954102 15092 net.cpp:120] Top shape: 30 98 (2940)
I0922 13:37:12.954115 15092 layer_factory.hpp:74] Creating layer o_action_forcheck_Belief_Propagation_Recurrent_Neural_Network_output_python_concat_action_0_split
I0922 13:37:12.954128 15092 net.cpp:84] Creating Layer o_action_forcheck_Belief_Propagation_Recurrent_Neural_Network_output_python_concat_action_0_split
I0922 13:37:12.954136 15092 net.cpp:384] o_action_forcheck_Belief_Propagation_Recurrent_Neural_Network_output_python_concat_action_0_split <- o_action_forcheck
I0922 13:37:12.954149 15092 net.cpp:342] o_action_forcheck_Belief_Propagation_Recurrent_Neural_Network_output_python_concat_action_0_split -> o_action_forcheck_Belief_Propagation_Recurrent_Neural_Network_output_python_concat_action_0_split_0
I0922 13:37:12.954164 15092 net.cpp:342] o_action_forcheck_Belief_Propagation_Recurrent_Neural_Network_output_python_concat_action_0_split -> o_action_forcheck_Belief_Propagation_Recurrent_Neural_Network_output_python_concat_action_0_split_1
I0922 13:37:12.954202 15092 net.cpp:113] Setting up o_action_forcheck_Belief_Propagation_Recurrent_Neural_Network_output_python_concat_action_0_split
I0922 13:37:12.954217 15092 net.cpp:120] Top shape: 30 98 (2940)
I0922 13:37:12.954228 15092 net.cpp:120] Top shape: 30 98 (2940)
I0922 13:37:12.954236 15092 layer_factory.hpp:74] Creating layer Belief_Propagation_Recurrent_Neural_Network_python_checkdiff_o
I0922 13:37:12.954283 15092 net.cpp:84] Creating Layer Belief_Propagation_Recurrent_Neural_Network_python_checkdiff_o
I0922 13:37:12.954299 15092 net.cpp:384] Belief_Propagation_Recurrent_Neural_Network_python_checkdiff_o <- o_action_forcheck_Belief_Propagation_Recurrent_Neural_Network_output_python_concat_action_0_split_0
I0922 13:37:12.954311 15092 net.cpp:384] Belief_Propagation_Recurrent_Neural_Network_python_checkdiff_o <- o_action_forcheck_Belief_Propagation_Recurrent_Neural_Network_output_python_concat_action_0_split_1
I0922 13:37:12.954324 15092 net.cpp:342] Belief_Propagation_Recurrent_Neural_Network_python_checkdiff_o -> action_pred
I0922 13:37:12.954339 15092 net.cpp:113] Setting up Belief_Propagation_Recurrent_Neural_Network_python_checkdiff_o
I0922 13:37:12.954392 15092 net.cpp:120] Top shape: 30 98 (2940)
I0922 13:37:12.954407 15092 net.cpp:169] Belief_Propagation_Recurrent_Neural_Network_python_checkdiff_o does not need backward computation.
I0922 13:37:12.954416 15092 net.cpp:169] o_action_forcheck_Belief_Propagation_Recurrent_Neural_Network_output_python_concat_action_0_split does not need backward computation.
I0922 13:37:12.954422 15092 net.cpp:169] Belief_Propagation_Recurrent_Neural_Network_output_python_concat_action does not need backward computation.
…
