name: "CaffeNet"
force_backward:true
################################################################## action net ############################################################
layer {
  name: "data_action"
  type: "Data"
  top: "data_action"
  top: "label_action"
  include {
    phase: TRAIN
  }
  transform_param {
    mirror: true
    crop_size: 227
    mean_file: "imagenet_mean.binaryproto"
  }
  data_param {
    #source: "/cs/vml2/zhiweid/CVPR16_NEW/bp-rnn/experiments/0419_context/CAD_train_lmdb_0419_context"
    source: "/cs/vml2/zhiweid/CVPR16_NEW/data/0930/CAD_action_train_lmdb_0930"
    batch_size: 70
    backend: LMDB
  }
}
layer {
  name: "data_action"
  type: "Data"
  top: "data_action"
  top: "label_action"
  include {
    phase: TEST
  }
  transform_param {
    mirror: false
    crop_size: 227
    mean_file: "imagenet_mean.binaryproto"
  }
  data_param {
    #source: "/cs/vml2/zhiweid/CVPR16_NEW/bp-rnn/experiments/0419_context/CAD_val_lmdb_0419_context"
    source: "/cs/vml2/zhiweid/CVPR16_NEW/data/0930/CAD_action_val_lmdb_0930"
    batch_size: 14
    backend: LMDB
  }
}
layer {
  name: "conv1_action"
  type: "Convolution"
  bottom: "data_action"
  top: "conv1_action"
  param {
    lr_mult: 0
    decay_mult: 0
  }
  param {
    lr_mult: 0
    decay_mult: 0
  }
  convolution_param {
    num_output: 96
    kernel_size: 11
    stride: 4
    weight_filler {
      type: "gaussian"
      std: 0.01
    }
    bias_filler {
      type: "constant"
      value: 0
    }
  }
}
layer {
  name: "relu1_action"
  type: "ReLU"
  bottom: "conv1_action"
  top: "conv1_action"
}
layer {
  name: "pool1_action"
  type: "Pooling"
  bottom: "conv1_action"
  top: "pool1_action"
  pooling_param {
    pool: MAX
    kernel_size: 3
    stride: 2
  }
}
layer {
  name: "norm1_action"
  type: "LRN"
  bottom: "pool1_action"
  top: "norm1_action"
  lrn_param {
    local_size: 5
    alpha: 0.0001
    beta: 0.75
  }
}
layer {
  name: "conv2_action"
  type: "Convolution"
  bottom: "norm1_action"
  top: "conv2_action"
  param {
    lr_mult: 0
    decay_mult: 0
  }
  param {
    lr_mult: 0
    decay_mult: 0
  }
  convolution_param {
    num_output: 256
    pad: 2
    kernel_size: 5
    group: 2
    weight_filler {
      type: "gaussian"
      std: 0.01
    }
    bias_filler {
      type: "constant"
      value: 1
    }
  }
}
layer {
  name: "relu2_action"
  type: "ReLU"
  bottom: "conv2_action"
  top: "conv2_action"
}
layer {
  name: "pool2_action"
  type: "Pooling"
  bottom: "conv2_action"
  top: "pool2_action"
  pooling_param {
    pool: MAX
    kernel_size: 3
    stride: 2
  }
}
layer {
  name: "norm2_action"
  type: "LRN"
  bottom: "pool2_action"
  top: "norm2_action"
  lrn_param {
    local_size: 5
    alpha: 0.0001
    beta: 0.75
  }
}
layer {
  name: "conv3_action"
  type: "Convolution"
  bottom: "norm2_action"
  top: "conv3_action"
  param {
    lr_mult: 0
    decay_mult: 0
  }
  param {
    lr_mult: 0
    decay_mult: 0
  }
  convolution_param {
    num_output: 384
    pad: 1
    kernel_size: 3
    weight_filler {
      type: "gaussian"
      std: 0.01
    }
    bias_filler {
      type: "constant"
      value: 0
    }
  }
}
layer {
  name: "relu3_action"
  type: "ReLU"
  bottom: "conv3_action"
  top: "conv3_action"
}
layer {
  name: "conv4_action"
  type: "Convolution"
  bottom: "conv3_action"
  top: "conv4_action"
  param {
    lr_mult: 0
    decay_mult: 0
  }
  param {
    lr_mult: 0
    decay_mult: 0
  }
  convolution_param {
    num_output: 384
    pad: 1
    kernel_size: 3
    group: 2
    weight_filler {
      type: "gaussian"
      std: 0.01
    }
    bias_filler {
      type: "constant"
      value: 1
    }
  }
}
layer {
  name: "relu4_action"
  type: "ReLU"
  bottom: "conv4_action"
  top: "conv4_action"
}
layer {
  name: "conv5_action"
  type: "Convolution"
  bottom: "conv4_action"
  top: "conv5_action"
  param {
    lr_mult: 0
    decay_mult: 0
  }
  param {
    lr_mult: 0
    decay_mult: 0
  }
  convolution_param {
    num_output: 256
    pad: 1
    kernel_size: 3
    group: 2
    weight_filler {
      type: "gaussian"
      std: 0.01
    }
    bias_filler {
      type: "constant"
      value: 1
    }
  }
}
layer {
  name: "relu5_action"
  type: "ReLU"
  bottom: "conv5_action"
  top: "conv5_action"
}
layer {
  name: "pool5_action"
  type: "Pooling"
  bottom: "conv5_action"
  top: "pool5_action"
  pooling_param {
    pool: MAX
    kernel_size: 3
    stride: 2
  }
}
layer {
  name: "fc6_action"
  type: "InnerProduct"
  bottom: "pool5_action"
  top: "fc6_action"
  param {
    lr_mult: 0
    decay_mult: 0
  }
  param {
    lr_mult: 0
    decay_mult: 0
  }
  inner_product_param {
    num_output: 4096
    weight_filler {
      type: "gaussian"
      std: 0.005
    }
    bias_filler {
      type: "constant"
      value: 1
    }
  }
}
layer {
  name: "relu6_action"
  type: "ReLU"
  bottom: "fc6_action"
  top: "fc6_action"
}
layer {
  name: "drop6_action"
  type: "Dropout"
  bottom: "fc6_action"
  top: "fc6_action"
  dropout_param {
    dropout_ratio: 0.5
  }
}
layer {
  name: "fc7_action"
  type: "InnerProduct"
  bottom: "fc6_action"
  top: "fc7_action"
  param {
    lr_mult: 0
    decay_mult: 0
  }
  param {
    lr_mult: 0
    decay_mult: 0
  }
  inner_product_param {
    num_output: 4096
    weight_filler {
      type: "gaussian"
      std: 0.005
    }
    bias_filler {
      type: "constant"
      value: 1
    }
  }
}
layer {
  name: "relu7_action"
  type: "ReLU"
  bottom: "fc7_action"
  top: "fc7_action"
}
layer {
  name: "drop7_action"
  type: "Dropout"
  bottom: "fc7_action"
  top: "fc7_action"
  dropout_param {
    dropout_ratio: 0.5
  }
}
layer {
  name: "fc8_CAD_action"
  type: "InnerProduct"
  bottom: "fc7_action"
  top: "fc8_CAD_action"
  param {
    lr_mult: 0
    decay_mult: 0
  } 
  param {
    lr_mult: 0
    decay_mult: 0
  }
  inner_product_param {
    num_output: 7
    weight_filler {
      type: "gaussian"
      std: 0.01
    }
    bias_filler {
      type: "constant"
      value: 1
    }
  }
}

############################################################### frame net #################################################################

layer {
  name: "data_frame"
  type: "Data"
  top: "data_frame"
  top: "label_frame"
  include {
    phase: TRAIN
  }
  transform_param {
    mirror: true
    crop_size: 227
    mean_file: "imagenet_mean.binaryproto"
  }
  data_param {
    #source: "/cs/vml2/zhiweid/CVPR16_NEW/bp-rnn/experiments/0419_context/CAD_train_lmdb_0419_frame_context"
    source: "/cs/vml2/zhiweid/CVPR16_NEW/data/0930/CAD_frame_train_lmdb_0930"
    batch_size: 5
    backend: LMDB
  }
}
layer {
  name: "data_frame"
  type: "Data"
  top: "data_frame"
  top: "label_frame"
  include {
    phase: TEST
  }
  transform_param {
    mirror: false
    crop_size: 227
    mean_file: "imagenet_mean.binaryproto"
  }
  data_param {
    #source: "/cs/vml2/zhiweid/CVPR16_NEW/bp-rnn/experiments/0419_context/CAD_val_lmdb_0419_frame_context"
    source: "/cs/vml2/zhiweid/CVPR16_NEW/data/0930/CAD_frame_val_lmdb_0930"
    batch_size: 1
    backend: LMDB
  }
}
layer {
  name: "context"
  type: "HDF5Data"
  top: "data_context"
  include {
    phase: TRAIN
  }
  hdf5_data_param {
    source: "/cs/vml2/zhiweid/CVPR16_NEW/data/0930/hdf5db/train_context.txt"
    batch_size: 5
  }
}
layer {
  name: "context"
  type: "HDF5Data"
  top: "data_context"
  include {
    phase: TEST
  }
  hdf5_data_param {
    source: "/cs/vml2/zhiweid/CVPR16_NEW/data/0930/hdf5db/val_context.txt"
    batch_size: 1
  }
}
layer {
  name: "conv1_frame"
  type: "Convolution"
  bottom: "data_frame"
  top: "conv1_frame"
  param {
    lr_mult: 0
    decay_mult: 0
  }
  param {
    lr_mult: 0
    decay_mult: 0
  }
  convolution_param {
    num_output: 96
    kernel_size: 11
    stride: 4
    weight_filler {
      type: "gaussian"
      std: 0.01
    }
    bias_filler {
      type: "constant"
      value: 0
    }
  }
}
layer {
  name: "relu1_frame"
  type: "ReLU"
  bottom: "conv1_frame"
  top: "conv1_frame"
}
layer {
  name: "pool1_frame"
  type: "Pooling"
  bottom: "conv1_frame"
  top: "pool1_frame"
  pooling_param {
    pool: MAX
    kernel_size: 3
    stride: 2
  }
}
layer {
  name: "norm1_frame"
  type: "LRN"
  bottom: "pool1_frame"
  top: "norm1_frame"
  lrn_param {
    local_size: 5
    alpha: 0.0001
    beta: 0.75
  }
}
layer {
  name: "conv2_frame"
  type: "Convolution"
  bottom: "norm1_frame"
  top: "conv2_frame"
  param {
    lr_mult: 0
    decay_mult: 0
  }
  param {
    lr_mult: 0
    decay_mult: 0
  }
  convolution_param {
    num_output: 256
    pad: 2
    kernel_size: 5
    group: 2
    weight_filler {
      type: "gaussian"
      std: 0.01
    }
    bias_filler {
      type: "constant"
      value: 1
    }
  }
}
layer {
  name: "relu2_frame"
  type: "ReLU"
  bottom: "conv2_frame"
  top: "conv2_frame"
}
layer {
  name: "pool2_frame"
  type: "Pooling"
  bottom: "conv2_frame"
  top: "pool2_frame"
  pooling_param {
    pool: MAX
    kernel_size: 3
    stride: 2
  }
}
layer {
  name: "norm2_frame"
  type: "LRN"
  bottom: "pool2_frame"
  top: "norm2_frame"
  lrn_param {
    local_size: 5
    alpha: 0.0001
    beta: 0.75
  }
}
layer {
  name: "conv3_frame"
  type: "Convolution"
  bottom: "norm2_frame"
  top: "conv3_frame"
  param {
    lr_mult: 0
    decay_mult: 0
  }
  param {
    lr_mult: 0
    decay_mult: 0
  }
  convolution_param {
    num_output: 384
    pad: 1
    kernel_size: 3
    weight_filler {
      type: "gaussian"
      std: 0.01
    }
    bias_filler {
      type: "constant"
      value: 0
    }
  }
}
layer {
  name: "relu3_frame"
  type: "ReLU"
  bottom: "conv3_frame"
  top: "conv3_frame"
}
layer {
  name: "conv4_frame"
  type: "Convolution"
  bottom: "conv3_frame"
  top: "conv4_frame"
  param {
    lr_mult: 0
    decay_mult: 0
  }
  param {
    lr_mult: 0
    decay_mult: 0
  }
  convolution_param {
    num_output: 384
    pad: 1
    kernel_size: 3
    group: 2
    weight_filler {
      type: "gaussian"
      std: 0.01
    }
    bias_filler {
      type: "constant"
      value: 1
    }
  }
}
layer {
  name: "relu4_frame"
  type: "ReLU"
  bottom: "conv4_frame"
  top: "conv4_frame"
}
layer {
  name: "conv5_frame"
  type: "Convolution"
  bottom: "conv4_frame"
  top: "conv5_frame"
  param {
    lr_mult: 0
    decay_mult: 0
  }
  param {
    lr_mult: 0
    decay_mult: 0
  }
  convolution_param {
    num_output: 256
    pad: 1
    kernel_size: 3
    group: 2
    weight_filler {
      type: "gaussian"
      std: 0.01
    }
    bias_filler {
      type: "constant"
      value: 1
    }
  }
}
layer {
  name: "relu5_frame"
  type: "ReLU"
  bottom: "conv5_frame"
  top: "conv5_frame"
}
layer {
  name: "pool5_frame"
  type: "Pooling"
  bottom: "conv5_frame"
  top: "pool5_frame"
  pooling_param {
    pool: MAX
    kernel_size: 3
    stride: 2
  }
}
layer {
  name: "fc6_frame"
  type: "InnerProduct"
  bottom: "pool5_frame"
  top: "fc6_frame"
  param {
    lr_mult: 0
    decay_mult: 0
  }
  param {
    lr_mult: 0
    decay_mult: 0
  }
  inner_product_param {
    num_output: 4096
    weight_filler {
      type: "gaussian"
      std: 0.005
    }
    bias_filler {
      type: "constant"
      value: 1
    }
  }
}
layer {
  name: "relu6_frame"
  type: "ReLU"
  bottom: "fc6_frame"
  top: "fc6_frame"
}
layer {
  name: "drop6_frame"
  type: "Dropout"
  bottom: "fc6_frame"
  top: "fc6_frame"
  dropout_param {
    dropout_ratio: 0.5
  }
}
layer {
  name: "fc7_frame"
  type: "InnerProduct"
  bottom: "fc6_frame"
  top: "fc7_frame"
  param {
    lr_mult: 0
    decay_mult: 0
  }
  param {
    lr_mult: 0
    decay_mult: 0
  }
  inner_product_param {
    num_output: 4096
    weight_filler {
      type: "gaussian"
      std: 0.005
    }
    bias_filler {
      type: "constant"
      value: 1
    }
  }
}
layer {
  name: "relu7_frame"
  type: "ReLU"
  bottom: "fc7_frame"
  top: "fc7_frame"
}
layer {
  name: "drop7_frame"
  type: "Dropout"
  bottom: "fc7_frame"
  top: "fc7_frame"
  dropout_param {
    dropout_ratio: 0.5
  }
}
layer {
  name: "fc8_CAD_frame"
  type: "InnerProduct"
  bottom: "fc7_frame"
  top: "fc8_CAD_frame"
  param {
    lr_mult: 0
    decay_mult: 0
  }
  inner_product_param {
    num_output: 5
    bias_term: true
    weight_filler {
      type: "gaussian"
      std: 0.01
    }
  }
}
layer {
  name: "fc8_context_1"
  type: "InnerProduct"
  bottom: "data_context"
  top: "fc8_context_1"
  param {
    lr_mult: 10
    decay_mult: 10
  }
  param {
    lr_mult: 20
    decay_mult: 0
  }
  inner_product_param {
    num_output: 5
    bias_term: true
    weight_filler {
      type: "gaussian"
      std: 0.01
    }
  }
}

layer {
  name: "silence_layer"
  type: "Python"
  bottom: "label_frame"
  bottom: "fc8_CAD_frame"
  bottom: "fc8_CAD_action"
  bottom: "label_action"
  python_param{
    module: "Silence"
    layer: "Silence_Layer"
  }
}
layer {
  name: "loss_scene"
  type: "SoftmaxWithLoss"
  bottom: "fc8_context_1"
  bottom: "label_frame"
  top: "loss_scene"
}
layer {
  name: "accuracy_scene"
  type: "Accuracy"
  bottom: "scene_pred_final"
  #bottom: "fc8_CAD_frame_prob_for_check"
  bottom: "label_frame"
  top: "accuracy_scene"
  include {
    phase: TEST
  }
}

