WARNING: Logging before InitGoogleLogging() is written to STDERR
I0928 21:59:57.292006 31416 net.cpp:42] Initializing net from parameters: 
name: "pythonnet"
input: "data"
input: "label"
force_backward: true
state {
  phase: TRAIN
}
input_shape {
  dim: 5
  dim: 565
}
input_shape {
  dim: 70
}
layer {
  name: "one"
  type: "Python"
  bottom: "data"
  bottom: "label"
  top: "a2a"
  top: "a2s"
  top: "s2a"
  python_param {
    module: "test_simplified_message_in"
    layer: "test_message_in"
  }
}
I0928 21:59:57.292084 31416 net.cpp:344] Input 0 -> data
I0928 21:59:57.292134 31416 net.cpp:344] Input 1 -> label
I0928 21:59:57.292146 31416 net.cpp:67] Memory required for data: 0
I0928 21:59:57.292171 31416 layer_factory.hpp:74] Creating layer one
I0928 21:59:57.292225 31416 net.cpp:84] Creating Layer one
I0928 21:59:57.292234 31416 net.cpp:384] one <- data
I0928 21:59:57.292244 31416 net.cpp:384] one <- label
I0928 21:59:57.292254 31416 net.cpp:342] one -> a2a
I0928 21:59:57.292268 31416 net.cpp:342] one -> a2s
I0928 21:59:57.292279 31416 net.cpp:342] one -> s2a
I0928 21:59:57.292289 31416 net.cpp:113] Setting up one
I0928 21:59:57.292503 31416 net.cpp:120] Top shape: 202 40 (8080)
I0928 21:59:57.292512 31416 net.cpp:120] Top shape: 24 40 (960)
I0928 21:59:57.292516 31416 net.cpp:120] Top shape: 24 5 (120)
I0928 21:59:57.292518 31416 net.cpp:126] Memory required for data: 36640
I0928 21:59:57.292526 31416 net.cpp:169] one does not need backward computation.
I0928 21:59:57.292531 31416 net.cpp:208] This network produces output a2a
I0928 21:59:57.292536 31416 net.cpp:208] This network produces output a2s
I0928 21:59:57.292541 31416 net.cpp:208] This network produces output s2a
I0928 21:59:57.292548 31416 net.cpp:449] Collecting Learning Rate and Weight Decay.
I0928 21:59:57.292552 31416 net.cpp:221] Network initialization done.
I0928 21:59:57.292554 31416 net.cpp:222] Memory required for data: 36640
.I0928 21:59:57.423421 31416 net.cpp:42] Initializing net from parameters: 
name: "pythonnet"
input: "data"
input: "label"
force_backward: true
state {
  phase: TRAIN
}
input_shape {
  dim: 5
  dim: 565
}
input_shape {
  dim: 70
}
layer {
  name: "one"
  type: "Python"
  bottom: "data"
  bottom: "label"
  top: "a2a"
  top: "a2s"
  top: "s2a"
  python_param {
    module: "test_simplified_message_in"
    layer: "test_message_in"
  }
}
I0928 21:59:57.423485 31416 net.cpp:344] Input 0 -> data
I0928 21:59:57.423518 31416 net.cpp:344] Input 1 -> label
I0928 21:59:57.423545 31416 net.cpp:67] Memory required for data: 0
I0928 21:59:57.423573 31416 layer_factory.hpp:74] Creating layer one
I0928 21:59:57.423614 31416 net.cpp:84] Creating Layer one
I0928 21:59:57.423622 31416 net.cpp:384] one <- data
I0928 21:59:57.423634 31416 net.cpp:384] one <- label
I0928 21:59:57.423643 31416 net.cpp:342] one -> a2a
I0928 21:59:57.423657 31416 net.cpp:342] one -> a2s
I0928 21:59:57.423667 31416 net.cpp:342] one -> s2a
I0928 21:59:57.423677 31416 net.cpp:113] Setting up one
I0928 21:59:57.423838 31416 net.cpp:120] Top shape: 202 40 (8080)
I0928 21:59:57.423847 31416 net.cpp:120] Top shape: 24 40 (960)
I0928 21:59:57.423851 31416 net.cpp:120] Top shape: 24 5 (120)
I0928 21:59:57.423853 31416 net.cpp:126] Memory required for data: 36640
I0928 21:59:57.423861 31416 net.cpp:169] one does not need backward computation.
I0928 21:59:57.423866 31416 net.cpp:208] This network produces output a2a
I0928 21:59:57.423871 31416 net.cpp:208] This network produces output a2s
I0928 21:59:57.423876 31416 net.cpp:208] This network produces output s2a
I0928 21:59:57.423882 31416 net.cpp:449] Collecting Learning Rate and Weight Decay.
I0928 21:59:57.423887 31416 net.cpp:221] Network initialization done.
I0928 21:59:57.423888 31416 net.cpp:222] Memory required for data: 36640
.I0928 21:59:57.440750 31416 net.cpp:42] Initializing net from parameters: 
name: "pythonnet"
input: "data"
input: "label"
force_backward: true
state {
  phase: TRAIN
}
input_shape {
  dim: 5
  dim: 565
}
input_shape {
  dim: 70
}
layer {
  name: "one"
  type: "Python"
  bottom: "data"
  bottom: "label"
  top: "a2a"
  top: "a2s"
  top: "s2a"
  python_param {
    module: "test_simplified_message_in"
    layer: "test_message_in"
  }
}
I0928 21:59:57.440786 31416 net.cpp:344] Input 0 -> data
I0928 21:59:57.440806 31416 net.cpp:344] Input 1 -> label
I0928 21:59:57.440819 31416 net.cpp:67] Memory required for data: 0
I0928 21:59:57.440831 31416 layer_factory.hpp:74] Creating layer one
I0928 21:59:57.440861 31416 net.cpp:84] Creating Layer one
I0928 21:59:57.440868 31416 net.cpp:384] one <- data
I0928 21:59:57.440878 31416 net.cpp:384] one <- label
I0928 21:59:57.440888 31416 net.cpp:342] one -> a2a
I0928 21:59:57.440901 31416 net.cpp:342] one -> a2s
I0928 21:59:57.440912 31416 net.cpp:342] one -> s2a
I0928 21:59:57.440922 31416 net.cpp:113] Setting up one
I0928 21:59:57.441063 31416 net.cpp:120] Top shape: 202 40 (8080)
I0928 21:59:57.441072 31416 net.cpp:120] Top shape: 24 40 (960)
I0928 21:59:57.441076 31416 net.cpp:120] Top shape: 24 5 (120)
I0928 21:59:57.441078 31416 net.cpp:126] Memory required for data: 36640
I0928 21:59:57.441086 31416 net.cpp:169] one does not need backward computation.
I0928 21:59:57.441088 31416 net.cpp:208] This network produces output a2a
I0928 21:59:57.441095 31416 net.cpp:208] This network produces output a2s
I0928 21:59:57.441099 31416 net.cpp:208] This network produces output s2a
I0928 21:59:57.441107 31416 net.cpp:449] Collecting Learning Rate and Weight Decay.
I0928 21:59:57.441109 31416 net.cpp:221] Network initialization done.
I0928 21:59:57.441112 31416 net.cpp:222] Memory required for data: 36640
.I0928 21:59:57.441400 31416 net.cpp:42] Initializing net from parameters: 
name: "testnet"
force_backward: true
state {
  phase: TRAIN
}
layer {
  name: "data"
  type: "DummyData"
  top: "data"
  top: "label"
  dummy_data_param {
    data_filler {
      type: "gaussian"
      std: 1
    }
    data_filler {
      type: "constant"
    }
    num: 5
    num: 5
    channels: 2
    channels: 1
    height: 3
    height: 1
    width: 4
    width: 1
  }
}
layer {
  name: "conv"
  type: "Convolution"
  bottom: "data"
  top: "conv"
  param {
    decay_mult: 1
  }
  param {
    decay_mult: 0
  }
  convolution_param {
    num_output: 11
    pad: 3
    kernel_size: 2
    weight_filler {
      type: "gaussian"
      std: 1
    }
    bias_filler {
      type: "constant"
      value: 2
    }
  }
}
layer {
  name: "ip"
  type: "InnerProduct"
  bottom: "conv"
  top: "ip"
  inner_product_param {
    num_output: 13
    weight_filler {
      type: "gaussian"
      std: 2.5
    }
    bias_filler {
      type: "constant"
      value: -3
    }
  }
}
layer {
  name: "loss"
  type: "SoftmaxWithLoss"
  bottom: "ip"
  bottom: "label"
  top: "loss"
}
I0928 21:59:57.441453 31416 net.cpp:67] Memory required for data: 0
I0928 21:59:57.441483 31416 layer_factory.hpp:74] Creating layer data
I0928 21:59:57.441510 31416 net.cpp:84] Creating Layer data
I0928 21:59:57.441517 31416 net.cpp:342] data -> data
I0928 21:59:57.441535 31416 net.cpp:342] data -> label
I0928 21:59:57.441547 31416 net.cpp:113] Setting up data
I0928 21:59:57.441596 31416 net.cpp:120] Top shape: 5 2 3 4 (120)
I0928 21:59:57.441603 31416 net.cpp:120] Top shape: 5 1 1 1 (5)
I0928 21:59:57.441606 31416 net.cpp:126] Memory required for data: 500
I0928 21:59:57.441612 31416 layer_factory.hpp:74] Creating layer conv
I0928 21:59:57.441637 31416 net.cpp:84] Creating Layer conv
I0928 21:59:57.441643 31416 net.cpp:384] conv <- data
I0928 21:59:57.441665 31416 net.cpp:342] conv -> conv
I0928 21:59:57.441689 31416 net.cpp:113] Setting up conv
I0928 21:59:57.442092 31416 net.cpp:120] Top shape: 5 11 8 9 (3960)
I0928 21:59:57.442098 31416 net.cpp:126] Memory required for data: 16340
I0928 21:59:57.442116 31416 layer_factory.hpp:74] Creating layer ip
I0928 21:59:57.442129 31416 net.cpp:84] Creating Layer ip
I0928 21:59:57.442134 31416 net.cpp:384] ip <- conv
I0928 21:59:57.442147 31416 net.cpp:342] ip -> ip
I0928 21:59:57.442158 31416 net.cpp:113] Setting up ip
I0928 21:59:57.442873 31416 net.cpp:120] Top shape: 5 13 (65)
I0928 21:59:57.442878 31416 net.cpp:126] Memory required for data: 16600
I0928 21:59:57.442893 31416 layer_factory.hpp:74] Creating layer loss
I0928 21:59:57.442905 31416 net.cpp:84] Creating Layer loss
I0928 21:59:57.442910 31416 net.cpp:384] loss <- ip
I0928 21:59:57.442919 31416 net.cpp:384] loss <- label
I0928 21:59:57.442926 31416 net.cpp:342] loss -> loss
I0928 21:59:57.442939 31416 net.cpp:113] Setting up loss
…
I0928 21:59:57.443017 31416 net.cpp:221] Network initialization done.
I0928 21:59:57.443018 31416 net.cpp:222] Memory required for data: 16604
.I0928 21:59:57.443790 31416 net.cpp:42] Initializing net from parameters: 
name: "testnet"
force_backward: true
state {
  phase: TRAIN
}
layer {
  name: "data"
  type: "DummyData"
  top: "data"
  top: "label"
  dummy_data_param {
    data_filler {
      type: "gaussian"
      std: 1
    }
    data_filler {
      type: "constant"
    }
    num: 5
    num: 5
    channels: 2
    channels: 1
    height: 3
    height: 1
    width: 4
    width: 1
  }
}
layer {
  name: "conv"
  type: "Convolution"
  bottom: "data"
  top: "conv"
  param {
    decay_mult: 1
  }
  param {
    decay_mult: 0
  }
  convolution_param {
    num_output: 11
    pad: 3
    kernel_size: 2
    weight_filler {
      type: "gaussian"
      std: 1
    }
    bias_filler {
      type: "constant"
      value: 2
    }
  }
}
layer {
  name: "ip"
  type: "InnerProduct"
  bottom: "conv"
  top: "ip"
  inner_product_param {
    num_output: 13
    weight_filler {
      type: "gaussian"
      std: 2.5
    }
    bias_filler {
      type: "constant"
      value: -3
    }
  }
}
layer {
  name: "loss"
  type: "SoftmaxWithLoss"
  bottom: "ip"
  bottom: "label"
  top: "loss"
}
I0928 21:59:57.443835 31416 net.cpp:67] Memory required for data: 0
I0928 21:59:57.443855 31416 layer_factory.hpp:74] Creating layer data
I0928 21:59:57.443868 31416 net.cpp:84] Creating Layer data
I0928 21:59:57.443874 31416 net.cpp:342] data -> data
I0928 21:59:57.443892 31416 net.cpp:342] data -> label
I0928 21:59:57.443904 31416 net.cpp:113] Setting up data
I0928 21:59:57.443925 31416 net.cpp:120] Top shape: 5 2 3 4 (120)
I0928 21:59:57.443931 31416 net.cpp:120] Top shape: 5 1 1 1 (5)
I0928 21:59:57.443933 31416 net.cpp:126] Memory required for data: 500
I0928 21:59:57.443938 31416 layer_factory.hpp:74] Creating layer conv
I0928 21:59:57.443953 31416 net.cpp:84] Creating Layer conv
I0928 21:59:57.443958 31416 net.cpp:384] conv <- data
I0928 21:59:57.443970 31416 net.cpp:342] conv -> conv
I0928 21:59:57.443984 31416 net.cpp:113] Setting up conv
I0928 21:59:57.444016 31416 net.cpp:120] Top shape: 5 11 8 9 (3960)
I0928 21:59:57.444021 31416 net.cpp:126] Memory required for data: 16340
I0928 21:59:57.444036 31416 layer_factory.hpp:74] Creating layer ip
I0928 21:59:57.444048 31416 net.cpp:84] Creating Layer ip
I0928 21:59:57.444053 31416 net.cpp:384] ip <- conv
I0928 21:59:57.444064 31416 net.cpp:342] ip -> ip
I0928 21:59:57.444075 31416 net.cpp:113] Setting up ip
I0928 21:59:57.444792 31416 net.cpp:120] Top shape: 5 13 (65)
I0928 21:59:57.444797 31416 net.cpp:126] Memory required for data: 16600
I0928 21:59:57.444809 31416 layer_factory.hpp:74] Creating layer loss
I0928 21:59:57.444818 31416 net.cpp:84] Creating Layer loss
I0928 21:59:57.444823 31416 net.cpp:384] loss <- ip
I0928 21:59:57.444833 31416 net.cpp:384] loss <- label
I0928 21:59:57.444840 31416 net.cpp:342] loss -> loss
I0928 21:59:57.444851 31416 net.cpp:113] Setting up loss
…
I0928 21:59:57.450579 31416 net.cpp:704] Copying source layer conv
I0928 21:59:57.450587 31416 net.cpp:704] Copying source layer ip
I0928 21:59:57.450675 31416 net.cpp:704] Copying source layer loss
.I0928 21:59:57.452142 31416 net.cpp:42] Initializing net from parameters: 
name: "pythonnet"
input: "a2a"
input: "a2s"
input: "s2a"
input: "label"
input: "unaries"
force_backward: true
state {
  phase: TRAIN
}
input_shape {
  dim: 202
  dim: 40
}
input_shape {
  dim: 24
  dim: 5
}
input_shape {
  dim: 24
  dim: 40
}
input_shape {
  dim: 70
}
input_shape {
  dim: 5
  dim: 565
}
layer {
  name: "one"
  type: "Python"
  bottom: "a2a"
  bottom: "a2s"
  bottom: "s2a"
  bottom: "label"
  bottom: "unaries"
  top: "scene"
  top: "action"
  python_param {
    module: "test_simplified_message_out"
    layer: "test_message_out"
  }
}
I0928 21:59:57.452183 31416 net.cpp:344] Input 0 -> a2a
I0928 21:59:57.452204 31416 net.cpp:344] Input 1 -> a2s
I0928 21:59:57.452219 31416 net.cpp:344] Input 2 -> s2a
I0928 21:59:57.452229 31416 net.cpp:344] Input 3 -> label
I0928 21:59:57.452237 31416 net.cpp:344] Input 4 -> unaries
I0928 21:59:57.452255 31416 net.cpp:67] Memory required for data: 0
I0928 21:59:57.452268 31416 layer_factory.hpp:74] Creating layer one
I0928 21:59:57.452299 31416 net.cpp:84] Creating Layer one
I0928 21:59:57.452307 31416 net.cpp:384] one <- a2a
I0928 21:59:57.452317 31416 net.cpp:384] one <- a2s
I0928 21:59:57.452323 31416 net.cpp:384] one <- s2a
I0928 21:59:57.452328 31416 net.cpp:384] one <- label
I0928 21:59:57.452332 31416 net.cpp:384] one <- unaries
I0928 21:59:57.452340 31416 net.cpp:342] one -> scene
I0928 21:59:57.452353 31416 net.cpp:342] one -> action
I0928 21:59:57.452360 31416 net.cpp:113] Setting up one
I0928 21:59:57.452503 31416 net.cpp:120] Top shape: 5 10 (50)
I0928 21:59:57.452512 31416 net.cpp:120] Top shape: 70 120 (8400)
I0928 21:59:57.452514 31416 net.cpp:126] Memory required for data: 33800
I0928 21:59:57.452522 31416 net.cpp:169] one does not need backward computation.
I0928 21:59:57.452525 31416 net.cpp:208] This network produces output action
I0928 21:59:57.452533 31416 net.cpp:208] This network produces output scene
I0928 21:59:57.452540 31416 net.cpp:449] Collecting Learning Rate and Weight Decay.
I0928 21:59:57.452543 31416 net.cpp:221] Network initialization done.
I0928 21:59:57.452546 31416 net.cpp:222] Memory required for data: 33800
.I0928 21:59:57.475360 31416 net.cpp:42] Initializing net from parameters: 
name: "pythonnet"
input: "a2a"
input: "a2s"
input: "s2a"
input: "label"
input: "unaries"
force_backward: true
state {
  phase: TRAIN
}
input_shape {
  dim: 202
  dim: 40
}
input_shape {
  dim: 24
  dim: 5
}
input_shape {
  dim: 24
  dim: 40
}
input_shape {
  dim: 70
}
input_shape {
  dim: 5
  dim: 565
}
layer {
  name: "one"
  type: "Python"
  bottom: "a2a"
  bottom: "a2s"
  bottom: "s2a"
  bottom: "label"
  bottom: "unaries"
  top: "scene"
  top: "action"
  python_param {
    module: "test_simplified_message_out"
    layer: "test_message_out"
  }
}
I0928 21:59:57.475427 31416 net.cpp:344] Input 0 -> a2a
I0928 21:59:57.475463 31416 net.cpp:344] Input 1 -> a2s
I0928 21:59:57.475484 31416 net.cpp:344] Input 2 -> s2a
I0928 21:59:57.475500 31416 net.cpp:344] Input 3 -> label
I0928 21:59:57.475512 31416 net.cpp:344] Input 4 -> unaries
I0928 21:59:57.475527 31416 net.cpp:67] Memory required for data: 0
I0928 21:59:57.475549 31416 layer_factory.hpp:74] Creating layer one
I0928 21:59:57.475602 31416 net.cpp:84] Creating Layer one
I0928 21:59:57.475615 31416 net.cpp:384] one <- a2a
I0928 21:59:57.475632 31416 net.cpp:384] one <- a2s
I0928 21:59:57.475642 31416 net.cpp:384] one <- s2a
I0928 21:59:57.475651 31416 net.cpp:384] one <- label
I0928 21:59:57.475657 31416 net.cpp:384] one <- unaries
I0928 21:59:57.475672 31416 net.cpp:342] one -> scene
I0928 21:59:57.475692 31416 net.cpp:342] one -> action
I0928 21:59:57.475704 31416 net.cpp:113] Setting up one
I0928 21:59:57.475963 31416 net.cpp:120] Top shape: 5 10 (50)
I0928 21:59:57.475977 31416 net.cpp:120] Top shape: 70 120 (8400)
I0928 21:59:57.475988 31416 net.cpp:126] Memory required for data: 33800
I0928 21:59:57.476001 31416 net.cpp:169] one does not need backward computation.
I0928 21:59:57.476007 31416 net.cpp:208] This network produces output action
I0928 21:59:57.476017 31416 net.cpp:208] This network produces output scene
I0928 21:59:57.476032 31416 net.cpp:449] Collecting Learning Rate and Weight Decay.
I0928 21:59:57.476037 31416 net.cpp:221] Network initialization done.
I0928 21:59:57.476042 31416 net.cpp:222] Memory required for data: 33800
.I0928 21:59:57.486707 31416 net.cpp:42] Initializing net from parameters: 
name: "pythonnet"
input: "a2a"
input: "a2s"
input: "s2a"
input: "label"
input: "unaries"
force_backward: true
state {
  phase: TRAIN
}
input_shape {
  dim: 202
  dim: 40
}
input_shape {
  dim: 24
  dim: 5
}
input_shape {
  dim: 24
  dim: 40
}
input_shape {
  dim: 70
}
input_shape {
  dim: 5
  dim: 565
}
layer {
  name: "one"
  type: "Python"
  bottom: "a2a"
  bottom: "a2s"
  bottom: "s2a"
  bottom: "label"
  bottom: "unaries"
  top: "scene"
  top: "action"
  python_param {
    module: "test_simplified_message_out"
    layer: "test_message_out"
  }
}
I0928 21:59:57.486747 31416 net.cpp:344] Input 0 -> a2a
I0928 21:59:57.486768 31416 net.cpp:344] Input 1 -> a2s
I0928 21:59:57.486780 31416 net.cpp:344] Input 2 -> s2a
I0928 21:59:57.486790 31416 net.cpp:344] Input 3 -> label
I0928 21:59:57.486799 31416 net.cpp:344] Input 4 -> unaries
I0928 21:59:57.486806 31416 net.cpp:67] Memory required for data: 0
I0928 21:59:57.486820 31416 layer_factory.hpp:74] Creating layer one
I0928 21:59:57.486853 31416 net.cpp:84] Creating Layer one
I0928 21:59:57.486861 31416 net.cpp:384] one <- a2a
I0928 21:59:57.486871 31416 net.cpp:384] one <- a2s
I0928 21:59:57.486877 31416 net.cpp:384] one <- s2a
I0928 21:59:57.486882 31416 net.cpp:384] one <- label
I0928 21:59:57.486886 31416 net.cpp:384] one <- unaries
I0928 21:59:57.486894 31416 net.cpp:342] one -> scene
I0928 21:59:57.486907 31416 net.cpp:342] one -> action
I0928 21:59:57.486914 31416 net.cpp:113] Setting up one
I0928 21:59:57.487071 31416 net.cpp:120] Top shape: 5 10 (50)
I0928 21:59:57.487079 31416 net.cpp:120] Top shape: 70 120 (8400)
I0928 21:59:57.487082 31416 net.cpp:126] Memory required for data: 33800
I0928 21:59:57.487089 31416 net.cpp:169] one does not need backward computation.
I0928 21:59:57.487093 31416 net.cpp:208] This network produces output action
I0928 21:59:57.487099 31416 net.cpp:208] This network produces output scene
I0928 21:59:57.487107 31416 net.cpp:449] Collecting Learning Rate and Weight Decay.
I0928 21:59:57.487112 31416 net.cpp:221] Network initialization done.
I0928 21:59:57.487113 31416 net.cpp:222] Memory required for data: 33800
.I0928 21:59:57.487318 31416 solver.cpp:32] Initializing solver from parameters: 
test_iter: 10
test_interval: 10
base_lr: 0.01
display: 100
max_iter: 100
lr_policy: "inv"
gamma: 0.0001
power: 0.75
momentum: 0.9
weight_decay: 0.0005
net: "/tmp/tmpSnjaLu"
snapshot_after_train: false
I0928 21:59:57.487334 31416 solver.cpp:70] Creating training net from net file: /tmp/tmpSnjaLu
I0928 21:59:57.487465 31416 net.cpp:42] Initializing net from parameters: 
name: "testnet"
force_backward: true
state {
  phase: TRAIN
}
layer {
  name: "data"
  type: "DummyData"
  top: "data"
  top: "label"
  dummy_data_param {
    data_filler {
      type: "gaussian"
      std: 1
    }
    data_filler {
      type: "constant"
    }
    num: 5
    num: 5
    channels: 2
    channels: 1
    height: 3
    height: 1
    width: 4
    width: 1
  }
}
layer {
  name: "conv"
  type: "Convolution"
  bottom: "data"
  top: "conv"
  param {
    decay_mult: 1
  }
  param {
    decay_mult: 0
  }
  convolution_param {
    num_output: 11
    pad: 3
    kernel_size: 2
    weight_filler {
      type: "gaussian"
      std: 1
    }
    bias_filler {
      type: "constant"
      value: 2
    }
  }
}
layer {
  name: "ip"
  type: "InnerProduct"
  bottom: "conv"
  top: "ip"
  inner_product_param {
    num_output: 13
    weight_filler {
      type: "gaussian"
      std: 2.5
    }
    bias_filler {
      type: "constant"
      value: -3
    }
  }
}
layer {
  name: "loss"
  type: "SoftmaxWithLoss"
  bottom: "ip"
  bottom: "label"
  top: "loss"
}
I0928 21:59:57.487511 31416 net.cpp:67] Memory required for data: 0
I0928 21:59:57.487530 31416 layer_factory.hpp:74] Creating layer data
I0928 21:59:57.487545 31416 net.cpp:84] Creating Layer data
I0928 21:59:57.487551 31416 net.cpp:342] data -> data
I0928 21:59:57.487570 31416 net.cpp:342] data -> label
I0928 21:59:57.487582 31416 net.cpp:113] Setting up data
I0928 21:59:57.487604 31416 net.cpp:120] Top shape: 5 2 3 4 (120)
I0928 21:59:57.487610 31416 net.cpp:120] Top shape: 5 1 1 1 (5)
I0928 21:59:57.487613 31416 net.cpp:126] Memory required for data: 500
I0928 21:59:57.487618 31416 layer_factory.hpp:74] Creating layer conv
I0928 21:59:57.487633 31416 net.cpp:84] Creating Layer conv
I0928 21:59:57.487638 31416 net.cpp:384] conv <- data
I0928 21:59:57.487651 31416 net.cpp:342] conv -> conv
I0928 21:59:57.487664 31416 net.cpp:113] Setting up conv
I0928 21:59:57.487700 31416 net.cpp:120] Top shape: 5 11 8 9 (3960)
I0928 21:59:57.487704 31416 net.cpp:126] Memory required for data: 16340
I0928 21:59:57.487720 31416 layer_factory.hpp:74] Creating layer ip
I0928 21:59:57.487732 31416 net.cpp:84] Creating Layer ip
I0928 21:59:57.487737 31416 net.cpp:384] ip <- conv
I0928 21:59:57.487750 31416 net.cpp:342] ip -> ip
I0928 21:59:57.487761 31416 net.cpp:113] Setting up ip
I0928 21:59:57.488584 31416 net.cpp:120] Top shape: 5 13 (65)
I0928 21:59:57.488589 31416 net.cpp:126] Memory required for data: 16600
I0928 21:59:57.488600 31416 layer_factory.hpp:74] Creating layer loss
I0928 21:59:57.488610 31416 net.cpp:84] Creating Layer loss
I0928 21:59:57.488615 31416 net.cpp:384] loss <- ip
I0928 21:59:57.488623 31416 net.cpp:384] loss <- label
I0928 21:59:57.488631 31416 net.cpp:342] loss -> loss
I0928 21:59:57.488641 31416 net.cpp:113] Setting up loss
…
I0928 21:59:57.550921 31416 net.cpp:639] Copying source layer conv
I0928 21:59:57.550930 31416 net.cpp:639] Copying source layer ip
I0928 21:59:57.550935 31416 net.cpp:639] Copying source layer loss
I0928 21:59:57.552399 31416 solver.cpp:340]     Test net output #0: loss = 79.558 (* 1 = 79.558 loss)
I0928 21:59:57.552429 31416 solver.cpp:278] Optimization Done.
.I0928 21:59:57.552922 31416 net.cpp:42] Initializing net from parameters: 
name: "pythonnet"
input: "data"
force_backward: true
state {
  phase: TRAIN
}
input_shape {
  dim: 10
  dim: 9
  dim: 8
}
layer {
  name: "one"
  type: "Python"
  bottom: "data"
  top: "one"
  python_param {
    module: "test_python_layer"
    layer: "SimpleLayer"
  }
}
layer {
  name: "two"
  type: "Python"
  bottom: "one"
  top: "two"
  python_param {
    module: "test_python_layer"
    layer: "SimpleLayer"
  }
}
layer {
  name: "three"
  type: "Python"
  bottom: "two"
  top: "three"
  python_param {
    module: "test_python_layer"
    layer: "SimpleLayer"
  }
}
I0928 21:59:57.553001 31416 net.cpp:344] Input 0 -> data
I0928 21:59:57.553048 31416 net.cpp:67] Memory required for data: 0
I0928 21:59:57.553081 31416 layer_factory.hpp:74] Creating layer one
I0928 21:59:57.553143 31416 net.cpp:84] Creating Layer one
I0928 21:59:57.553154 31416 net.cpp:384] one <- data
I0928 21:59:57.553174 31416 net.cpp:342] one -> one
I0928 21:59:57.553192 31416 net.cpp:113] Setting up one
I0928 21:59:57.553268 31416 net.cpp:120] Top shape: 10 9 8 (720)
I0928 21:59:57.553277 31416 net.cpp:126] Memory required for data: 2880
I0928 21:59:57.553287 31416 layer_factory.hpp:74] Creating layer two
I0928 21:59:57.553323 31416 net.cpp:84] Creating Layer two
I0928 21:59:57.553333 31416 net.cpp:384] two <- one
I0928 21:59:57.553350 31416 net.cpp:342] two -> two
I0928 21:59:57.553369 31416 net.cpp:113] Setting up two
I0928 21:59:57.553416 31416 net.cpp:120] Top shape: 10 9 8 (720)
I0928 21:59:57.553424 31416 net.cpp:126] Memory required for data: 5760
I0928 21:59:57.553431 31416 layer_factory.hpp:74] Creating layer three
I0928 21:59:57.553467 31416 net.cpp:84] Creating Layer three
I0928 21:59:57.553477 31416 net.cpp:384] three <- two
I0928 21:59:57.553494 31416 net.cpp:342] three -> three
I0928 21:59:57.553509 31416 net.cpp:113] Setting up three
I0928 21:59:57.553555 31416 net.cpp:120] Top shape: 10 9 8 (720)
I0928 21:59:57.553563 31416 net.cpp:126] Memory required for data: 8640
I0928 21:59:57.553571 31416 net.cpp:169] three does not need backward computation.
I0928 21:59:57.553576 31416 net.cpp:169] two does not need backward computation.
I0928 21:59:57.553580 31416 net.cpp:169] one does not need backward computation.
I0928 21:59:57.553586 31416 net.cpp:208] This network produces output three
I0928 21:59:57.553601 31416 net.cpp:449] Collecting Learning Rate and Weight Decay.
I0928 21:59:57.553606 31416 net.cpp:221] Network initialization done.
I0928 21:59:57.553611 31416 net.cpp:222] Memory required for data: 8640
.I0928 21:59:57.556713 31416 net.cpp:42] Initializing net from parameters: 
name: "pythonnet"
input: "data"
force_backward: true
state {
  phase: TRAIN
}
input_shape {
  dim: 10
  dim: 9
  dim: 8
}
layer {
  name: "one"
  type: "Python"
  bottom: "data"
  top: "one"
  python_param {
    module: "test_python_layer"
    layer: "SimpleLayer"
  }
}
layer {
  name: "two"
  type: "Python"
  bottom: "one"
  top: "two"
  python_param {
    module: "test_python_layer"
    layer: "SimpleLayer"
  }
}
layer {
  name: "three"
  type: "Python"
  bottom: "two"
  top: "three"
  python_param {
    module: "test_python_layer"
    layer: "SimpleLayer"
  }
}
I0928 21:59:57.556799 31416 net.cpp:344] Input 0 -> data
I0928 21:59:57.556852 31416 net.cpp:67] Memory required for data: 0
I0928 21:59:57.556886 31416 layer_factory.hpp:74] Creating layer one
I0928 21:59:57.556953 31416 net.cpp:84] Creating Layer one
I0928 21:59:57.556965 31416 net.cpp:384] one <- data
I0928 21:59:57.556985 31416 net.cpp:342] one -> one
I0928 21:59:57.557004 31416 net.cpp:113] Setting up one
I0928 21:59:57.557080 31416 net.cpp:120] Top shape: 10 9 8 (720)
I0928 21:59:57.557088 31416 net.cpp:126] Memory required for data: 2880
I0928 21:59:57.557097 31416 layer_factory.hpp:74] Creating layer two
I0928 21:59:57.557137 31416 net.cpp:84] Creating Layer two
I0928 21:59:57.557147 31416 net.cpp:384] two <- one
I0928 21:59:57.557164 31416 net.cpp:342] two -> two
I0928 21:59:57.557183 31416 net.cpp:113] Setting up two
I0928 21:59:57.557232 31416 net.cpp:120] Top shape: 10 9 8 (720)
I0928 21:59:57.557240 31416 net.cpp:126] Memory required for data: 5760
I0928 21:59:57.557247 31416 layer_factory.hpp:74] Creating layer three
I0928 21:59:57.557283 31416 net.cpp:84] Creating Layer three
I0928 21:59:57.557293 31416 net.cpp:384] three <- two
I0928 21:59:57.557312 31416 net.cpp:342] three -> three
I0928 21:59:57.557327 31416 net.cpp:113] Setting up three
I0928 21:59:57.557382 31416 net.cpp:120] Top shape: 10 9 8 (720)
I0928 21:59:57.557390 31416 net.cpp:126] Memory required for data: 8640
I0928 21:59:57.557397 31416 net.cpp:169] three does not need backward computation.
I0928 21:59:57.557402 31416 net.cpp:169] two does not need backward computation.
I0928 21:59:57.557407 31416 net.cpp:169] one does not need backward computation.
I0928 21:59:57.557413 31416 net.cpp:208] This network produces output three
I0928 21:59:57.557427 31416 net.cpp:449] Collecting Learning Rate and Weight Decay.
I0928 21:59:57.557433 31416 net.cpp:221] Network initialization done.
I0928 21:59:57.557437 31416 net.cpp:222] Memory required for data: 8640
.I0928 21:59:57.560763 31416 net.cpp:42] Initializing net from parameters: 
name: "pythonnet"
input: "data"
force_backward: true
state {
  phase: TRAIN
}
input_shape {
  dim: 10
  dim: 9
  dim: 8
}
layer {
  name: "one"
  type: "Python"
  bottom: "data"
  top: "one"
  python_param {
    module: "test_python_layer"
    layer: "SimpleLayer"
  }
}
layer {
  name: "two"
  type: "Python"
  bottom: "one"
  top: "two"
  python_param {
    module: "test_python_layer"
    layer: "SimpleLayer"
  }
}
layer {
  name: "three"
  type: "Python"
  bottom: "two"
  top: "three"
  python_param {
    module: "test_python_layer"
    layer: "SimpleLayer"
  }
}
I0928 21:59:57.560852 31416 net.cpp:344] Input 0 -> data
I0928 21:59:57.560900 31416 net.cpp:67] Memory required for data: 0
I0928 21:59:57.560935 31416 layer_factory.hpp:74] Creating layer one
I0928 21:59:57.560994 31416 net.cpp:84] Creating Layer one
I0928 21:59:57.561005 31416 net.cpp:384] one <- data
I0928 21:59:57.561024 31416 net.cpp:342] one -> one
I0928 21:59:57.561041 31416 net.cpp:113] Setting up one
I0928 21:59:57.561110 31416 net.cpp:120] Top shape: 10 9 8 (720)
I0928 21:59:57.561117 31416 net.cpp:126] Memory required for data: 2880
I0928 21:59:57.561126 31416 layer_factory.hpp:74] Creating layer two
I0928 21:59:57.561161 31416 net.cpp:84] Creating Layer two
I0928 21:59:57.561170 31416 net.cpp:384] two <- one
I0928 21:59:57.561188 31416 net.cpp:342] two -> two
I0928 21:59:57.561205 31416 net.cpp:113] Setting up two
I0928 21:59:57.561266 31416 net.cpp:120] Top shape: 10 9 8 (720)
I0928 21:59:57.561275 31416 net.cpp:126] Memory required for data: 5760
I0928 21:59:57.561293 31416 layer_factory.hpp:74] Creating layer three
I0928 21:59:57.561327 31416 net.cpp:84] Creating Layer three
I0928 21:59:57.561336 31416 net.cpp:384] three <- two
I0928 21:59:57.561352 31416 net.cpp:342] three -> three
I0928 21:59:57.561367 31416 net.cpp:113] Setting up three
I0928 21:59:57.561409 31416 net.cpp:120] Top shape: 10 9 8 (720)
I0928 21:59:57.561416 31416 net.cpp:126] Memory required for data: 8640
I0928 21:59:57.561437 31416 net.cpp:169] three does not need backward computation.
I0928 21:59:57.561442 31416 net.cpp:169] two does not need backward computation.
I0928 21:59:57.561446 31416 net.cpp:169] one does not need backward computation.
I0928 21:59:57.561453 31416 net.cpp:208] This network produces output three
…
