WARNING: Logging before InitGoogleLogging() is written to STDERR
I0729 22:57:55.704284 32751 net.cpp:42] Initializing net from parameters: 
name: "pythonnet"
input: "data"
force_backward: true
state {
  phase: TRAIN
}
input_shape {
  dim: 10
  dim: 9
  dim: 8
}
layer {
  name: "one"
  type: "Python"
  bottom: "data"
  top: "one"
  python_param {
    module: "test_python_layer"
    layer: "SimpleLayer"
  }
}
layer {
  name: "two"
  type: "Python"
  bottom: "one"
  top: "two"
  python_param {
    module: "test_python_layer"
    layer: "SimpleLayer"
  }
}
layer {
  name: "three"
  type: "Python"
  bottom: "two"
  top: "three"
  python_param {
    module: "test_python_layer"
    layer: "SimpleLayer"
  }
}
I0729 22:57:55.704382 32751 net.cpp:344] Input 0 -> data
I0729 22:57:55.704437 32751 net.cpp:67] Memory required for data: 0
I0729 22:57:55.704464 32751 layer_factory.hpp:74] Creating layer one
I0729 22:57:55.704519 32751 net.cpp:84] Creating Layer one
I0729 22:57:55.704529 32751 net.cpp:384] one <- data
I0729 22:57:55.704542 32751 net.cpp:342] one -> one
I0729 22:57:55.704556 32751 net.cpp:113] Setting up one
I0729 22:57:55.704632 32751 net.cpp:120] Top shape: 10 9 8 (720)
I0729 22:57:55.704638 32751 net.cpp:126] Memory required for data: 2880
I0729 22:57:55.704644 32751 layer_factory.hpp:74] Creating layer two
I0729 22:57:55.704670 32751 net.cpp:84] Creating Layer two
I0729 22:57:55.704677 32751 net.cpp:384] two <- one
I0729 22:57:55.704690 32751 net.cpp:342] two -> two
I0729 22:57:55.704704 32751 net.cpp:113] Setting up two
I0729 22:57:55.704737 32751 net.cpp:120] Top shape: 10 9 8 (720)
I0729 22:57:55.704743 32751 net.cpp:126] Memory required for data: 5760
I0729 22:57:55.704747 32751 layer_factory.hpp:74] Creating layer three
I0729 22:57:55.704772 32751 net.cpp:84] Creating Layer three
I0729 22:57:55.704779 32751 net.cpp:384] three <- two
I0729 22:57:55.704792 32751 net.cpp:342] three -> three
I0729 22:57:55.704803 32751 net.cpp:113] Setting up three
I0729 22:57:55.704835 32751 net.cpp:120] Top shape: 10 9 8 (720)
I0729 22:57:55.704841 32751 net.cpp:126] Memory required for data: 8640
I0729 22:57:55.704846 32751 net.cpp:169] three does not need backward computation.
I0729 22:57:55.704849 32751 net.cpp:169] two does not need backward computation.
I0729 22:57:55.704852 32751 net.cpp:169] one does not need backward computation.
I0729 22:57:55.704856 32751 net.cpp:208] This network produces output three
I0729 22:57:55.704867 32751 net.cpp:449] Collecting Learning Rate and Weight Decay.
I0729 22:57:55.704871 32751 net.cpp:221] Network initialization done.
I0729 22:57:55.704874 32751 net.cpp:222] Memory required for data: 8640
.I0729 22:57:57.629119 32751 net.cpp:42] Initializing net from parameters: 
name: "pythonnet"
input: "data"
force_backward: true
state {
  phase: TRAIN
}
input_shape {
  dim: 10
  dim: 9
  dim: 8
}
layer {
  name: "one"
  type: "Python"
  bottom: "data"
  top: "one"
  python_param {
    module: "test_python_layer"
    layer: "SimpleLayer"
  }
}
layer {
  name: "two"
  type: "Python"
  bottom: "one"
  top: "two"
  python_param {
    module: "test_python_layer"
    layer: "SimpleLayer"
  }
}
layer {
  name: "three"
  type: "Python"
  bottom: "two"
  top: "three"
  python_param {
    module: "test_python_layer"
    layer: "SimpleLayer"
  }
}
I0729 22:57:57.629180 32751 net.cpp:344] Input 0 -> data
I0729 22:57:57.629211 32751 net.cpp:67] Memory required for data: 0
I0729 22:57:57.629232 32751 layer_factory.hpp:74] Creating layer one
I0729 22:57:57.629276 32751 net.cpp:84] Creating Layer one
I0729 22:57:57.629284 32751 net.cpp:384] one <- data
I0729 22:57:57.629298 32751 net.cpp:342] one -> one
I0729 22:57:57.629312 32751 net.cpp:113] Setting up one
I0729 22:57:57.629355 32751 net.cpp:120] Top shape: 10 9 8 (720)
I0729 22:57:57.629361 32751 net.cpp:126] Memory required for data: 2880
I0729 22:57:57.629369 32751 layer_factory.hpp:74] Creating layer two
I0729 22:57:57.629395 32751 net.cpp:84] Creating Layer two
I0729 22:57:57.629403 32751 net.cpp:384] two <- one
I0729 22:57:57.629417 32751 net.cpp:342] two -> two
I0729 22:57:57.629434 32751 net.cpp:113] Setting up two
I0729 22:57:57.629472 32751 net.cpp:120] Top shape: 10 9 8 (720)
I0729 22:57:57.629477 32751 net.cpp:126] Memory required for data: 5760
I0729 22:57:57.629482 32751 layer_factory.hpp:74] Creating layer three
I0729 22:57:57.629508 32751 net.cpp:84] Creating Layer three
I0729 22:57:57.629515 32751 net.cpp:384] three <- two
I0729 22:57:57.629528 32751 net.cpp:342] three -> three
I0729 22:57:57.629539 32751 net.cpp:113] Setting up three
I0729 22:57:57.629572 32751 net.cpp:120] Top shape: 10 9 8 (720)
I0729 22:57:57.629578 32751 net.cpp:126] Memory required for data: 8640
I0729 22:57:57.629583 32751 net.cpp:169] three does not need backward computation.
I0729 22:57:57.629587 32751 net.cpp:169] two does not need backward computation.
I0729 22:57:57.629590 32751 net.cpp:169] one does not need backward computation.
I0729 22:57:57.629593 32751 net.cpp:208] This network produces output three
I0729 22:57:57.629603 32751 net.cpp:449] Collecting Learning Rate and Weight Decay.
I0729 22:57:57.629607 32751 net.cpp:221] Network initialization done.
I0729 22:57:57.629609 32751 net.cpp:222] Memory required for data: 8640
.I0729 22:57:57.631191 32751 net.cpp:42] Initializing net from parameters: 
name: "pythonnet"
input: "data"
force_backward: true
state {
  phase: TRAIN
}
input_shape {
  dim: 10
  dim: 9
  dim: 8
}
layer {
  name: "one"
  type: "Python"
  bottom: "data"
  top: "one"
  python_param {
    module: "test_python_layer"
    layer: "SimpleLayer"
  }
}
layer {
  name: "two"
  type: "Python"
  bottom: "one"
  top: "two"
  python_param {
    module: "test_python_layer"
    layer: "SimpleLayer"
  }
}
layer {
  name: "three"
  type: "Python"
  bottom: "two"
  top: "three"
  python_param {
    module: "test_python_layer"
    layer: "SimpleLayer"
  }
}
I0729 22:57:57.631227 32751 net.cpp:344] Input 0 -> data
I0729 22:57:57.631247 32751 net.cpp:67] Memory required for data: 0
I0729 22:57:57.631263 32751 layer_factory.hpp:74] Creating layer one
I0729 22:57:57.631295 32751 net.cpp:84] Creating Layer one
I0729 22:57:57.631304 32751 net.cpp:384] one <- data
I0729 22:57:57.631316 32751 net.cpp:342] one -> one
I0729 22:57:57.631328 32751 net.cpp:113] Setting up one
I0729 22:57:57.631366 32751 net.cpp:120] Top shape: 10 9 8 (720)
I0729 22:57:57.631371 32751 net.cpp:126] Memory required for data: 2880
I0729 22:57:57.631377 32751 layer_factory.hpp:74] Creating layer two
I0729 22:57:57.631405 32751 net.cpp:84] Creating Layer two
I0729 22:57:57.631412 32751 net.cpp:384] two <- one
I0729 22:57:57.631427 32751 net.cpp:342] two -> two
I0729 22:57:57.631438 32751 net.cpp:113] Setting up two
I0729 22:57:57.631474 32751 net.cpp:120] Top shape: 10 9 8 (720)
I0729 22:57:57.631479 32751 net.cpp:126] Memory required for data: 5760
I0729 22:57:57.631484 32751 layer_factory.hpp:74] Creating layer three
I0729 22:57:57.631510 32751 net.cpp:84] Creating Layer three
I0729 22:57:57.631516 32751 net.cpp:384] three <- two
I0729 22:57:57.631530 32751 net.cpp:342] three -> three
I0729 22:57:57.631539 32751 net.cpp:113] Setting up three
I0729 22:57:57.631573 32751 net.cpp:120] Top shape: 10 9 8 (720)
I0729 22:57:57.631579 32751 net.cpp:126] Memory required for data: 8640
I0729 22:57:57.631584 32751 net.cpp:169] three does not need backward computation.
I0729 22:57:57.631587 32751 net.cpp:169] two does not need backward computation.
I0729 22:57:57.631590 32751 net.cpp:169] one does not need backward computation.
I0729 22:57:57.631594 32751 net.cpp:208] This network produces output three
I0729 22:57:57.631603 32751 net.cpp:449] Collecting Learning Rate and Weight Decay.
I0729 22:57:57.631608 32751 net.cpp:221] Network initialization done.
I0729 22:57:57.631609 32751 net.cpp:222] Memory required for data: 8640
.I0729 22:57:57.632158 32751 net.cpp:42] Initializing net from parameters: 
name: "pythonnet"
input: "data"
input: "label"
input: "action_unary"
input: "scene_unary"
input: "s2a"
input: "a2s"
input: "a2a"
force_backward: true
state {
  phase: TRAIN
}
input_shape {
  dim: 5
  dim: 565
}
input_shape {
  dim: 70
}
input_shape {
  dim: 5
  dim: 560
}
input_shape {
  dim: 5
  dim: 5
}
input_shape {
  dim: 70
  dim: 40
}
input_shape {
  dim: 70
  dim: 5
}
input_shape {
  dim: 980
  dim: 40
}
layer {
  name: "one"
  type: "Python"
  bottom: "data"
  bottom: "s2a"
  bottom: "a2s"
  bottom: "a2a"
  bottom: "action_unary"
  bottom: "scene_unary"
  bottom: "label"
  top: "three"
  top: "message1"
  top: "message2"
  python_param {
    module: "test_Message_Out"
    layer: "test_Message_Out"
  }
}
I0729 22:57:57.632202 32751 net.cpp:344] Input 0 -> data
I0729 22:57:57.632223 32751 net.cpp:344] Input 1 -> label
I0729 22:57:57.632236 32751 net.cpp:344] Input 2 -> action_unary
I0729 22:57:57.632246 32751 net.cpp:344] Input 3 -> scene_unary
I0729 22:57:57.632253 32751 net.cpp:344] Input 4 -> s2a
I0729 22:57:57.632262 32751 net.cpp:344] Input 5 -> a2s
I0729 22:57:57.632269 32751 net.cpp:344] Input 6 -> a2a
I0729 22:57:57.632275 32751 net.cpp:67] Memory required for data: 0
I0729 22:57:57.632288 32751 layer_factory.hpp:74] Creating layer one
I0729 22:57:57.632331 32751 net.cpp:84] Creating Layer one
I0729 22:57:57.632349 32751 net.cpp:384] one <- data
I0729 22:57:57.632360 32751 net.cpp:384] one <- s2a
I0729 22:57:57.632367 32751 net.cpp:384] one <- a2s
I0729 22:57:57.632372 32751 net.cpp:384] one <- a2a
I0729 22:57:57.632377 32751 net.cpp:384] one <- action_unary
I0729 22:57:57.632382 32751 net.cpp:384] one <- scene_unary
I0729 22:57:57.632386 32751 net.cpp:384] one <- label
I0729 22:57:57.632395 32751 net.cpp:342] one -> three
I0729 22:57:57.632406 32751 net.cpp:342] one -> message1
I0729 22:57:57.632421 32751 net.cpp:342] one -> message2
I0729 22:57:57.632429 32751 net.cpp:113] Setting up one
I0729 22:57:57.632486 32751 net.cpp:120] Top shape: 5 8475 (42375)
I0729 22:57:57.632494 32751 net.cpp:120] Top shape: 5 75 (375)
I0729 22:57:57.632498 32751 net.cpp:120] Top shape: 5 14 600 (42000)
I0729 22:57:57.632501 32751 net.cpp:126] Memory required for data: 339000
I0729 22:57:57.632508 32751 net.cpp:169] one does not need backward computation.
I0729 22:57:57.632513 32751 net.cpp:208] This network produces output message1
I0729 22:57:57.632519 32751 net.cpp:208] This network produces output message2
I0729 22:57:57.632524 32751 net.cpp:208] This network produces output three
I0729 22:57:57.632534 32751 net.cpp:449] Collecting Learning Rate and Weight Decay.
I0729 22:57:57.632537 32751 net.cpp:221] Network initialization done.
I0729 22:57:57.632539 32751 net.cpp:222] Memory required for data: 339000
FI0729 22:57:57.654657 32751 net.cpp:42] Initializing net from parameters: 
name: "pythonnet"
input: "data"
input: "label"
input: "action_unary"
input: "scene_unary"
input: "s2a"
input: "a2s"
input: "a2a"
force_backward: true
state {
  phase: TRAIN
}
input_shape {
  dim: 5
  dim: 565
}
input_shape {
  dim: 70
}
input_shape {
  dim: 5
  dim: 560
}
input_shape {
  dim: 5
  dim: 5
}
input_shape {
  dim: 70
  dim: 40
}
input_shape {
  dim: 70
  dim: 5
}
input_shape {
  dim: 980
  dim: 40
}
layer {
  name: "one"
  type: "Python"
  bottom: "data"
  bottom: "s2a"
  bottom: "a2s"
  bottom: "a2a"
  bottom: "action_unary"
  bottom: "scene_unary"
  bottom: "label"
  top: "three"
  top: "message1"
  top: "message2"
  python_param {
    module: "test_Message_Out"
    layer: "test_Message_Out"
  }
}
I0729 22:57:57.654726 32751 net.cpp:344] Input 0 -> data
I0729 22:57:57.654762 32751 net.cpp:344] Input 1 -> label
I0729 22:57:57.654774 32751 net.cpp:344] Input 2 -> action_unary
I0729 22:57:57.654785 32751 net.cpp:344] Input 3 -> scene_unary
I0729 22:57:57.654793 32751 net.cpp:344] Input 4 -> s2a
I0729 22:57:57.654803 32751 net.cpp:344] Input 5 -> a2s
I0729 22:57:57.654810 32751 net.cpp:344] Input 6 -> a2a
I0729 22:57:57.654816 32751 net.cpp:67] Memory required for data: 0
I0729 22:57:57.654835 32751 layer_factory.hpp:74] Creating layer one
I0729 22:57:57.654876 32751 net.cpp:84] Creating Layer one
I0729 22:57:57.654886 32751 net.cpp:384] one <- data
I0729 22:57:57.654896 32751 net.cpp:384] one <- s2a
I0729 22:57:57.654903 32751 net.cpp:384] one <- a2s
I0729 22:57:57.654909 32751 net.cpp:384] one <- a2a
I0729 22:57:57.654917 32751 net.cpp:384] one <- action_unary
I0729 22:57:57.654923 32751 net.cpp:384] one <- scene_unary
I0729 22:57:57.654928 32751 net.cpp:384] one <- label
I0729 22:57:57.654937 32751 net.cpp:342] one -> three
I0729 22:57:57.654948 32751 net.cpp:342] one -> message1
I0729 22:57:57.654963 32751 net.cpp:342] one -> message2
I0729 22:57:57.654971 32751 net.cpp:113] Setting up one
I0729 22:57:57.655031 32751 net.cpp:120] Top shape: 5 8475 (42375)
I0729 22:57:57.655040 32751 net.cpp:120] Top shape: 5 75 (375)
I0729 22:57:57.655043 32751 net.cpp:120] Top shape: 5 14 600 (42000)
I0729 22:57:57.655046 32751 net.cpp:126] Memory required for data: 339000
I0729 22:57:57.655055 32751 net.cpp:169] one does not need backward computation.
I0729 22:57:57.655060 32751 net.cpp:208] This network produces output message1
I0729 22:57:57.655066 32751 net.cpp:208] This network produces output message2
I0729 22:57:57.655071 32751 net.cpp:208] This network produces output three
I0729 22:57:57.655079 32751 net.cpp:449] Collecting Learning Rate and Weight Decay.
I0729 22:57:57.655083 32751 net.cpp:221] Network initialization done.
I0729 22:57:57.655086 32751 net.cpp:222] Memory required for data: 339000
.I0729 22:57:57.795418 32751 net.cpp:42] Initializing net from parameters: 
name: "pythonnet"
input: "data"
input: "label"
input: "action_unary"
input: "scene_unary"
input: "s2a"
input: "a2s"
input: "a2a"
force_backward: true
state {
  phase: TRAIN
}
input_shape {
  dim: 5
  dim: 565
}
input_shape {
  dim: 70
}
input_shape {
  dim: 5
  dim: 560
}
input_shape {
  dim: 5
  dim: 5
}
input_shape {
  dim: 70
  dim: 40
}
input_shape {
  dim: 70
  dim: 5
}
input_shape {
  dim: 980
  dim: 40
}
layer {
  name: "one"
  type: "Python"
  bottom: "data"
  bottom: "s2a"
  bottom: "a2s"
  bottom: "a2a"
  bottom: "action_unary"
  bottom: "scene_unary"
  bottom: "label"
  top: "three"
  top: "message1"
  top: "message2"
  python_param {
    module: "test_Message_Out"
    layer: "test_Message_Out"
  }
}
I0729 22:57:57.795490 32751 net.cpp:344] Input 0 -> data
I0729 22:57:57.795527 32751 net.cpp:344] Input 1 -> label
I0729 22:57:57.795541 32751 net.cpp:344] Input 2 -> action_unary
I0729 22:57:57.795552 32751 net.cpp:344] Input 3 -> scene_unary
I0729 22:57:57.795559 32751 net.cpp:344] Input 4 -> s2a
I0729 22:57:57.795569 32751 net.cpp:344] Input 5 -> a2s
I0729 22:57:57.795577 32751 net.cpp:344] Input 6 -> a2a
I0729 22:57:57.795583 32751 net.cpp:67] Memory required for data: 0
I0729 22:57:57.795603 32751 layer_factory.hpp:74] Creating layer one
I0729 22:57:57.795645 32751 net.cpp:84] Creating Layer one
I0729 22:57:57.795655 32751 net.cpp:384] one <- data
I0729 22:57:57.795665 32751 net.cpp:384] one <- s2a
I0729 22:57:57.795672 32751 net.cpp:384] one <- a2s
I0729 22:57:57.795677 32751 net.cpp:384] one <- a2a
I0729 22:57:57.795682 32751 net.cpp:384] one <- action_unary
I0729 22:57:57.795687 32751 net.cpp:384] one <- scene_unary
I0729 22:57:57.795692 32751 net.cpp:384] one <- label
I0729 22:57:57.795701 32751 net.cpp:342] one -> three
I0729 22:57:57.795712 32751 net.cpp:342] one -> message1
I0729 22:57:57.795727 32751 net.cpp:342] one -> message2
I0729 22:57:57.795737 32751 net.cpp:113] Setting up one
I0729 22:57:57.795800 32751 net.cpp:120] Top shape: 5 8475 (42375)
I0729 22:57:57.795809 32751 net.cpp:120] Top shape: 5 75 (375)
I0729 22:57:57.795814 32751 net.cpp:120] Top shape: 5 14 600 (42000)
I0729 22:57:57.795815 32751 net.cpp:126] Memory required for data: 339000
I0729 22:57:57.795824 32751 net.cpp:169] one does not need backward computation.
I0729 22:57:57.795828 32751 net.cpp:208] This network produces output message1
I0729 22:57:57.795835 32751 net.cpp:208] This network produces output message2
I0729 22:57:57.795840 32751 net.cpp:208] This network produces output three
I0729 22:57:57.795848 32751 net.cpp:449] Collecting Learning Rate and Weight Decay.
I0729 22:57:57.795852 32751 net.cpp:221] Network initialization done.
I0729 22:57:57.795855 32751 net.cpp:222] Memory required for data: 339000
.I0729 22:57:57.796042 32751 net.cpp:42] Initializing net from parameters: 
name: "pythonnet"
input: "data"
input: "label"
force_backward: true
state {
  phase: TRAIN
}
input_shape {
  dim: 5
  dim: 565
}
input_shape {
  dim: 70
}
layer {
  name: "one"
  type: "Python"
  bottom: "data"
  bottom: "label"
  top: "one"
  python_param {
    module: "test_Initialize_Message"
    layer: "test_Initial_Message"
  }
}
I0729 22:57:57.796074 32751 net.cpp:344] Input 0 -> data
I0729 22:57:57.796094 32751 net.cpp:344] Input 1 -> label
I0729 22:57:57.796107 32751 net.cpp:67] Memory required for data: 0
I0729 22:57:57.796119 32751 layer_factory.hpp:74] Creating layer one
I0729 22:57:57.796149 32751 net.cpp:84] Creating Layer one
I0729 22:57:57.796157 32751 net.cpp:384] one <- data
I0729 22:57:57.796167 32751 net.cpp:384] one <- label
I0729 22:57:57.796176 32751 net.cpp:342] one -> one
I0729 22:57:57.796188 32751 net.cpp:113] Setting up one
I0729 22:57:57.796232 32751 net.cpp:120] Top shape: 5 8475 (42375)
I0729 22:57:57.796238 32751 net.cpp:126] Memory required for data: 169500
I0729 22:57:57.796246 32751 net.cpp:169] one does not need backward computation.
I0729 22:57:57.796249 32751 net.cpp:208] This network produces output one
I0729 22:57:57.796258 32751 net.cpp:449] Collecting Learning Rate and Weight Decay.
I0729 22:57:57.796262 32751 net.cpp:221] Network initialization done.
I0729 22:57:57.796264 32751 net.cpp:222] Memory required for data: 169500
.I0729 22:57:57.802510 32751 net.cpp:42] Initializing net from parameters: 
name: "pythonnet"
input: "data"
input: "label"
force_backward: true
state {
  phase: TRAIN
}
input_shape {
  dim: 5
  dim: 565
}
input_shape {
  dim: 70
}
layer {
  name: "one"
  type: "Python"
  bottom: "data"
  bottom: "label"
  top: "one"
  python_param {
    module: "test_Initialize_Message"
    layer: "test_Initial_Message"
  }
}
I0729 22:57:57.802539 32751 net.cpp:344] Input 0 -> data
I0729 22:57:57.802561 32751 net.cpp:344] Input 1 -> label
I0729 22:57:57.802572 32751 net.cpp:67] Memory required for data: 0
I0729 22:57:57.802587 32751 layer_factory.hpp:74] Creating layer one
I0729 22:57:57.802615 32751 net.cpp:84] Creating Layer one
I0729 22:57:57.802623 32751 net.cpp:384] one <- data
I0729 22:57:57.802634 32751 net.cpp:384] one <- label
I0729 22:57:57.802644 32751 net.cpp:342] one -> one
I0729 22:57:57.802655 32751 net.cpp:113] Setting up one
I0729 22:57:57.802697 32751 net.cpp:120] Top shape: 5 8475 (42375)
I0729 22:57:57.802703 32751 net.cpp:126] Memory required for data: 169500
I0729 22:57:57.802711 32751 net.cpp:169] one does not need backward computation.
I0729 22:57:57.802714 32751 net.cpp:208] This network produces output one
I0729 22:57:57.802723 32751 net.cpp:449] Collecting Learning Rate and Weight Decay.
I0729 22:57:57.802726 32751 net.cpp:221] Network initialization done.
I0729 22:57:57.802729 32751 net.cpp:222] Memory required for data: 169500
.I0729 22:57:57.874001 32751 net.cpp:42] Initializing net from parameters: 
name: "pythonnet"
input: "data"
input: "label"
force_backward: true
state {
  phase: TRAIN
}
input_shape {
  dim: 5
  dim: 565
}
input_shape {
  dim: 70
}
layer {
  name: "one"
  type: "Python"
  bottom: "data"
  bottom: "label"
  top: "one"
  python_param {
    module: "test_Initialize_Message"
    layer: "test_Initial_Message"
  }
}
I0729 22:57:57.874058 32751 net.cpp:344] Input 0 -> data
I0729 22:57:57.874104 32751 net.cpp:344] Input 1 -> label
I0729 22:57:57.874116 32751 net.cpp:67] Memory required for data: 0
I0729 22:57:57.874140 32751 layer_factory.hpp:74] Creating layer one
I0729 22:57:57.874188 32751 net.cpp:84] Creating Layer one
I0729 22:57:57.874197 32751 net.cpp:384] one <- data
I0729 22:57:57.874218 32751 net.cpp:384] one <- label
I0729 22:57:57.874238 32751 net.cpp:342] one -> one
I0729 22:57:57.874260 32751 net.cpp:113] Setting up one
I0729 22:57:57.874332 32751 net.cpp:120] Top shape: 5 8475 (42375)
I0729 22:57:57.874339 32751 net.cpp:126] Memory required for data: 169500
I0729 22:57:57.874346 32751 net.cpp:169] one does not need backward computation.
I0729 22:57:57.874351 32751 net.cpp:208] This network produces output one
I0729 22:57:57.874363 32751 net.cpp:449] Collecting Learning Rate and Weight Decay.
I0729 22:57:57.874368 32751 net.cpp:221] Network initialization done.
I0729 22:57:57.874371 32751 net.cpp:222] Memory required for data: 169500
.I0729 22:57:57.874572 32751 net.cpp:42] Initializing net from parameters: 
name: "pythonnet"
input: "data"
input: "label"
force_backward: true
state {
  phase: TRAIN
}
input_shape {
  dim: 5
  dim: 565
}
input_shape {
  dim: 70
}
layer {
  name: "one"
  type: "Python"
  bottom: "data"
  bottom: "label"
  top: "one"
  python_param {
    module: "test_Initialize_Message"
    layer: "test_Initial_Message"
  }
}
layer {
  name: "two"
  type: "Python"
  bottom: "one"
  bottom: "label"
  top: "s2a"
  top: "a2s"
  top: "a2a"
  python_param {
    module: "test_Message_In"
    layer: "test_Message_In"
  }
}
I0729 22:57:57.874615 32751 net.cpp:344] Input 0 -> data
I0729 22:57:57.874635 32751 net.cpp:344] Input 1 -> label
I0729 22:57:57.874647 32751 net.cpp:67] Memory required for data: 0
I0729 22:57:57.874662 32751 layer_factory.hpp:74] Creating layer label_input_1_split
I0729 22:57:57.874677 32751 net.cpp:84] Creating Layer label_input_1_split
I0729 22:57:57.874683 32751 net.cpp:384] label_input_1_split <- label
I0729 22:57:57.874694 32751 net.cpp:342] label_input_1_split -> label_input_1_split_0
I0729 22:57:57.874708 32751 net.cpp:342] label_input_1_split -> label_input_1_split_1
I0729 22:57:57.874716 32751 net.cpp:113] Setting up label_input_1_split
I0729 22:57:57.874727 32751 net.cpp:120] Top shape: 70 (70)
I0729 22:57:57.874732 32751 net.cpp:120] Top shape: 70 (70)
I0729 22:57:57.874735 32751 net.cpp:126] Memory required for data: 560
I0729 22:57:57.874740 32751 layer_factory.hpp:74] Creating layer one
I0729 22:57:57.874768 32751 net.cpp:84] Creating Layer one
I0729 22:57:57.874776 32751 net.cpp:384] one <- data
I0729 22:57:57.874785 32751 net.cpp:384] one <- label_input_1_split_0
I0729 22:57:57.874795 32751 net.cpp:342] one -> one
I0729 22:57:57.874807 32751 net.cpp:113] Setting up one
I0729 22:57:57.874850 32751 net.cpp:120] Top shape: 5 8475 (42375)
I0729 22:57:57.874855 32751 net.cpp:126] Memory required for data: 170060
I0729 22:57:57.874861 32751 layer_factory.hpp:74] Creating layer two
I0729 22:57:57.874886 32751 net.cpp:84] Creating Layer two
I0729 22:57:57.874894 32751 net.cpp:384] two <- one
I0729 22:57:57.874904 32751 net.cpp:384] two <- label_input_1_split_1
I0729 22:57:57.874914 32751 net.cpp:342] two -> s2a
I0729 22:57:57.874927 32751 net.cpp:342] two -> a2s
I0729 22:57:57.874936 32751 net.cpp:342] two -> a2a
I0729 22:57:57.874943 32751 net.cpp:113] Setting up two
I0729 22:57:57.875000 32751 net.cpp:120] Top shape: 70 5 (350)
I0729 22:57:57.875008 32751 net.cpp:120] Top shape: 70 40 (2800)
I0729 22:57:57.875011 32751 net.cpp:120] Top shape: 980 40 (39200)
I0729 22:57:57.875015 32751 net.cpp:126] Memory required for data: 339460
I0729 22:57:57.875020 32751 net.cpp:169] two does not need backward computation.
I0729 22:57:57.875023 32751 net.cpp:169] one does not need backward computation.
I0729 22:57:57.875026 32751 net.cpp:169] label_input_1_split does not need backward computation.
I0729 22:57:57.875030 32751 net.cpp:208] This network produces output a2a
I0729 22:57:57.875036 32751 net.cpp:208] This network produces output a2s
I0729 22:57:57.875041 32751 net.cpp:208] This network produces output s2a
I0729 22:57:57.875049 32751 net.cpp:449] Collecting Learning Rate and Weight Decay.
I0729 22:57:57.875053 32751 net.cpp:221] Network initialization done.
I0729 22:57:57.875056 32751 net.cpp:222] Memory required for data: 339460
.I0729 22:57:57.884935 32751 net.cpp:42] Initializing net from parameters: 
name: "pythonnet"
input: "data"
input: "label"
force_backward: true
state {
  phase: TRAIN
}
input_shape {
  dim: 5
  dim: 565
}
input_shape {
  dim: 70
}
layer {
  name: "one"
  type: "Python"
  bottom: "data"
  bottom: "label"
  top: "one"
  python_param {
    module: "test_Initialize_Message"
    layer: "test_Initial_Message"
  }
}
layer {
  name: "two"
  type: "Python"
  bottom: "one"
  bottom: "label"
  top: "s2a"
  top: "a2s"
  top: "a2a"
  python_param {
    module: "test_Message_In"
    layer: "test_Message_In"
  }
}
I0729 22:57:57.884987 32751 net.cpp:344] Input 0 -> data
I0729 22:57:57.885010 32751 net.cpp:344] Input 1 -> label
I0729 22:57:57.885023 32751 net.cpp:67] Memory required for data: 0
I0729 22:57:57.885040 32751 layer_factory.hpp:74] Creating layer label_input_1_split
I0729 22:57:57.885051 32751 net.cpp:84] Creating Layer label_input_1_split
I0729 22:57:57.885057 32751 net.cpp:384] label_input_1_split <- label
I0729 22:57:57.885067 32751 net.cpp:342] label_input_1_split -> label_input_1_split_0
I0729 22:57:57.885082 32751 net.cpp:342] label_input_1_split -> label_input_1_split_1
I0729 22:57:57.885089 32751 net.cpp:113] Setting up label_input_1_split
I0729 22:57:57.885100 32751 net.cpp:120] Top shape: 70 (70)
I0729 22:57:57.885107 32751 net.cpp:120] Top shape: 70 (70)
I0729 22:57:57.885108 32751 net.cpp:126] Memory required for data: 560
I0729 22:57:57.885114 32751 layer_factory.hpp:74] Creating layer one
I0729 22:57:57.885143 32751 net.cpp:84] Creating Layer one
I0729 22:57:57.885151 32751 net.cpp:384] one <- data
I0729 22:57:57.885160 32751 net.cpp:384] one <- label_input_1_split_0
I0729 22:57:57.885170 32751 net.cpp:342] one -> one
I0729 22:57:57.885182 32751 net.cpp:113] Setting up one
I0729 22:57:57.885224 32751 net.cpp:120] Top shape: 5 8475 (42375)
I0729 22:57:57.885231 32751 net.cpp:126] Memory required for data: 170060
I0729 22:57:57.885236 32751 layer_factory.hpp:74] Creating layer two
I0729 22:57:57.885262 32751 net.cpp:84] Creating Layer two
I0729 22:57:57.885269 32751 net.cpp:384] two <- one
I0729 22:57:57.885279 32751 net.cpp:384] two <- label_input_1_split_1
I0729 22:57:57.885289 32751 net.cpp:342] two -> s2a
I0729 22:57:57.885301 32751 net.cpp:342] two -> a2s
I0729 22:57:57.885311 32751 net.cpp:342] two -> a2a
I0729 22:57:57.885319 32751 net.cpp:113] Setting up two
I0729 22:57:57.885372 32751 net.cpp:120] Top shape: 70 5 (350)
I0729 22:57:57.885380 32751 net.cpp:120] Top shape: 70 40 (2800)
I0729 22:57:57.885385 32751 net.cpp:120] Top shape: 980 40 (39200)
I0729 22:57:57.885387 32751 net.cpp:126] Memory required for data: 339460
I0729 22:57:57.885392 32751 net.cpp:169] two does not need backward computation.
I0729 22:57:57.885396 32751 net.cpp:169] one does not need backward computation.
I0729 22:57:57.885398 32751 net.cpp:169] label_input_1_split does not need backward computation.
I0729 22:57:57.885403 32751 net.cpp:208] This network produces output a2a
I0729 22:57:57.885409 32751 net.cpp:208] This network produces output a2s
I0729 22:57:57.885413 32751 net.cpp:208] This network produces output s2a
I0729 22:57:57.885422 32751 net.cpp:449] Collecting Learning Rate and Weight Decay.
I0729 22:57:57.885426 32751 net.cpp:221] Network initialization done.
I0729 22:57:57.885428 32751 net.cpp:222] Memory required for data: 339460
.I0729 22:57:57.898202 32751 net.cpp:42] Initializing net from parameters: 
name: "pythonnet"
input: "data"
input: "label"
force_backward: true
state {
  phase: TRAIN
}
input_shape {
  dim: 5
  dim: 565
}
input_shape {
  dim: 70
}
layer {
  name: "one"
  type: "Python"
  bottom: "data"
  bottom: "label"
  top: "one"
  python_param {
    module: "test_Initialize_Message"
    layer: "test_Initial_Message"
  }
}
layer {
  name: "two"
  type: "Python"
  bottom: "one"
  bottom: "label"
  top: "s2a"
  top: "a2s"
  top: "a2a"
  python_param {
    module: "test_Message_In"
    layer: "test_Message_In"
  }
}
I0729 22:57:57.898257 32751 net.cpp:344] Input 0 -> data
I0729 22:57:57.898282 32751 net.cpp:344] Input 1 -> label
I0729 22:57:57.898293 32751 net.cpp:67] Memory required for data: 0
I0729 22:57:57.898311 32751 layer_factory.hpp:74] Creating layer label_input_1_split
I0729 22:57:57.898324 32751 net.cpp:84] Creating Layer label_input_1_split
I0729 22:57:57.898329 32751 net.cpp:384] label_input_1_split <- label
I0729 22:57:57.898340 32751 net.cpp:342] label_input_1_split -> label_input_1_split_0
I0729 22:57:57.898355 32751 net.cpp:342] label_input_1_split -> label_input_1_split_1
I0729 22:57:57.898367 32751 net.cpp:113] Setting up label_input_1_split
I0729 22:57:57.898380 32751 net.cpp:120] Top shape: 70 (70)
I0729 22:57:57.898385 32751 net.cpp:120] Top shape: 70 (70)
I0729 22:57:57.898386 32751 net.cpp:126] Memory required for data: 560
I0729 22:57:57.898392 32751 layer_factory.hpp:74] Creating layer one
I0729 22:57:57.898422 32751 net.cpp:84] Creating Layer one
I0729 22:57:57.898430 32751 net.cpp:384] one <- data
I0729 22:57:57.898440 32751 net.cpp:384] one <- label_input_1_split_0
I0729 22:57:57.898449 32751 net.cpp:342] one -> one
I0729 22:57:57.898461 32751 net.cpp:113] Setting up one
I0729 22:57:57.898505 32751 net.cpp:120] Top shape: 5 8475 (42375)
I0729 22:57:57.898511 32751 net.cpp:126] Memory required for data: 170060
I0729 22:57:57.898516 32751 layer_factory.hpp:74] Creating layer two
I0729 22:57:57.898542 32751 net.cpp:84] Creating Layer two
I0729 22:57:57.898550 32751 net.cpp:384] two <- one
I0729 22:57:57.898561 32751 net.cpp:384] two <- label_input_1_split_1
I0729 22:57:57.898571 32751 net.cpp:342] two -> s2a
I0729 22:57:57.898582 32751 net.cpp:342] two -> a2s
I0729 22:57:57.898592 32751 net.cpp:342] two -> a2a
I0729 22:57:57.898600 32751 net.cpp:113] Setting up two
I0729 22:57:57.898654 32751 net.cpp:120] Top shape: 70 5 (350)
I0729 22:57:57.898663 32751 net.cpp:120] Top shape: 70 40 (2800)
I0729 22:57:57.898666 32751 net.cpp:120] Top shape: 980 40 (39200)
I0729 22:57:57.898669 32751 net.cpp:126] Memory required for data: 339460
I0729 22:57:57.898674 32751 net.cpp:169] two does not need backward computation.
I0729 22:57:57.898677 32751 net.cpp:169] one does not need backward computation.
I0729 22:57:57.898680 32751 net.cpp:169] label_input_1_split does not need backward computation.
I0729 22:57:57.898684 32751 net.cpp:208] This network produces output a2a
I0729 22:57:57.898690 32751 net.cpp:208] This network produces output a2s
I0729 22:57:57.898695 32751 net.cpp:208] This network produces output s2a
I0729 22:57:57.898705 32751 net.cpp:449] Collecting Learning Rate and Weight Decay.
I0729 22:57:57.898707 32751 net.cpp:221] Network initialization done.
I0729 22:57:57.898710 32751 net.cpp:222] Memory required for data: 339460
.I0729 22:57:57.898988 32751 net.cpp:42] Initializing net from parameters: 
name: "testnet"
force_backward: true
state {
  phase: TRAIN
}
layer {
  name: "data"
  type: "DummyData"
  top: "data"
  top: "label"
  dummy_data_param {
    data_filler {
      type: "gaussian"
      std: 1
    }
    data_filler {
      type: "constant"
    }
    num: 5
    num: 5
    channels: 2
    channels: 1
    height: 3
    height: 1
    width: 4
    width: 1
  }
}
layer {
  name: "conv"
  type: "Convolution"
  bottom: "data"
  top: "conv"
  param {
    decay_mult: 1
  }
  param {
    decay_mult: 0
  }
  convolution_param {
    num_output: 11
    pad: 3
    kernel_size: 2
    weight_filler {
      type: "gaussian"
      std: 1
    }
    bias_filler {
      type: "constant"
      value: 2
    }
  }
}
layer {
  name: "ip"
  type: "InnerProduct"
  bottom: "conv"
  top: "ip"
  inner_product_param {
    num_output: 13
    weight_filler {
      type: "gaussian"
      std: 2.5
    }
    bias_filler {
      type: "constant"
      value: -3
    }
  }
}
layer {
  name: "loss"
  type: "SoftmaxWithLoss"
  bottom: "ip"
  bottom: "label"
  top: "loss"
}
I0729 22:57:57.899030 32751 net.cpp:67] Memory required for data: 0
I0729 22:57:57.899050 32751 layer_factory.hpp:74] Creating layer data
I0729 22:57:57.899067 32751 net.cpp:84] Creating Layer data
I0729 22:57:57.899075 32751 net.cpp:342] data -> data
I0729 22:57:57.899092 32751 net.cpp:342] data -> label
I0729 22:57:57.899106 32751 net.cpp:113] Setting up data
I0729 22:57:57.899133 32751 net.cpp:120] Top shape: 5 2 3 4 (120)
I0729 22:57:57.899139 32751 net.cpp:120] Top shape: 5 1 1 1 (5)
I0729 22:57:57.899142 32751 net.cpp:126] Memory required for data: 500
I0729 22:57:57.899147 32751 layer_factory.hpp:74] Creating layer conv
I0729 22:57:57.899171 32751 net.cpp:84] Creating Layer conv
I0729 22:57:57.899185 32751 net.cpp:384] conv <- data
I0729 22:57:57.899201 32751 net.cpp:342] conv -> conv
I0729 22:57:57.899215 32751 net.cpp:113] Setting up conv
I0729 22:57:57.899582 32751 net.cpp:120] Top shape: 5 11 8 9 (3960)
I0729 22:57:57.899588 32751 net.cpp:126] Memory required for data: 16340
I0729 22:57:57.899606 32751 layer_factory.hpp:74] Creating layer ip
I0729 22:57:57.899621 32751 net.cpp:84] Creating Layer ip
I0729 22:57:57.899626 32751 net.cpp:384] ip <- conv
I0729 22:57:57.899638 32751 net.cpp:342] ip -> ip
I0729 22:57:57.899649 32751 net.cpp:113] Setting up ip
I0729 22:57:57.900369 32751 net.cpp:120] Top shape: 5 13 (65)
I0729 22:57:57.900374 32751 net.cpp:126] Memory required for data: 16600
I0729 22:57:57.900387 32751 layer_factory.hpp:74] Creating layer loss
I0729 22:57:57.900395 32751 net.cpp:84] Creating Layer loss
I0729 22:57:57.900400 32751 net.cpp:384] loss <- ip
I0729 22:57:57.900409 32751 net.cpp:384] loss <- label
I0729 22:57:57.900418 32751 net.cpp:342] loss -> loss
I0729 22:57:57.900429 32751 net.cpp:113] Setting up loss
…
I0729 22:57:57.900509 32751 net.cpp:221] Network initialization done.
I0729 22:57:57.900511 32751 net.cpp:222] Memory required for data: 16604
.I0729 22:57:57.901469 32751 net.cpp:42] Initializing net from parameters: 
name: "testnet"
force_backward: true
state {
  phase: TRAIN
}
layer {
  name: "data"
  type: "DummyData"
  top: "data"
  top: "label"
  dummy_data_param {
    data_filler {
      type: "gaussian"
      std: 1
    }
    data_filler {
      type: "constant"
    }
    num: 5
    num: 5
    channels: 2
    channels: 1
    height: 3
    height: 1
    width: 4
    width: 1
  }
}
layer {
  name: "conv"
  type: "Convolution"
  bottom: "data"
  top: "conv"
  param {
    decay_mult: 1
  }
  param {
    decay_mult: 0
  }
  convolution_param {
    num_output: 11
    pad: 3
    kernel_size: 2
    weight_filler {
      type: "gaussian"
      std: 1
    }
    bias_filler {
      type: "constant"
      value: 2
    }
  }
}
layer {
  name: "ip"
  type: "InnerProduct"
  bottom: "conv"
  top: "ip"
  inner_product_param {
    num_output: 13
    weight_filler {
      type: "gaussian"
      std: 2.5
    }
    bias_filler {
      type: "constant"
      value: -3
    }
  }
}
layer {
  name: "loss"
  type: "SoftmaxWithLoss"
  bottom: "ip"
  bottom: "label"
  top: "loss"
}
I0729 22:57:57.901512 32751 net.cpp:67] Memory required for data: 0
I0729 22:57:57.901532 32751 layer_factory.hpp:74] Creating layer data
I0729 22:57:57.901546 32751 net.cpp:84] Creating Layer data
I0729 22:57:57.901553 32751 net.cpp:342] data -> data
I0729 22:57:57.901571 32751 net.cpp:342] data -> label
I0729 22:57:57.901584 32751 net.cpp:113] Setting up data
I0729 22:57:57.901605 32751 net.cpp:120] Top shape: 5 2 3 4 (120)
I0729 22:57:57.901612 32751 net.cpp:120] Top shape: 5 1 1 1 (5)
I0729 22:57:57.901614 32751 net.cpp:126] Memory required for data: 500
I0729 22:57:57.901619 32751 layer_factory.hpp:74] Creating layer conv
I0729 22:57:57.901633 32751 net.cpp:84] Creating Layer conv
I0729 22:57:57.901639 32751 net.cpp:384] conv <- data
I0729 22:57:57.901653 32751 net.cpp:342] conv -> conv
I0729 22:57:57.901665 32751 net.cpp:113] Setting up conv
I0729 22:57:57.901698 32751 net.cpp:120] Top shape: 5 11 8 9 (3960)
I0729 22:57:57.901703 32751 net.cpp:126] Memory required for data: 16340
I0729 22:57:57.901718 32751 layer_factory.hpp:74] Creating layer ip
I0729 22:57:57.901734 32751 net.cpp:84] Creating Layer ip
I0729 22:57:57.901741 32751 net.cpp:384] ip <- conv
I0729 22:57:57.901753 32751 net.cpp:342] ip -> ip
I0729 22:57:57.901764 32751 net.cpp:113] Setting up ip
I0729 22:57:57.902478 32751 net.cpp:120] Top shape: 5 13 (65)
I0729 22:57:57.902483 32751 net.cpp:126] Memory required for data: 16600
I0729 22:57:57.902495 32751 layer_factory.hpp:74] Creating layer loss
I0729 22:57:57.902504 32751 net.cpp:84] Creating Layer loss
I0729 22:57:57.902509 32751 net.cpp:384] loss <- ip
I0729 22:57:57.902518 32751 net.cpp:384] loss <- label
I0729 22:57:57.902526 32751 net.cpp:342] loss -> loss
I0729 22:57:57.902537 32751 net.cpp:113] Setting up loss
…
